ICM/Breakout/FINAL.BreakoutNoFrameskip-v4.MODEL (torch_old, 392788 bytes, 9 tensors)

weight f4 [32, 4, 8, 8]
-0.13435271 0.118304975 -0.13994789 -0.11127924 -0.048442245 -0.03589868 -0.13274617 -0.027181583
-0.09109727 0.017039385 -0.13717598 -0.065435015 -0.10343689 -0.0024959494 -0.06314357 -0.030593006
0.10469613 -0.010071933 -0.033753004 -0.017670985 0.07198846 -0.044987615 0.07466895 -0.037030384
0.13323064 -0.084324434 0.00827504 0.15106826 0.041268162 -0.12980622 -0.04097095 0.090280205
-0.11986815 -0.08679475 -0.040424727 0.16161193 0.081711926 -0.086635455 -0.11485534 -0.072384365
0.08353955 0.039809056 0.15993042 -0.08110004 0.085664526 -0.06659256 -0.03148299 0.10847289
0.017121801 -0.072624505 -0.06730172 -0.043181267 0.027309634 0.101303816 0.023285698 0.11236241
0.04348774 0.02842896 0.13350615 -0.09254085 0.026667101 -0.114362374 0.110060796 -0.08761674
-0.015346344 -0.021779424 -0.020421492 0.10745744 0.009704978 0.003605211 -0.053956047 0.1338021
-0.018251088 -0.013338097 0.14859007 -0.10219326 -0.10423267 -0.026128627 0.08051347 0.106917575
-0.017469078 -0.017111495 -0.09258423 0.12460118 0.113350786 -0.049093086 0.030330703 0.010291891
-0.019704048 0.06449169 -0.08327991 -0.10863531 -0.11535985 -0.037344113 0.048724417 0.014531579
0.09537284 0.13507082 0.11392023 0.123658344 -0.038647722 -0.14076808 -0.09654127 -0.047341734
-0.08465866 0.083148435 -0.08357442 -0.008624622 -0.11363665 -0.10255501 -0.011040193 -0.03847139
-0.035228465 -0.10022441 -0.08757242 0.11127508 0.11094077 0.096875526 0.015833473 0.07082938
-0.09167423 0.118243605 -0.019462544 -0.059373774 0.01977099 0.064203925 -0.13273357 -0.076955415
-0.10126413 0.10571559 0.066077836 -0.10873677 0.082087055 -0.10417987 -0.06952944 0.0845143
-0.0039761923 3.081579e-05 -0.037661444 -0.015256379 0.025614195 -0.030487057 -0.11881955 -0.006507018
-0.011457987 -0.028999975 0.077647574 -0.05758838 0.12318464 -0.11105324 -0.040074714 -0.056830022
0.13570163 0.0042695655 0.060502686 -0.092125215 0.005382315 -0.051832233 0.08539635 0.0689947
0.10678954 0.1454457 -0.034197655 0.01821077 -0.022478065 -0.036998138 -0.08034885 0.01787605
0.15327746 -0.1302336 -0.12752432 0.071817994 0.0618793 0.14864337 -0.061418653 -0.07836221
-0.12238669 -0.044967134 0.12855527 -0.029648166 -0.05050257 -0.061992697 -0.009604632 -0.025756072
0.13524768 -0.054615024 -0.102567494 0.026913319 -0.030735351 -0.050827555 -0.021129886 -0.04562828
0.003970056 -0.0037003767 0.08933879 0.13837105 -0.028553147 -0.013277337 -0.10031252 0.15505774
0.12413676 -0.07251091 -0.028413806 0.07521999 0.0775236 -0.0069593377 0.1342636 0.046075597
-0.1343791 -0.11159833 -0.12743941 -0.013577919 0.021738468 0.1293486 0.06170957 0.1040401
-0.14228854 0.14096227 -0.1266973 -0.10999049 -0.025490284 0.004106669 0.07769563 -0.037426572
0.084503844 0.012318281 -0.0641154 -0.09030695 -0.086366415 -0.119102046 0.14743908 0.097764246
0.058079377 0.054990444 -0.0560322 -0.067175835 -0.09960534 0.080848105 -0.08875176 0.08928015
0.009537083 -0.14785202 0.134599 -0.038927253 0.10716205 0.006329024 0.13508748 0.050718505
-0.04048525 0.0050842925 -0.13502909 -0.11237574 -0.038904063 -0.08671756 -0.0068803523 0.16427444
00000000: c293 09be e149 f23d 804e 0fbe 5fe6 e3bd
00000010: 606b 46bd 7f0a 13bd 9dee 07be e9ab debc
00000020: 3591 babd 2e96 8b3c dc77 0cbe cb02 86bd
00000030: b8d6 d3bd 1593 23bb 6b51 81bd 2f9e fabc
00000040: ed6a d63d c004 25bc 9740 0abd bec2 90bc
00000050: b06e 933d ef44 38bd 09ec 983d 2cad 17bd
00000060: 9d6d 083e 4ab2 acbd 0994 073c a3b1 1a3e
00000070: ce08 293d eceb 04be 28d1 27bd d4e4 b83d
00000080: 6f7d f5bd 72c1 b1bd 6694 25bd 997d 253e
00000090: 9558 a73d ee6d b1bd 4739 ebbd 413e 94bd
000000a0: c916 ab3d d20e 233d cdc4 233e c717 a6bd
000000b0: e270 af3d ae61 88bd 4ff4 00bd 0927 de3d
000000c0: 0543 8c3c 28bc 94bd 7cd5 89bd d7de 30bd
000000d0: 74b8 df3c 6078 cf3d a6c1 be3c 431e e63d
000000e0: 3320 323d dae3 e83c d6b5 083e 0f86 bdbd
000000f0: f774 da3c d236 eabd 8e67 e13d 6870 b3bd
00000100: 3b6f 7bbc c36a b2bc f94a a7bc a512 dc3d
00000110: a101 1f3c 6745 6c3b 0401 5dbd 6b03 093e
00000120: 4e83 95bc 0988 5abc ff27 183e b34a d1bd
00000130: f077 d5bd b40b d6bc 3fe4 a43d 9af7 da3d
00000140: 501b 8fbc 682d 8cbc cd9c bdbd e72e ff3d
00000150: 7524 e83d d515 49bd 1878 f83c 529f 283c
00000160: 626a a1bc 3814 843d a88e aabd 307c debd
00000170: c941 ecbd 24f6 18bd 4193 473d dc15 6e3c
00000180: d652 c33d 0150 0a3e 024f e93d 9640 fd3d
00000190: 134d 1ebd 8225 10be 6eb7 c5bd 68e9 41bd
000001a0: 8561 adbd ba49 aa3d 1129 abbd 494e 0dbc
000001b0: 55ba e8bd 5c08 d2bd ede1 34bc 2d94 1dbd
000001c0: b94b 10bd 7542 cdbd 2b59 b3bd 30e4 e33d
000001d0: ea34 e33d ad66 c63d 33b5 813c fe0e 913d
000001e0: b3bf bbbd b429 f23d ea6f 9fbc ea31 73bd
000001f0: c5f6 a13c 597d 833d 4feb 07be cd9a 9dbd
00000200: 9163 cfbd 6a81 d83d d153 873d 62b1 debd
00000210: 421d a83d 415c d5bd 7365 8ebd d515 ad3d
00000220: b84a 82bb 3440 0138 e342 1abd e4f5 79bc
00000230: dcd4 d13c febf f9bc aa57 f3bd d338 d5bb
00000240: 48ba 3bbc 5b91 edbc b105 9f3d cbe1 6bbd
00000250: 3b48 fc3d e26f e3bd 6225 24bd 99c6 68bd
00000260: 5ef5 0a3e b6e7 8b3b aad1 773d 25ac bcbd
00000270: 215e b03b 094e 54bd 48e4 ae3d 184d 8d3d
00000280: 79b4 da3d b8ef 143e d712 0cbd c12e 953c
00000290: eb23 b8bc 5c8b 17bd f08d a4bd cb70 923c
000002a0: c4f4 1c3e f55b 05be bc95 02be 5015 933d
000002b0: 2675 7d3d f835 183e 2092 7bbd 5e7c a0bd
000002c0: dfa5 fabd 752f 38bd fea3 033e b6e0 f2bc
000002d0: c8db 4ebd 0eec 7dbd bf5c 1dbc 66fe d2bc
000002e0: 5e7e 0a3e 01b4 5fbd e80e d2bd 5279 dc3c
000002f0: b4c8 fbbc 8e30 50bd 9518 adbc b8e4 3abd
00000300: 3e17 823b 0582 72bb 41f7 b63d 24b1 0d3e
00000310: 4ae8 e9bc 3089 59bc a770 cdbd 75c7 1e3e
00000320: 6a3b fe3d 9a80 94bd 12c4 e8bc f00c 9a3d
00000330: b1c4 9e3d 280b e4bb 667c 093e c4b9 3c3d
00000340: ad9a 09be aa8d e4bd 7a7f 02be ec75 5ebc
00000350: df14 b23c f673 043e 2dc3 7c3d fa12 d53d
00000360: 16b4 11be 6a58 103e f0bc 01be b242 e1bd
00000370: 00d1 d0bc 3d91 863b e31e 9f3d 9b4c 19bd
00000380: 5a10 ad3d 9ed2 493c ef4e 83bd daf2 b8bd
00000390: e0e0 b0bd c6eb f3bd 45fa 163e 9f38 c83d
000003a0: a4e4 6d3d a93d 613d 0582 65bd 7c93 89bd
000003b0: e2fd cbbd b193 a53d 7cc3 b5bd 83d8 b63d
000003c0: 6d41 1c3c 8566 17be 52d4 093e 2f72 1fbd
000003d0: c777 db3d b463 cf3b 5f54 0a3e 35be 4f3d
000003e0: ddd3 25bd 239a a63b 1145 0abe 4125 e6bd
000003f0: de59 1fbd fa98 b1bd 9474 e1bb 8f37 283e

bias f4 [32]
0.0013360243 0.004364257 0.015237195 -0.0011298463 -0.0007331068 0.001451435 -0.001343419 0.010279328
0.019922636 -0.00016349618 0.0176502 0.006863247 0.01729563 0.00898925 -0.0020260084 -0.002269327
0.01823155 0.0064463564 0.009579384 0.019192956 0.0084995935 0.012339233 0.021823255 0.0066887597
0.009547929 0.011440032 0.016896406 0.01078267 0.0024559093 0.005966402 0.020125188 -0.0024579426
00000000: 891d af3a 0b02 8f3b 6ea5 793c 5a17 94ba
00000010: f72d 40ba 143e be3a a915 b0ba a06a 283c
00000020: cc34 a33c 2c70 2bb9 2797 903c 17e5 e03b
00000030: 91af 8d3c a647 133c c8c6 04bb fdb8 14bb
00000040: 555a 953c f53b d33b d9f2 1c3c 8c3a 9d3c
00000050: e141 0b3c 7f2a 4a3c afc6 b23c 622d db3b
00000060: eb6e 1c3c f96e 3b3c 556a 8a3c cca9 303c
00000070: 52f3 203b cf81 c33b 94dd a43c 6f15 21bb

weight f4 [64, 32, 4, 4]
0.043146446 -0.01403605 -0.07204886 -0.0009771173 0.05676349 -0.014437631 -0.011913245 0.039001435
0.040880077 -0.05199578 0.037247322 0.06725676 0.06178247 0.0071808547 -0.04227585 -0.0428134
-0.09401914 -0.030678391 -0.04953665 -0.024360744 -0.08347652 -0.0037467692 0.05700909 0.03845609
0.096900746 0.025743818 -0.052946903 0.03061437 0.112365976 -0.019086778 0.09092602 -0.057342
0.06317662 0.05179443 -0.0015932614 -0.0064202067 -0.012961627 0.046437975 -0.08933308 0.018212836
0.065375395 -0.076228544 -0.08475893 -0.08125706 -0.0016664029 0.048168413 -0.034326088 0.09196231
-0.016089378 0.011406022 -0.11005842 -0.10409816 -0.099141814 0.053844072 0.02431739 0.070673876
-0.0016518378 0.09541885 0.094684295 -0.064094305 0.060834523 -0.048935797 0.04277976 -0.0012352777
0.07161533 -0.023180168 -0.0013600034 -0.030062182 0.07517351 -0.015398089 0.015773809 -0.07229761
0.010755946 -0.017393438 -0.056042396 -0.09395 0.06667759 0.07261554 0.04555253 0.06701445
-0.057601683 -0.08713068 -0.03455133 0.029705644 0.0387443 0.07995138 0.06322861 0.070376165
0.009540876 0.099085025 -0.030559553 0.034585122 -0.05550925 0.09186334 -0.064809285 0.00065524597
-0.092905365 0.060046975 0.07499701 0.017324863 0.04409125 0.037532534 -0.021923997 0.009557017
-0.07120167 0.099235795 0.08426987 -0.025872543 -0.037019152 -0.053607415 -0.05475101 0.10745523
-0.031401794 -0.021429297 0.08144758 -0.012755568 -0.010749654 0.020871976 -0.03955639 -0.06632952
-0.029906759 0.102176696 0.066894315 -0.017383087 0.071835734 -0.027332898 0.050752223 0.11240791
0.019985523 -0.107856795 0.0455098 -0.024752924 -0.08217439 0.07514635 0.058220074 -0.10794516
0.07661764 0.07903594 -0.05239492 -0.03055545 -0.00198293 0.080226555 0.08902918 0.010467486
-0.106004365 0.09283646 -0.0006900073 0.032426834 -0.030355139 -0.08306387 -0.07400188 0.017194767
-0.030633854 0.066010565 -0.00522501 0.011988863 -0.10467347 0.0347871 0.01652777 0.025314542
-0.030824464 -0.012749283 0.053272262 -0.066360824 -0.03934974 0.0040695663 0.03850105 -0.049966596
-0.030447567 0.058441423 0.09804311 -0.0058639767 0.02317319 -0.101516284 -0.03361688 0.045298688
-0.07951147 -0.099067636 0.046187572 -0.038575236 0.052449424 0.019746698 -0.022560978 0.07697566
-0.06385907 0.06621972 0.07151772 0.0015880221 0.056151185 -0.02623247 0.10915384 0.10568465
0.021013776 -0.058428727 0.07695478 -0.053611383 0.035211492 -0.07698125 -0.0240898 -0.056979574
0.07330982 -0.11883236 0.07019339 -0.07845404 -0.014946376 -0.07413317 -0.035799716 0.012808828
-0.05215104 0.0030852673 -0.071683645 0.10728547 0.030229218 0.03285665 0.034005698 -0.05059143
-0.07371834 0.08024543 0.05465002 0.00050459 0.078401566 -0.06891942 0.0068640294 0.047435604
0.09014196 0.01856304 -0.04951149 -0.086942166 -0.048615847 -0.08178774 -0.03635215 0.02952771
0.064677276 0.045194868 0.075886816 -0.07971946 -0.08498871 0.054211568 -0.08605168 0.09498395
0.041312423 -0.099655166 -0.009721548 -0.054537084 0.050731536 -0.042370226 -0.029149361 -0.015187749
-0.044593394 0.06933161 -0.049807344 -0.09499851 -0.009874417 0.0075813835 0.0046148035 0.030811753
00000000: 54ba 303d 76f7 65bc 5a8e 93bd 9e12 80ba
00000010: d580 683d d08b 6cbc c52f 43bc f8bf 1f3d
00000020: de71 273d 87f9 54bd a690 183d eabd 893d
00000030: 9e0f 7d3d 604d eb3b 7129 2dbd 1b5d 2fbd
00000040: 1b8d c0bd 4051 fbbc f1e6 4abd 2f90 c7bc
00000050: bdf5 aabd 5b8c 75bb 5d82 693d 2284 1d3d
00000060: e673 c63d b3e4 d23c dade 58bd fdca fa3c
00000070: 2220 e63d e05b 9cbc 6c37 ba3d 72df 6abd
00000080: be62 813d 6526 543d fbd4 d0ba 9960 d2bb
00000090: 015d 54bc bf35 3e3d 43f4 b6bd 1633 953c
000000a0: 89e3 853d b61d 9cbd 1796 adbd 1a6a a6bd
000000b0: 346b daba 3e4c 453d 8399 0cbd bc56 bc3d
000000c0: dfcd 83bc 53e0 3a3c 4f66 e1bd 6b31 d5bd
000000d0: dd0a cbbd 9a8b 5c3d 4335 c73c 77bd 903d
000000e0: 7b82 d8ba f56a c33d d7e9 c13d e043 83bd
000000f0: 9f2d 793d e770 48bd d439 2f3d 0be9 a1ba
00000100: 0fab 923d 56e4 bdbc 2442 b2ba f744 f6bc
00000110: 92f4 993d 4448 7cbc 1338 813c c510 94bd
00000120: b539 303c af7c 8ebc b68c 65bd dc68 c0bd
00000130: 438e 883d 75b7 943d 4a95 3a3d df3e 893d
00000140: beef 6bbd 9271 b2bd b285 0dbd 4059 f33c
00000150: 58b2 1e3d 8dbd a33d 007e 813d 6121 903d
00000160: 5651 1c3c 17ed ca3d 0758 fabc 21a9 0d3d
00000170: ab5d 63bd d922 bc3d bbba 84bd d0c4 2b3a
00000180: 2b45 bebd d1f3 753d 0898 993d dfec 8d3c
00000190: 0799 343d b7bb 193d f499 b3bc 0995 1c3c
000001a0: 2ed2 91bd 233c cb3d ae95 ac3d a8f2 d3bc
000001b0: 65a1 17bd 7393 5bbd 9842 60bd 7d11 dc3d
000001c0: 2b9f 00bd 7e8c afbc fdcd a63d bbfc 50bc
000001d0: 511f 30bc b5fb aa3c e205 22bd c5d7 87bd
000001e0: 05ff f4bc 0442 d13d e3ff 883d fa66 8ebc
000001f0: 9d1e 933d 3ee9 dfbc 90e1 4f3d 1e36 e63d
00000200: aeb8 a33c 06e4 dcbd 7c68 3a3d a5c6 cabc
00000210: 0c4b a8bd 54e6 993d 2c78 6e3d 5a12 ddbd
00000220: b6e9 9c3d 98dd a13d 0e9c 56bd 6c4f fabc
00000230: 0cf4 01bb d24d a43d ee54 b63d d27f 2b3c
00000240: d118 d9bd 0b21 be3d 9be1 34ba 00d2 043d
00000250: 57ab f8bc 641d aabd 4c8e 97bd 0adc 8c3c
00000260: d9f3 fabc 8c30 873d 9036 abbb f06c 443c
00000270: 0b5f d6bd eb7c 0e3d 3f65 873c 7160 cf3c
00000280: 9683 fcbc 5ee2 50bc 0434 5a3d 2fe8 87bd
00000290: 312d 21bd ff59 853b 47b3 1d3d c6a9 4cbd
000002a0: 2d6d f9bc 4660 6f3d d3ca c83d 9a26 c0bb
000002b0: b4d5 bd3c c5e7 cfbd dbb1 09bd 1e8b 393d
000002c0: e9d6 a2bd f9e3 cabd 2e2f 3d3d 1101 1ebd
000002d0: 35d5 563d d4c3 a13c cdd1 b8bc 6aa5 9d3d
000002e0: 8bc8 82bd 349e 873d e277 923d 2e25 d03a
000002f0: c9fe 653d 7ae5 d6bc 0c8c df3d 3271 d83d
00000300: 1525 ac3c f652 6fbd 789a 9d3d 9c97 5bbd
00000310: ed39 103d 58a8 9dbd f957 c5bc 6a63 69bd
00000320: 7523 963d 615e f3bd 8dc1 8f3d 83ac a0bd
00000330: a5e1 74bc 22d3 97bd b9a2 12bd 1edc 513c
00000340: 549c 55bd 3232 4a3b e0ce 92bd 7cb8 db3d
00000350: 44a3 f73c b294 063d 8f49 0b3d f638 4fbd
00000360: a4f9 96bd b757 a43d b3d8 5f3d 7646 043a
00000370: 0091 a03d a025 8dbd a7eb e03b d64b 423d
00000380: 599c b83d 8411 983c 8fcc 4abd bc0e b2bd
00000390: 6921 47bd 5580 a7bd fee5 14bd 19e4 f13c
000003a0: 8575 843d 411e 393d 8c6a 9b3d f543 a3bd
000003b0: 900e aebd f30c 5e3d dd3b b0bd f286 c23d
000003c0: 3737 293d 0218 ccbd 2147 1fbc 4762 5fbd
000003d0: dfcb 4f3d 678c 2dbd a4ca eebc 09d6 78bc
000003e0: 90a7 36bd bbfd 8d3d c902 4cbd 948e c2bd
000003f0: 4fc8 21bc 416d f83b c737 973b ee68 fc3c

bias f4 [64]
-0.0041524568 0.0034756083 0.006040179 -0.0006597637 0.010712475 0.014676726 0.004076367 0.0057606017
0.011183026 0.0052517997 0.012952214 0.0031750621 -0.0047663148 0.0060496163 0.00791507 0.012627417
0.00134324 0.005401416 0.014976243 0.0046932045 0.011318289 0.0035739911 0.013723814 -0.01180031
0.006449704 0.02482585 -0.0049178773 0.0016036468 0.018129848 0.013502681 0.0049003395 0.006000549
0.014563672 0.0056272545 0.010256451 -0.0019868296 0.009311536 0.01048265 0.0024772563 0.010014817
0.0016963312 0.019313082 0.015709775 0.027321145 0.017405644 0.013190373 0.0049178363 0.00818398
0.01660365 0.009050086 0.028832952 0.017670633 0.0034270335 0.009517415 -0.007886505 0.0033171123
0.0053352765 0.011920974 0.012565936 0.012143485 0.025176626 0.011394595 0.010241137 -0.0008539709
00000000: 5511 88bb 08c7 633b b2ec c53b fef3 2cba
00000010: 6083 2f3c a776 703c 0b93 853b 6ec3 bc3b
00000020: 0339 373c 4a17 ac3b 8635 543c b414 503b
00000030: bf2e 9cbb dc3b c63b 36ae 013c 3ae3 4e3c
00000040: a80f b03a 5dfe b03b ea5e 753c 74c9 993b
00000050: 5870 393c 9f39 6a3b d9d9 603c 1656 41bc
00000060: 0a58 d33b 955f cb3c 2526 a1bb 7531 d23a
00000070: 0c85 943c 593a 5d3c 0793 a03b 41a0 c43b
00000080: 789c 6e3c d564 b83b ac0a 283c 7835 02bb
00000090: 6a8f 183c 6cbf 2b3c 7759 223b 3015 243c
000000a0: 6e57 de3a 7836 9e3c c9b1 803c 98d0 df3c
000000b0: 4896 8e3c 6f1c 583c cd25 a13b 1a16 063c
000000c0: 6104 883c d046 143c 1533 ec3c 01c2 903c
000000d0: 1598 603b efee 1b3c 6636 01bc e963 593b
000000e0: 8bd3 ae3b 3050 433c 5be1 4d3c 78f5 463c
000000f0: 363f ce3c 65b0 3a3c 71ca 273c 04dd 5fba

weight f4 [64, 64, 3, 3]
-0.042926356 -0.094007514 -0.039165042 0.02169974 0.068328194 0.0108261695 -0.083081 0.057800025
-0.037096474 0.06625884 0.006432726 -0.007906588 0.07945847 0.030486075 -0.027369509 0.055978294
-0.07502835 0.058264725 -0.07720722 -0.070615135 0.05477486 -0.04172776 0.100076616 0.05192796
0.008416122 0.07113397 0.05183754 -0.098942995 0.030166125 -0.06678583 -0.062802225 -0.07279698
-0.0145773515 0.07667751 -0.045991484 -0.009482226 -0.1040872 0.03857671 -0.102686904 -0.067264296
0.03260231 -0.03514063 0.00054956967 -0.043435656 0.05237954 0.07245214 -0.0743153 -0.047228843
0.10511229 0.03196546 -0.04012622 -0.0122218365 0.03296261 0.006941632 -0.09022161 0.03216187
-0.07519294 -0.05461212 -0.012223858 0.06530691 -0.037379682 -0.0003759894 0.0014609023 -0.075169176
0.03878194 -0.10594188 0.08037387 -0.04215322 -0.081239276 -0.03305374 -0.027851453 0.005724211
0.07661665 -0.025634905 -0.06401171 -0.05302606 0.06917362 -0.06858731 0.099363774 -0.017263843
-0.014188488 0.0484808 0.072358124 0.044775695 0.07056319 0.037340328 -0.0023452342 0.04327665
-0.03340979 0.06780519 -0.073504165 -0.072312914 0.086113006 0.0828973 0.039744105 -0.056064326
-0.054044914 -0.028965522 0.040635537 -0.058310002 -0.037149504 -0.040737573 -0.028088018 -0.023198534
-0.04801591 -0.035344772 -0.10181711 -0.070317 0.05560439 -0.033645075 0.008249275 -0.102156155
0.03284834 0.051012713 -0.028344799 0.08036207 -0.008370878 -0.012537123 0.09820105 -0.07908693
-0.07958827 -0.04790862 -0.05256015 0.0930443 0.0024996572 0.04361902 0.035046812 -0.06535114
0.056841683 -0.008354877 -0.08724329 -0.0026310442 0.08662276 0.093194686 -0.04426014 -0.03378319
-0.10427181 -0.08597687 0.09216285 -0.018068165 -0.048634686 -0.045717146 -0.0043941424 -0.023813628
-0.013371508 0.0120728025 0.03615449 0.05662821 0.036971577 -0.070544064 -0.06885086 -0.076787844
0.010566401 0.023144547 0.069918886 -0.054324135 -0.006233541 0.0026477955 0.074496664 0.0314983
0.049354654 0.010400433 0.027024265 -0.01263362 -0.056872427 0.04816732 -0.037344288 -0.07879871
0.09941104 -0.02896156 -0.09770974 -0.027772166 -0.07770862 0.035840895 0.02794003 0.059776492
-0.04321193 -0.009819314 0.054583315 0.023839064 -0.010840012 -0.0031965293 -0.096671894 0.049347922
0.027471062 -0.042563323 0.03290572 0.007816875 0.014407959 -0.0006466067 -0.09154198 0.012575286
-0.023800418 0.031088782 -0.068148755 -0.062046915 -0.04692248 -0.03420107 0.0029540972 0.028218905
-0.047794472 -0.09802912 -0.039567772 0.0132660335 -0.03888241 -0.05065998 -0.08633875 -0.023538828
-0.02781729 0.0033873173 -0.088660076 -0.0908657 0.063159466 0.05601628 0.096403226 -0.07762351
-0.07404385 0.055643756 -0.10021213 -0.014432052 -0.041348696 -0.084198676 -0.08081319 -0.08609533
0.023340322 0.06477969 -0.040264733 -0.08191815 -0.08001869 0.0019851732 0.028020201 -0.08795591
0.08570884 -0.042884327 -0.07570691 -0.0734354 -0.019300895 0.07439343 -0.041300688 -0.098318376
-0.039820198 0.10815274 0.07507245 -0.05363724 0.02553714 -0.008030484 -0.02023717 0.06595225
-0.0026441123 -0.044031203 -0.014339351 0.08823189 -0.06032521 -0.05239892 -0.07223137 0.039348356
00000000: 8cd3 2fbd 0387 c0bd 866b 20bd a7c3 b13c
00000010: a7ef 8b3d 3f60 313c 5f26 aabd b8bf 6c3d
00000020: 79f2 17bd b7b2 873d 9ec9 d23b a28a 01bc
00000030: 1fbb a23d efbd f93c 0536 e0bc 7f49 653d
00000040: 77a8 99bd fea6 6e3d d21e 9ebd ab9e 90bd
00000050: 9b5b 603d baea 2abd f8f4 cc3d 6ab2 543d
00000060: c6e3 093c b0ae 913d 9a53 543d a0a2 cabd
00000070: f31e f73c 02c7 88bd 749e 80bd 9516 95bd
00000080: d8d5 6ebc 1909 9d3d 9161 3cbd 575b 1bbc
00000090: ab2b d5bd 9d02 1e3d 834d d2bd ddc1 89bd
000000a0: 008a 053d 9fef 0fbd ff10 103a 96e9 31bd
000000b0: ee8b 563d ca61 943d 9f32 98bd 0873 41bd
000000c0: 1d45 d73d 37ee 023d 645b 24bd 193e 48bc
000000d0: cd03 073d a176 e33b 1cc6 b8bd 2abc 033d
000000e0: c2fe 99bd f5b0 5fbd 9446 48bc a1bf 853d
000000f0: 701b 19bd 7120 c5b9 bf7b bf3a 4cf2 99bd
00000100: d0d9 1e3d 0ef8 d8bd 0e9b a43d dba8 2cbd
00000110: c760 a6bd 5c63 07bd bb28 e4bc 2a92 bb3b
00000120: 31e9 9c3d 4b00 d2bc 9218 83bd db31 59bd
00000130: e6aa 8d3d 8177 8cbd 3c7f cb3d e76c 8dbc
00000140: d576 68bc ce93 463d 7f30 943d b866 373d
00000150: 6f83 903d 2cf2 183d 80b2 19bb db42 313d
00000160: b4d8 08bd 73dd 8a3d 5a89 96bd cb18 94bd
00000170: 045c b03d 0fc6 a93d b7ca 223d b5a3 65bd
00000180: 335e 5dbd 1a49 edbc 7371 263d 78d6 6ebd
00000190: 142a 18bd 71dc 26bd d818 e6bc da0a bebc
000001a0: 55ac 44bd aec5 10bd 7d85 d0bd 5c02 90bd
000001b0: 6ec1 633d 6bcf 09bd f827 073c 3f37 d1bd
000001c0: fb8b 063d b5f2 503d 5a33 e8bc de94 a43d
000001d0: 0226 09bc 8168 4dbc a21d c93d 54f8 a1bd
000001e0: 2dff a2bd d43b 44bd 5049 57bd 038e be3d
000001f0: 4ad1 233b dca9 323d 3f8d 0f3d d2d6 85bd
00000200: d3d2 683d e5e2 08bc 9cac b2bd 996d 2cbb
00000210: 4667 b13d dbdc be3d 1f4a 35bd 3e60 0abd
00000220: 758c d5bd a414 b0bd e0bf bc3d b003 94bc
00000230: 2a35 47bd e741 3bbd bdfc 8fbb cc14 c3bc
00000240: 2b14 5bbc 01cd 453c bb16 143d fbf2 673d
00000250: 826f 173d 6879 90bd ae01 8dbd f242 9dbd
00000260: b31e 2d3c a299 bd3c a231 8f3d fc82 5ebd
00000270: bb42 ccbb a386 2d3b b591 983d 5d04 013d
00000280: 1b28 4a3d 9466 2a3c fe61 dd3c 3efd 4ebc
00000290: 10f3 68bd 194b 453d 53f6 18bd 3861 a1bd
000002a0: 0498 cb3d cb40 edbc 0b1c c8bd 7482 e3bc
000002b0: b225 9fbd e7cd 123d 7de2 e43c 32d8 743d
000002c0: fefe 30bd 30e1 20bc c192 5f3d 244a c33c
000002d0: 4e9a 31bc dd7c 51bb eafb c5bd 0c21 4a3d
000002e0: fe0a e13c e156 2ebd 26c8 063d 5a12 003c
000002f0: 5c0f 6c3c 0b81 29ba 5d7a bbbd 9308 4e3c
00000300: 18f9 c2bc e7ad fe3c 9391 8bbd e824 7ebd
00000310: c931 40bd 6c16 0cbd 8799 413b 552b e73c
00000320: 23c4 43bd 7ec3 c8bd d111 22bd c759 593c
00000330: 2943 1fbd d780 4fbd 5fd2 b0bd 80d4 c0bc
00000340: 16e1 e3bc c1fd 5d3b 6a93 b5bd cc17 babd
00000350: c059 813d 5471 653d 0e6f c53d 13f9 9ebd
00000360: 4da4 97bd b5ea 633d 043c cdbd 6a74 6cbc
00000370: 405d 29bd 5b70 acbd 6381 a5bd c052 b0bd
00000380: 3434 bf3c 37ab 843d a2ec 24bd b4c4 a7bd
00000390: d7e0 a3bd ae19 023b 9f8a e53c 3a22 b4bd
000003a0: 1e88 af3d 7aa7 2fbd 390c 9bbd 4d65 96bd
000003b0: e91c 9ebc 955b 983d e92a 29bd 255b c9bd
000003c0: 811a 23bd 2f7f dd3d 96bf 993d b9b2 5bbd
000003d0: 4433 d13c 4b92 03bc 6cc8 a5bc f911 873d
000003e0: d848 2dbb 105a 34bd 99ef 6abc ecb2 b43d
000003f0: 9117 77bd 40a0 56bd 0aee 93bd be2b 213d

bias f4 [64]
0.0126273995 0.009236179 0.011725113 0.014625516 0.012881365 0.01903189 0.009985776 0.009881347
0.018790519 0.025237055 0.030320661 0.0044193864 0.01071166 0.015355116 0.010086222 0.021114876
0.01099855 0.015070004 0.023501646 0.012024076 0.011071044 0.024686372 0.016373264 0.0113410335
0.005612464 0.008475892 0.008480587 0.011523289 0.014354394 0.009015065 0.02216952 0.010426794
0.017620828 0.012354682 0.017102381 0.020913303 0.0041880743 0.0064732004 0.007317771 0.008352199
-0.00090361293 0.022626763 0.016127737 0.037179843 0.008664535 0.003110121 0.012989188 0.017983751
0.009498569 0.0055122664 -0.002538912 0.017536135 0.0074998834 0.010718617 0.009423521 0.014840995
0.0027239479 0.009433421 0.015933765 0.0039241784 0.012583172 0.012382309 -2.570544e-05 0.002947254
00000000: 27e3 4e3c 5853 173c b01a 403c dc9f 6f3c
00000010: 5c0c 533c c4e8 9b3c 619b 233c 60e5 213c
00000020: 93ee 993c f1bd ce3c 0963 f83c 80d0 903b
00000030: f57f 2f3c 0694 7b3c ae40 253c 1bf9 ac3c
00000040: 4333 343c 2ee8 763c 8686 c03c a100 453c
00000050: 5363 353c 133b ca3c 3921 863c becf 393c
00000060: c3e8 b73b 78de 0a3c 29f2 0a3c 2dcc 3c3c
00000070: b12e 6b3c ecb3 133c da9c b53c 25d5 2a3c
00000080: 8e59 903c 4b6b 4a3c 4b1a 8c3c 6052 ab3c
00000090: 1d3c 893b 241d d43b eac9 ef3b a9d7 083c
000000a0: 70e0 6cba c35b b93c 511e 843c e449 183d
000000b0: b2f5 0d3c 2cd3 4b3b 9ad0 543c a952 933c
000000c0: e39f 1b3c 3ea0 b43b e063 26bb f1a7 8f3c
000000d0: 95c1 f53b 239d 2f3c 1d65 1a3c a527 733c
000000e0: 4384 323b a38e 1a3c 8787 823c 6596 803b
000000f0: a629 4e3c 2bdf 4a3c 03a2 d7b7 b826 413b

weight f4 [4, 3136]
-0.00022627303 0.038295668 -0.02298336 0.023776352 0.037931792 0.0069664917 -0.00441028 -0.027131384
0.043880887 0.031179361 0.031726018 0.030639824 0.01985162 -0.017536521 0.0032618255 -0.04472892
0.013285472 0.029656768 -0.031200131 0.0058839885 -0.031114934 -0.013781129 -0.03372643 -0.00030418704
0.04317817 -0.0020788994 0.025688874 0.019568646 0.015095583 -0.011105217 -0.027152121 0.020733727
-0.007524098 0.035673533 0.00092765293 0.012059115 0.008736675 -0.021492498 -0.022779372 0.052349344
-0.050266907 -0.008637268 -0.042773508 0.013202523 0.028634822 -0.022455124 0.028255945 -0.011411878
0.025794461 0.0015586433 0.043482292 0.042818047 -0.036458768 0.016038027 -0.01272084 -0.0052080303
-0.005781378 0.03976273 -0.0075649023 0.03182288 -0.00869743 -0.025812633 -0.0075287605 -0.026839884
0.02600861 -0.016658599 0.004128535 0.011449601 -0.022892283 -0.003815595 -0.01773563 0.02096008
-0.041225232 -0.0016633667 0.011101813 -0.013369773 0.03605825 0.027496284 0.041260097 0.010085131
-0.040085196 0.041118994 0.020902395 -0.016645081 -0.047993477 0.00068114453 -0.030886404 -0.033424087
0.00068847917 0.028511802 0.0111170625 -0.004382837 -0.027065303 0.036983054 0.027124787 -0.028967936
0.02755886 0.0064923353 -0.022962067 0.036610167 0.020914562 -0.03616865 -0.02889842 -0.01794203
-0.034868814 0.043351613 0.021271572 -0.04133028 -0.020190876 0.03063726 0.009026919 -0.0111874435
-0.038573705 -0.027752396 0.028005995 0.033829696 0.013528932 0.04805351 -0.0076020476 0.028072659
-0.040565286 -0.01577564 -0.043537375 -0.03262764 0.0046033016 -0.03471615 0.032381795 -0.029624157
0.035534743 -0.004793659 0.007147233 -0.032171633 -0.031136716 0.017790316 -0.010833409 0.04375489
-0.018174669 0.026551513 0.031098384 -0.030351464 -0.04481793 -0.0037833697 -0.037924126 -0.020825606
-0.04054199 -0.010855628 -0.0021773996 0.0073133493 -0.041045383 0.03720814 -0.03647191 -0.013670192
-0.005565937 -0.006141904 0.03627928 0.027581455 -0.02013849 0.009396248 -0.016996795 0.0148025835
0.03520136 0.015385754 -0.028481392 -0.017141193 -0.02317359 -0.017267274 -0.029451879 0.011272739
-0.020800365 -0.025916656 0.0075090323 -0.020296767 -0.03604434 -0.0017379517 -0.0025870358 0.012505897
0.01720388 0.0022478295 -0.0010074122 -0.034390662 -0.010758721 0.025101999 -0.029642347 -0.012126247
-0.014345934 0.03493014 -0.007201001 -0.047017403 -0.027433347 0.020483976 0.014091486 0.04129213
-0.027412387 -0.014113415 0.04213232 0.036609534 -0.0061965203 -0.035156004 0.033043943 -0.010227933
0.016904432 -0.027123429 -0.027391426 0.046939876 0.024644796 0.0152 -0.010512077 0.03340005
0.016069341 -0.030681193 0.006118643 0.009846991 -0.0107997665 -0.007123549 -0.029439105 -0.0228266
-0.023678944 -0.0077368175 0.038895763 -0.029602068 -0.023609372 0.0021905056 -0.0065872665 0.035892565
-0.0016334194 -0.001607388 0.020832615 -0.0284393 0.022817057 -0.029808536 -0.0013679096 0.028269958
-0.026057407 0.020412507 -0.035597265 -0.0029279215 -0.02508118 0.023476414 0.0026186653 0.011475749
-0.025024131 -0.029342916 -0.033350956 -0.008192771 -0.029514601 -0.011505833 -0.041579712 -0.030724537
0.0114455875 0.018888934 -0.04597418 -0.0028459292 0.0432485 0.0026088108 -0.008795104 0.0001359918
00000000: b443 6db9 ebdb 1c3d 9947 bcbc a0c6 c23c
00000010: 5e5e 1b3d 2b47 e43b 1c84 90bb a342 debc
00000020: 72bc 333d dc6b ff3c 24f3 013d 5e00 fb3c
00000030: dd9f a23c c0a8 8fbc 5ac4 553b ac35 37bd
00000040: 4fab 593c c0f2 f23c 6b97 ffbc 79ce c03b
00000050: bfe4 febc 3fca 61bc ba24 0abd 4b7b 9fb9
00000060: 98db 303d 253e 08bb 7971 d23c 6d4e a03c
00000070: 7753 773c a8f2 35bc 206e debc c7d9 a93c
00000080: b58c f6bb 691e 123d bc2d 733a 9893 453c
00000090: 4524 0f3c 0911 b0bc ce9b babc 446c 563d
000000a0: ace4 4dbd 5483 0dbc 4633 2fbd 654f 583c
000000b0: 9393 ea3c cff3 b7bc 0379 e73c e3f8 3abc
000000c0: e84e d33c 644b cc3a 7d1a 323d fa61 2f3d
000000d0: ca55 15bd 2e62 833c 126b 50bc 20a8 aabb
000000e0: b771 bdbb 3fde 223d 00e3 f7bb b558 023d
000000f0: aa7f 0ebc 0475 d3bc d2b3 f6bb 51df dbbc
00000100: 0210 d53c 9d77 88bc a948 873b 1b97 3b3c
00000110: 9988 bbbc 100f 7abb 504a 91bc 79b4 ab3c
00000120: cadb 28bd 5305 daba 61e4 353c e40c 5bbc
00000130: d1b1 133d e33f e13c 5900 293d 1b3c 253c
00000140: 6030 24bd 646c 283d 803b ab3c 445b 88bc
00000150: cf94 44bd d68e 323a 7c05 fdbc b2e7 08bd
00000160: 0e7b 343a 9591 e93c 5724 363c e79d 8fbb
00000170: 0eb8 ddbc 8b7b 173d cd34 de3c 2a4e edbc
00000180: 1ec3 e13c a8bd d43b f21a bcbc 8bf4 153d
00000190: 0455 ab3c 9425 14bd 61bc ecbc 2afb 92bc
000001a0: 9ad2 0ebd 7691 313d b841 ae3c f149 29bd
000001b0: 5667 a5bc fefa fa3c a4e5 133c 8a4b 37bc
000001c0: 76ff 1dbd fe58 e3bc d46c e53c 0291 0a3d
000001d0: 74a8 5d3c c2d3 443d 991a f9bb a2f8 e53c
000001e0: c927 26bd ea3b 81bc 3f54 32bd 8fa4 05bd
000001f0: 4bd7 963b 8632 0ebd c6a2 043d 5cae f2bc
00000200: e18c 113d 2014 9dbb 5633 ea3b 67c6 03bd
00000210: 6d12 ffbc ffbc 913c 9c7e 31bc 5438 333d
00000220: 0be3 94bc 8f82 d93c 0ac2 fe3c a2a3 f8bc
00000230: 0193 37bd 69f2 77bb 5456 1bbd 769a aabc
00000240: 5c0f 26bd cedb 31bc b4b2 0ebb d2a4 ef3b
00000250: 341f 28bd 9067 183d 9263 15bd f1f8 5fbc
00000260: 7762 b6bb 0642 c9bb 9599 143d 81f2 e13c
00000270: 79f9 a4bc b8f2 193c dd3c 8bbc 8986 723c
00000280: 4d2f 103d 8814 7c3c cf51 e9bc b06b 8cbc
00000290: 8ad6 bdbc 1974 8dbc 1145 f1bc 4bb1 383c
000002a0: 8765 aabc 2b4f d4bc 540e f63b 6845 a6bc
000002b0: 3ba3 13bd fbcb e3ba 428b 29bb 89e5 4c3c
000002c0: 27ef 8c3c 5250 133b 250b 84ba 39dd 0cbd
000002d0: 5945 30bc b5a2 cd3c 82d4 f2bc 2bad 46bc
000002e0: 350b 6bbc e812 0f3d 60f6 ebbb 5295 40bd
000002f0: e6bb e0bc 03ce a73c fadf 663c f021 293d
00000300: f18f e0bc f43b 67bc f192 2c3d e1f3 153d
00000310: 2e0c cbbb beff 0fbd 1659 073d 0f93 27bc
00000320: 2a7b 8a3c f431 debc fc63 e0bc 0744 403d
00000330: e2e3 c93c 6c09 793c d93a 2cbc 7ece 083d
00000340: daa3 833c 2057 fbbc e67e c83b 4655 213c
00000350: 81f1 30bc a96c e9bb 472a f1bc dafe babc
00000360: 58fa c1bc 2185 fdbb 2a51 1f3d 0980 f2bc
00000370: 7168 c1bc 968e 0f3b ffd9 d7bb 1504 133d
00000380: 7618 d6ba feae d2ba 29a9 aa3c 89f9 e8bc
00000390: d6ea ba3c 0831 f4bc 6e4b b3ba 6696 e73c
000003a0: 5876 d5bc 2138 a73c 70ce 11bd 5fe2 3fbb
000003b0: 0c77 cdbc 9c51 c03c ea9d 2b3b c804 3c3c
000003c0: 68ff ccbc 8e60 f0bc 039b 08bd f93a 06bc
000003d0: 9bc8 f1bc f682 3cbc 7d4f 2abd 06b2 fbbc
000003e0: 4686 3b3c f7bc 9a3c 6c4f 3cbd c582 3abb
000003f0: 5725 313d 95f8 2a3b 5719 10bc 0599 0e39

bias f4 [4]
0.010433082 0.0072268215 0.0076152193 0.015652522
00000000: 84ef 2a3c f9ce ec3b 1789 f93b b839 803c

weight f4 [1, 3136]
0.0100850975 0.0062034903 0.043668088 -0.02024025 0.0007765977 0.004940248 -0.027425172 0.008357227
0.034983702 -0.041063026 -0.00820488 0.036525294 0.02335416 0.00028833558 -0.063252024 -0.0061578644
-0.047625195 -0.041096967 0.010818529 -0.04400539 0.03771005 -0.038239397 -0.017979579 -0.015328055
0.036858857 0.014439673 0.012117522 -0.018711753 -0.0056059575 0.036675543 0.015492594 -0.054090705
0.016186342 0.017964236 -0.022353942 0.012552083 -0.031338625 0.0023047542 -0.0014807348 0.030094909
-0.0016858133 0.020867243 -0.01760645 -0.009040245 0.01492818 -0.028674796 -0.045365565 -0.010289364
-0.040299486 0.001386454 0.03916757 0.018528463 0.011536018 -0.033218823 0.014722541 -0.0234961
-0.013036644 -0.016795963 -0.001980985 0.05274548 0.037779093 -0.024478817 -0.005566494 -0.03874662
0.03446967 0.001698059 -0.024640825 -0.04761397 0.032627728 -0.0013189688 -0.018249871 -0.008792536
-0.025061414 -0.010706212 -0.03637224 -0.009038969 0.07629694 -0.016051428 0.0091100065 0.029916093
-0.013805558 -0.038069166 0.008877678 -0.019030416 0.050717056 0.0093698045 0.022421967 0.05080427
0.008671527 0.032461263 -0.008396537 -0.009742288 0.02891486 -0.0011484661 -0.020866036 -0.03125893
0.018393813 -0.0180739 -0.021717858 -0.055162836 0.041238878 -0.033557028 -0.04381721 -0.023005432
-0.03490681 -0.003218617 -0.016405145 0.021414688 -0.018725706 0.023807233 0.023983698 -0.0005621191
-0.010001251 -0.0025004102 -0.030232033 0.01880977 -0.0026653074 -0.013153035 0.028771846 -0.04055202
0.031157624 -0.0060615363 0.0011439892 0.011656266 0.0015426177 -0.00075838785 -0.02224079 -0.0012383717
0.026546752 0.03592222 -0.004395904 0.023156434 0.014236039 0.023039252 0.035337303 -0.007638131
-0.02578659 0.03009153 0.012369464 0.011293522 -0.025369301 -0.011695277 0.010281673 -0.0072840136
-0.007968842 -0.005040657 0.002328079 0.036018573 -0.027134819 -0.027114747 -0.018285396 0.01749326
-0.035587333 -0.005337839 0.03481077 -0.019917827 0.031185057 -0.0014423395 0.0423635 -0.034900293
-0.018831497 -0.00029143444 0.0074993973 -0.0036369194 0.010040977 0.032275926 -0.007695227 -0.004024533
-0.012371947 -0.026599476 -0.029150527 -0.018945739 0.016664421 -0.027804572 -0.033166762 0.0015925728
0.036632553 0.020077951 0.021069542 -0.031642877 0.0040778858 -0.023352573 -0.01247767 -0.006535615
-0.0032571207 -0.00254803 -0.03948967 0.016429067 -0.00824786 0.056733306 -0.023000764 0.018232608
0.019831855 -0.0163615 -0.015332356 -0.0058010314 -0.0069252234 0.028678052 -0.029118022 -0.035807323
0.025945155 -0.0277512 0.01886769 -0.020282451 0.031155234 0.0315341 0.017850392 -0.03862724
0.008493671 -0.02589064 0.027341977 -0.0111744655 -0.009050992 -0.02460473 0.028622456 -0.04499948
0.0069834758 -0.0016688422 0.003170019 0.02111854 0.0016548295 -0.0023752956 -0.01942558 0.022034843
0.029038634 0.0023912624 -0.018004611 0.020674886 -0.040307164 0.0028414787 -0.025810368 0.0040668016
-0.004449689 0.021666745 0.034407638 -0.0031512706 0.023083368 0.06430872 -0.02813115 0.030574543
-0.021326268 -0.004035823 0.004781165 -0.016389547 0.011776028 -0.002396452 -0.040427633 0.02078211
-0.030246476 0.010254816 -0.033658292 0.018337136 0.046006486 0.056477737 -0.04045567 -0.02204662
00000000: f73b 253c a646 cb3b 4fdd 323d e1ce a5bc
00000010: 9794 4b3a cee1 a13b c1aa e0bc c0ec 083c
00000020: 124b 0f3d b431 28bd c36d 06bc 8c9b 153d
00000030: 3951 bf3c bf2b 9739 478a 81bd e9c7 c9bb
00000040: a312 43bd 4b55 28bd 3340 313c ff3e 34bd
00000050: da75 1a3d eaa0 1cbd e949 93bc 8622 7bbc
00000060: 50f9 163d 6194 6c3c 9288 463c 6449 99bc
00000070: 2eb2 b7bb 1839 163d a6d4 7d3c 378e 5dbd
00000080: 3899 843c bc29 933c 9d1f b7bc 40a7 4d3c
00000090: ee5c 00bd 5c0b 173b 3715 c2ba 9989 f63c
000000a0: 82f6 dcba c8f1 aa3c 673b 90bc 891d 14bc
000000b0: 5395 743c 68e7 eabc 3ed1 39bd b894 28bc
000000c0: 1311 25bd adb9 b53a 2d6e 203d 01c9 973c
000000d0: 9101 3d3c 7610 08bd d036 713c e57a c0bc
000000e0: a697 55bc b097 89bc 6ad3 01bb a50b 583d
000000f0: 40be 1a3d cd87 c8bc 2367 b6bb c7b4 1ebd
00000100: 1230 0d3d 6891 de3a 8edb c9bc de06 43bd
00000110: a7a4 053d 40e1 acba c180 95bc 920e 10bc
00000120: 984d cdbc 1c69 2fbc 0ffb 14bd 2f18 14bc
00000130: 9241 9c3d 497e 83bc 2342 153c 9812 f53c
00000140: b530 62bc 6aee 1bbd ae73 113c ade5 9bbc
00000150: b0bc 4f3d cf83 193c 46ae b73c 2318 503d
00000160: 0513 0e3c 1af6 043d a191 09bc 1e9e 1fbc
00000170: dbde ec3c 2188 96ba 40ef aabc 5d09 00bd
00000180: 9fae 963c b70f 94bc a6e9 b1bc 6df2 61bd
00000190: 19ea 283d 1873 09bd ad79 33bd e375 bcbc
000001a0: 71fa 0ebd 6fef 52bb 1564 86bc db6d af3c
000001b0: a766 99bc 6307 c33c 7679 c43c 2d5b 13ba
000001c0: 49dc 23bc ecdd 23bb 2ba9 f7bc f216 9a3c
000001d0: 70ac 2ebb d47f 57bc efb2 eb3c e019 26bd
000001e0: 463e ff3c da9f c6bb e8f1 953a ecf9 3e3c
000001f0: a931 ca3a 8cce 46ba 5132 b6bc dc50 a2ba
00000200: 9378 d93c 2e23 133d 840b 90bb 90b2 bd3c
00000210: 463e 693c d0bc bc3c d9bd 103d 4949 fabb
00000220: 663e d3bc 8382 f63c 4ba9 4a3c 7708 393c
00000230: 48d3 cfbc 8c9d 3fbc 7674 283c bcae eebb
00000240: bf8f 02bc 182c a5bb af92 183b 3688 133d
00000250: d749 debc bf1f debc 41cb 95bc 064e 8f3c
00000260: 06c4 11bd 0ae9 aebb bd95 0e3d b62a a3bc
00000270: ce77 ff3c e20c bdba 5985 2d3d 9cf3 0ebd
00000280: 8344 9abc abcb 98b9 81bd f53b 6259 6ebb
00000290: e982 243c c333 043d 3e28 fcbb 3be0 83bb
000002a0: b5b3 4abc 25e7 d9bc 16cd eebc 1834 9bbc
000002b0: d383 883c 6ac6 e3bc dfd9 07bd e0bd d03a
000002c0: 040c 163d 847a a43c 089a ac3c f69b 01bd
000002d0: c99f 853b e54d bfbc 246f 4cbc b628 d6bb
000002e0: 6b75 55bb dafc 26bb ecbf 21bd 4096 863c
000002f0: 0822 07bc 2f61 683d 196c bcbc 8d5c 953c
00000300: 6a76 a23c 8d08 86bc 9034 7bbc 9416 bebb
00000310: fcec e2bb 3cee ea3c eb88 eebc b3aa 12bd
00000320: ef8a d43c 7c56 e3bc 6a90 9a3c 6227 a6bc
00000330: 4339 ff3c e729 013d fc3a 923c 9937 1ebd
00000340: 0a29 0b3c 9c18 d4bc 48fc df3c 1b15 37bc
00000350: 9d4a 14bc dc8f c9bc a479 ea3c 6051 38bd
00000360: a4d5 e43b 0dbd daba 18c0 4f3b ca00 ad3c
00000370: dde6 d83a d9aa 1bbb 6522 9fbc 6a82 b43c
00000380: 6ee2 ed3c bab6 1c3b 687e 93bc 615e a93c
00000390: 2019 25bd 1a38 3a3b 4470 d3bc ce42 853b
000003a0: b2ce 91bb 757e b13c 06ef 0c3d 8c85 4ebb
000003b0: 5519 bd3c 4ab4 833d 4c73 e6bc 7777 fa3c
000003c0: 6db4 aebc f03e 84bb 52ab 9c3b 5f43 86bc
000003d0: 3ef0 403c cb0d 1dbb 7297 25bd 3e3f aa3c
000003e0: 75c7 f7bc d103 283c 47dd 09bd c337 963c
000003f0: 4c71 3c3d 3355 673d d8b4 25bd 1d9b b4bc
