PPO/BankHeist/FINAL.BankHeistNoFrameskip-v4.MODEL (torch_old, 568438 bytes, 9 tensors)

weight f4 [32, 4, 8, 8]
000000 13 64 8d 3c 07 a1 4c 3c be 33 0b 3d 04 11 25 3d
       0.017259633 0.012489564 0.033984892 0.04029943
000010 2e a4 8d bc 38 7d b6 bb ed fe 4f bd 91 2b 02 bd
       -0.017290201 -0.0055691265 -0.050780226 -0.03177983
000020 e8 7b d1 bc 6d 64 9e 3c 7f 15 ae 3c 53 23 1c 3d
       -0.025571778 0.019334996 0.021250485 0.038119625
000030 fc cb 61 3d 70 ac df 3c c7 82 c8 bc 4f ae fe bc
       0.055126175 0.027303904 -0.024476422 -0.031088976
000040 3c 02 57 3b 9b 0f 51 3d 4e f5 61 3d 3f 8b 51 bd
       0.0032807728 0.051040273 0.05516558 -0.051158186
000050 c3 96 3f 3d 53 03 b7 bc ec 05 56 bd 09 a4 3c bd
       0.046774637 -0.022340452 -0.05225174 -0.046054874
000060 36 b2 04 bb 40 13 16 bd 43 9e 50 3d 84 67 cc 3c
       -0.0020247824 -0.036639452 0.05093218 0.024951704
000070 4a c1 2c 3c 6d 76 d3 3c 52 9d 48 bd 68 60 91 bb
       0.010544131 0.025813306 -0.048978157 -0.0044365413
000080 6e 8d 41 3d e7 b3 e6 3c bd a6 82 3d 45 c0 34 bd
       0.04725402 0.028161956 0.06379459 -0.044128675
000090 a5 05 19 3d 50 ac 4b 3c f1 69 50 bd 43 9e e3 3b
       0.0373589 0.012431219 -0.050882284 0.0069463565
0000a0 18 76 42 bd bb c8 82 3c 16 89 5f 3d 05 9a 33 bb
       -0.047475904 0.015964856 0.054574095 -0.0027405035
0000b0 21 59 86 3d ed 47 16 bc 6a c4 c2 bc c8 82 04 bd
       0.06559969 -0.009172422 -0.023775298 -0.032351285
0000c0 58 97 58 3d 51 0b 7a bc 99 da 52 bd b0 0e 0a 3d
       0.052878708 -0.015261487 -0.051478002 0.033705413
0000d0 08 e4 8a 3d 25 4b 61 bd 90 9b a2 3c 7a 7f 6c 3d
       0.06781775 -0.055003304 0.019849569 0.05773876
0000e0 22 31 12 3d 5b 8d 47 3b d8 c1 b9 bc 37 85 76 3c
       0.035691388 0.0030449245 -0.02267544 0.015046409
0000f0 fe 99 47 bd 56 42 a0 3c b5 8f 15 3d dc 8b 93 bc
       -0.048730843 0.019562881 0.036514003 -0.018011026
000100 5a 62 bd 3c a3 b1 3b 3d 8e 00 f0 bc c5 bd ae 3c
       0.023118187 0.045823704 -0.02929714 0.021330724
000110 96 65 cc 3c d0 3f e2 bc ec f2 52 3d 79 c3 21 bd
       0.024950784 -0.027618319 0.0515012 -0.039493058
000120 05 5a 0f bd 1d a8 75 bd 8a 29 19 3d 8b b3 a7 3c
       -0.03499796 -0.05997478 0.03739313 0.020471355
000130 25 98 b2 bb a4 d4 ad bc 71 f4 12 3d 93 16 eb 3c
       -0.005450266 -0.021219559 0.03587765 0.028697288
000140 2f 48 b2 3c fb 2c 4f bd ab 28 18 3d 72 71 a0 bc
       0.021762935 -0.050580006 0.03714816 -0.019585345
000150 bb 12 1e 3d 8b 58 4b bd 39 e1 1f 3c 77 ee ae bc
       0.03859208 -0.049644988 0.009758287 -0.021353943
000160 80 84 09 bd ee 49 b0 3b 98 21 67 3d d6 4f 3c bc
       -0.033573627 0.005379907 0.056428522 -0.011493644
000170 a3 88 1f bd fe 4b 48 bc d8 15 f2 3c 98 c1 a7 bb
       -0.038948666 -0.012225149 0.029551432 -0.0051195137
000180 d5 6b 72 3d e5 5d 16 bd 88 e7 4e bd 48 fb 33 3d
       0.059184868 -0.03671064 -0.050513774 0.043940812
000190 c0 48 5d bd 2a 44 ca bc 53 db a3 3c bc d1 21 3d
       -0.054024458 -0.024690706 0.020002043 0.03950666
0001a0 50 e9 4f 3d f9 16 19 3d 02 85 c9 3c 27 bf 57 3c
       0.050759614 0.037375424 0.024599556 0.013168133
0001b0 fd aa 89 bc 79 92 ec bc bf ba 21 3d c0 cd 0c 3d
       -0.016805166 -0.028878437 0.039484736 0.034375906
0001c0 bb 49 09 bc b9 c9 dd 3b 00 c7 83 3b 18 3e e0 3c
       -0.008379395 0.006768432 0.0040215254 0.027373359
0001d0 91 ea 47 3d b8 94 3e 3d 7b d2 40 bc e5 36 28 3d
       0.048807684 0.046528548 -0.011768932 0.041067977
0001e0 2f 40 4d 3d 00 9a b6 bc 93 1f 23 3d e5 76 6a bd
       0.05011004 -0.02229023 0.039825033 -0.057242293
0001f0 0d 89 c6 3c 23 ec 97 bc 5d d5 0f bd cf 33 fc 3c
       0.024235273 -0.018545216 -0.03511559 0.030786423
000200 c7 97 89 bd 81 3e 8c bd a3 e5 de bc a7 2a d6 3c
       -0.06718402 -0.06847859 -0.027209109 0.026143385
000210 b9 7b 18 bd 10 37 99 3b ee 72 c9 3b 7e 50 0a bd
       -0.037227366 0.0046757534 0.006147734 -0.03376817
000220 00 ba 8a bd 80 f9 87 bd e5 cb 87 bc ef 8c 91 bc
       -0.06773758 -0.06639385 -0.016576717 -0.017767398
000230 81 a1 4c 3b 48 59 8c bc db 50 03 3d 1e d3 9b 3c
       0.0031224194 -0.017132416 0.03205953 0.019021567
000240 1c 62 8e bc e8 0c 85 bc 5b a8 38 3b 65 27 21 3d
       -0.017380767 -0.016241506 0.002817652 0.03934421
000250 ce b7 3c bd 61 4d 46 bd 4b 37 2d 3d b5 26 5a bd
       -0.046073727 -0.048413638 0.04228906 -0.05325957
000260 ce ac 0e 3b 6f 26 c2 bd 70 5d 69 bd 15 3a 0c bc
       0.002177048 -0.09479987 -0.056973875 -0.00855877
000270 86 b8 95 bc 02 da b3 bc 6f b6 c0 bc 76 db 40 bd
       -0.018276464 -0.02195454 -0.023524491 -0.047084294
000280 f8 19 b9 3b 6d fb 8c bd d5 29 ae bd 65 d2 12 bd
       0.0056488477 -0.06883893 -0.085040726 -0.03584518
000290 ef eb 94 bd 55 20 49 bd bb 72 48 bd d4 75 2c bc
       -0.07271563 -0.0491031 -0.04893754 -0.010526139
0002a0 ff be 18 bc 0b 68 76 bd 56 46 fb 3c a7 cf 71 bc
       -0.009322881 -0.060157817 0.030673187 -0.014758981
0002b0 2a 7b 83 bd 12 ab 1e 3d 45 87 9b bc b7 06 b6 bc
       -0.06419976 0.038737364 -0.0189854 -0.022219999
0002c0 3a 16 45 3d e1 a2 02 3d 04 57 b2 bb 49 ce 56 3d
       0.0481169 0.031893615 -0.005442502 0.052442823
0002d0 5a 9d c0 3c f8 f8 14 bd 3e 6d 13 bd 12 15 ec 3c
       0.023512531 -0.036370248 -0.035992853 0.02881864
0002e0 26 e6 7e bd ec 22 14 bd e3 d4 31 3d 1f 69 32 3d
       -0.062231205 -0.036166117 0.043415915 0.043557283
0002f0 73 b5 19 bd 8d 0d 46 bd 3a a3 81 3d 62 48 b4 bc
       -0.03752656 -0.048352767 0.06329961 -0.022007171
000300 d0 d0 17 3c f4 8a 03 bc 9d 11 f0 3b c2 f6 46 bd
       0.009266093 -0.0080287345 0.0073263184 -0.04857517
000310 23 d4 4c 3d 13 02 cd 3c e8 48 3f 3d fe 6b 38 3d
       0.050006997 0.025025403 0.04670039 0.045024864
000320 b7 8b 47 bb 4f 86 34 bd 52 b5 ff bc d0 56 0e 3d
       -0.0030448267 -0.0440734 -0.03121439 0.03475076
000330 d8 57 61 bb 0b e6 23 bb b7 ee d4 3c 41 5d ce bc
       -0.0034384634 -0.0025008942 0.025992734 -0.025190951
000340 75 cd 9f bc 0a 81 b0 bd db 5f f8 bb 58 9f 20 3d
       -0.01950715 -0.08618362 -0.0075797862 0.039214462
000350 e8 16 64 bd 8c 88 93 bc d1 72 bc bb 15 e5 22 3d
       -0.055685908 -0.018009447 -0.005750992 0.03976925
000360 08 66 06 bc 09 2a 6e 3c 8b 49 f5 bc cd 08 a0 3b
       -0.008203037 0.014536389 -0.029942295 0.0048838616
000370 8d 22 0e bd fb 9d 8e 3c 46 48 37 bd 62 95 52 bd
       -0.03470092 0.017409315 -0.04474666 -0.051411994
000380 3e 07 87 bd 0a 5c 10 3c ce da 7c bd 5b 13 54 bd
       -0.06593178 0.008811006 -0.061732106 -0.05177627
000390 a5 dd 07 3d 3b ad 19 bd 63 b6 70 bc 98 ca 8b bb
       0.03317036 -0.03751872 -0.014691922 -0.0042660944
0003a0 fc 4c 12 bc b4 d1 42 bd d6 3d 82 bc 88 d0 c3 bc
       -0.008929487 -0.04756327 -0.015898626 -0.023903146
0003b0 1a 45 96 37 2e 07 49 3b ed fb 2d 3d ee 53 07 bd
       1.7913571e-05 0.0030674445 0.042476583 -0.033039026
0003c0 d4 5d 95 3c 02 a5 50 bd cb 01 f5 3c 5a 5e 67 bd
       0.018233217 -0.050938614 0.029908082 -0.056486465
0003d0 5d b5 04 bc 24 b0 45 bd 11 67 aa ba 23 59 5a 3d
       -0.008099881 -0.048263684 -0.0013000687 0.053307664
0003e0 68 fe 97 bd 86 79 8c bd 55 56 45 bd 5b ce 30 3d
       -0.07421571 -0.06859116 -0.048178036 0.043165546
0003f0 09 64 d9 3c 13 3e 99 bb ae 0f 3a 3d 76 01 de 3c
       0.026536958 -0.0046765893 0.04542511 0.027100306

bias f4 [32]
000000 9f ea 0f bd 0a 29 03 bd 6f 31 86 bd 6c c5 66 3d
       -0.03513586 -0.03202156 -0.065523975 0.05634062
000010 0c 22 9c 3c 3f 7e af 3c 02 02 62 bd 84 34 5e 3d
       0.019059204 0.021422504 -0.055177696 0.0542493
000020 6c 0c c9 bb 97 90 2c bd 32 6f 17 3d 1c 44 3a 3d
       -0.006135514 -0.04213008 0.03697128 0.04547511
000030 c8 38 6a bd 0b cd 45 bb be b8 5b bd c4 8c 05 bc
       -0.057183057 -0.003018203 -0.05364298 -0.008151237
000040 b1 66 69 3d bc 0b 5c bc 86 1e 78 bd a1 08 48 bd
       0.0569827 -0.013430532 -0.060575984 -0.048836354
000050 83 33 3d 3d 5b d0 5d 3c b2 49 8d bd 8d cb 2f 3d
       0.046191704 0.013538445 -0.06898822 0.04291873
000060 26 83 84 bd e9 3e e3 bc 86 1b 1f 3c dd b4 de bc
       -0.06470327 -0.027739959 0.009711152 -0.027185852
000070 4b 80 2e 3d 8d 07 fa bc fb e9 d3 bb 88 cc 86 bd
       0.04260282 -0.030521179 -0.0064671016 -0.0658198

weight f4 [64, 32, 4, 4]
000000 b3 d4 22 bd c5 8a bc bc d2 f4 23 3c a7 43 37 bd
       -0.039753627 -0.02301539 0.0100071 -0.044742253
000010 d6 56 f1 bc 83 e2 46 bd 6f c4 80 38 46 85 34 bd
       -0.029460352 -0.048555862 6.140104e-05 -0.044072412
000020 df 04 d3 bc 54 b2 1d bd 95 a5 11 bd a4 2a d1 bc
       -0.025759159 -0.038500145 -0.035558302 -0.025533028
000030 bc 1d 72 bb 78 57 a4 3b 90 be 20 3b c1 39 ea 3b
       -0.0036943993 0.00501531 0.0024527647 0.007147998
000040 6b ae 1e ba ad bd e3 bb 19 04 cb bc d2 2f 50 3d
       -0.0006053212 -0.0069501013 -0.024782227 0.050826855
000050 21 2c 3b 3a b1 08 5a bc bf e3 91 bd 93 51 c5 3c
       0.00071400596 -0.013307736 -0.07123517 0.02408675
000060 3b 43 16 3d b5 dc cd 3c 1c f1 f5 bc 2c f5 0e 3d
       0.03668521 0.025129655 -0.030022196 0.034901783
000070 ad 45 d0 bc 12 6e a6 3c 7f dd 39 3c 11 0c a1 bc
       -0.025423849 0.020316157 0.011344313 -0.019659074
000080 3f 66 df 3c 1c 76 98 bb 59 d7 05 3d 1c 6e 02 bd
       0.027270434 -0.0046527516 0.032676075 -0.03184329
000090 61 65 45 bd 11 03 c4 3c 53 94 f3 bc 20 18 8c 3c
       -0.048192386 0.023927243 -0.029733812 0.017101347
0000a0 13 82 90 3c d9 8f ed 3c f7 52 33 3d 6f 41 1d bd
       0.01764015 0.028999256 0.043780293 -0.03839248
0000b0 f7 80 0b bc 41 73 ef bc dc c9 03 3d e7 c6 38 bc
       -0.008514634 -0.029229762 0.03217493 -0.011277891
0000c0 df 49 1b bd fe ed 73 bd 3c 32 a6 3c 1f 1e 51 bd
       -0.037912246 -0.05955314 0.020287625 -0.051054116
0000d0 e9 f3 0e 3d 8b 84 54 3c f9 8c 7f 3c 46 1e af bc
       0.03490058 0.012971054 0.015597575 -0.02137674
0000e0 7f 28 db 3a ce 06 46 3c f3 97 27 3c b6 95 48 bc
       0.0016720443 0.012086583 0.010229099 -0.012242725
0000f0 fd cb 3e 3d c4 1c 09 3c 8e 01 97 3c 65 b7 a1 3c
       0.046581257 0.008368675 0.018433359 0.01974077
000100 a4 78 3f bb 1f 43 41 bc 79 6a fa 3c 59 c5 25 3c
       -0.0029216195 -0.011795788 0.030568348 0.010117852
000110 f0 40 28 3d 6d 6f 84 3d 65 e3 a1 3c 60 36 01 bd
       0.041077554 0.06466565 0.01976175 -0.031545997
000120 08 33 21 bd 25 73 b4 bb bd 71 49 bd c0 c1 3b bc
       -0.039355308 -0.0055068904 -0.049180735 -0.011459768
000130 ae aa ec bc 56 1c b7 bc 12 a6 48 bc 09 49 f2 3b
       -0.02888998 -0.022352379 -0.0122466255 0.0073939604
000140 e4 cf 02 bb 2c ed 59 bc 90 2c b8 bb 34 8d 35 3d
       -0.0019960338 -0.013301175 -0.0056205466 0.044324115
000150 77 31 8e 3c 6f 1d 05 3b 6c 64 48 bd 3f cd 46 bd
       0.017357571 0.0020311733 -0.048923895 -0.04853558
000160 bb 82 0b bb b6 30 34 bd 73 d4 e6 3c 4a 8f 21 3d
       -0.0021287638 -0.043991767 0.028177476 0.03944329
000170 91 2e 09 bd af 3b 07 bd a0 5e 01 bd 4c de c9 3a
       -0.033491675 -0.033015903 -0.031584382 0.0015401333
000180 d6 3e d8 bc 10 9e 44 bd ed 45 e2 bc 5c df 3b 3a
       -0.02639715 -0.048002303 -0.027621234 0.0007166767
000190 6b ff 54 bc 50 57 3a bc 86 e7 e9 bc 25 2a 19 bd
       -0.0130003495 -0.011373356 -0.028552782 -0.037393708
0001a0 f5 53 4f ba 0e de f5 bc 7e d8 8c 3c 9f 13 16 bd
       -0.0007908934 -0.03001311 0.017193075 -0.036639806
0001b0 ac 59 71 3c aa 11 20 3d a8 8c 4a 3c 76 a2 44 3c
       0.014730852 0.039079346 0.012362637 0.012001624
0001c0 79 c8 06 3b f2 0b 39 3d 7b cf 0e bd a7 57 30 bd
       0.0020566268 0.045177408 -0.034865838 -0.04305234
0001d0 69 e1 77 3d 9f 24 0b 3d ee 1d ec 3b e0 5a 08 bd
       0.060517702 0.03397047 0.0072057163 -0.03328979
0001e0 47 78 3a 3d 94 7f 57 3d 81 19 8a 3b e6 4f b4 bc
       0.04552486 0.052611902 0.004214466 -0.022010755
0001f0 a5 14 09 3d 56 9d 95 bc d6 f1 71 bc 46 a2 9d 3b
       0.033466954 -0.0182635 -0.014767131 0.0048106043
000200 74 0e be 3c 73 e6 e7 3c 60 a3 cc 3c 51 a4 e7 bb
       0.023200251 0.028308129 0.024980247 -0.0070691486
000210 06 d9 2c bd 2c c1 ee 3c 76 5a ed bc df 5c b1 3b
       -0.042199157 0.029144846 -0.0289738 0.0054126824
000220 52 b4 49 bd 72 8f d2 3c 3b 49 e4 bc f7 07 61 3c
       -0.049244232 0.025703166 -0.02786695 0.013734809
000230 68 64 62 bd 85 e0 7b bc 7b 0a ae bc 87 e3 13 3c
       -0.055271536 -0.015373354 -0.021245232 0.009026415
000240 42 40 e5 3b fa ce 39 3a d9 04 c4 bc be 93 0d 3b
       0.0069961855 0.0007088032 -0.023928093 0.0021602954
000250 c5 9f 89 bb cf 96 22 bd af dc 0b bd ab d0 92 bc
       -0.004199954 -0.039694604 -0.034146007 -0.017921766
000260 9f 37 0f bd d0 8a 21 3d 00 fe 10 3d ce c9 14 3d
       -0.034965154 0.039439023 0.035398483 0.03632527
000270 85 28 e2 3c 8e 97 d2 3c da d7 75 bc b4 af 2e 3d
       0.027607212 0.025707033 -0.015005076 0.042648032
000280 87 49 9a bd 75 fd a5 bc ba 2e 90 bd e9 53 a4 bc
       -0.075335555 -0.02026246 -0.070401624 -0.020059543
000290 9c b1 2f bd d2 8a 09 3d ec 5d 88 bd 8e eb 25 bc
       -0.04289399 0.033579655 -0.06658539 -0.010126961
0002a0 e1 ac 3e bd 27 1c 59 3c f1 af ae bd 07 c2 03 3d
       -0.04655159 0.013251341 -0.08529652 0.03216746
0002b0 e6 de ad 3b 4f df bc 3b d8 38 24 3c 70 01 c0 bc
       0.0053061126 0.005763925 0.010023318 -0.023438185
0002c0 8e 77 48 3c 93 0b 2b bd b9 bc 1b bd 61 8a 3e bd
       0.012235535 -0.041759085 -0.038021777 -0.046518687
0002d0 e5 7e 3b 3c 7b 9e 05 bc 3a 86 11 bd ae 19 2b bc
       0.011443828 -0.0081554605 -0.0355284 -0.010443134
0002e0 d7 f1 99 3b ec 1a b6 3c 4e 23 e7 bc 36 f1 66 3c
       0.004698019 0.022229634 -0.028215077 0.014095595
0002f0 c1 5a c5 3b f8 2d 06 3d fb 97 52 3a d4 47 16 3d
       0.0060227816 0.032758683 0.0008033511 0.036689594
000300 fa d7 62 3c 8d 6b 9d 3c 0b 78 a3 bc 73 00 87 bd
       0.013845438 0.019216323 -0.019954702 -0.065918826
000310 44 20 14 3c 6a 90 b6 3c 9d 91 67 3b cb 4a 80 bc
       0.009040896 0.022285659 0.0035334595 -0.015660664
000320 1d 1f 26 bd 51 95 3a bd c3 ff 22 3c af de 15 bd
       -0.040557016 -0.045552555 0.009948674 -0.03658932
000330 b3 db 8e bb a3 49 a6 3c 61 d7 ef bc 88 88 62 bc
       -0.0043596863 0.020298785 -0.029277505 -0.013826497
000340 70 ee 2d bc 1c c5 e2 3c 6d 44 f1 bc a7 c7 ce 3c
       -0.01061593 0.02768188 -0.029451573 0.025241686
000350 8d bb 42 3b 85 77 13 3d ea 17 50 3c 57 4e ac bb
       0.002971384 0.036002655 0.012701014 -0.0052583623
000360 36 79 0d 3b 6a db 44 bd ca 1b c0 bc 2d 9b 5f 3c
       0.002158714 -0.048060812 -0.02345075 0.013647837
000370 d0 8c 21 bd 01 22 f7 3c a9 d9 fc 3a 8a 03 e4 3c
       -0.03944093 0.030167582 0.0019290942 0.027833719
000380 f0 a2 8e bc 46 63 09 bd 4e 02 e4 bc e6 1f 86 3c
       -0.017411679 -0.03354194 -0.02783313 0.016372632
000390 d1 da e9 bc 01 66 88 3c e0 dc d5 3c 39 08 b6 bc
       -0.028546723 0.016650202 0.026106298 -0.022220718
0003a0 d0 16 c6 bb e8 cf de bc c1 7b 83 3b 9a a2 b9 bc
       -0.0060452 -0.027198747 0.0040125553 -0.022660542
0003b0 c3 c0 19 3d df 58 2c 3d 42 54 13 bd 60 28 86 3b
       0.037537348 0.04207694 -0.035969026 0.0040941685
0003c0 31 40 9e 3c 30 96 07 bd f7 df 05 bd da b9 ca 3b
       0.019317718 -0.033102214 -0.032684293 0.006186706
0003d0 70 50 cc 3c d5 90 00 bd ac 7f 08 3d ba 84 38 3c
       0.0249407 -0.031388123 0.033324882 0.011262113
0003e0 b3 2e 0c bc 20 bd 70 3c d2 7d da 3c be 41 73 bd
       -0.008556056 0.014693528 0.026671324 -0.05938887
0003f0 30 1d e5 bc 2d 33 3c bd 7a 92 0f 3c 86 dd a3 3c
       -0.02796802 -0.045947243 0.00876295 0.020003092

bias f4 [64]
000000 7f a7 6d bc 79 b1 1b bc f7 0f ef bb 3b 62 1e bc
       -0.014505266 -0.009502762 -0.0072956043 -0.009666975
000010 3f fb c7 bc 54 1b 2a bc f1 f3 f4 bc f6 a5 c0 3b
       -0.024411796 -0.010382492 -0.029901477 0.005879159
000020 7c f3 d0 3c a3 4f bb 3c 94 e5 0d 3c 52 57 a8 bb
       0.025506727 0.022865122 0.008660693 -0.0051373625
000030 c0 83 b8 bc b0 e3 cf 3c 4e 94 23 3c 96 95 04 3d
       -0.02252376 0.025377125 0.009984089 0.03236922
000040 0d 0c 5f 3c 07 3c 55 bd bc ad c6 bc a7 33 dc 3c
       0.013613713 -0.0520592 -0.024252765 0.026880099
000050 c9 2c 7c bc 5f 11 38 bd d6 d3 61 ba 11 0a ec 3c
       -0.015391537 -0.04493844 -0.0008614635 0.028813394
000060 7c 45 b9 3a 95 c9 2f 3c 0a 05 8b 3b f7 a8 46 3b
       0.0014135088 0.010729213 0.004242544 0.0030313113
000070 7a 82 32 bc 32 ad d4 bb 56 80 a1 bc c7 17 1c bd
       -0.010895366 -0.006490373 -0.019714516 -0.038108613
000080 87 1c 5f 3d 41 5d e4 3b 94 42 a6 3b a4 44 b4 3c
       0.054470565 0.0069691245 0.0050738547 0.022005387
000090 cd a4 9f bc 89 21 01 3d 49 52 76 bc 7d 6d 35 bd
       -0.019487763 0.031526122 -0.015034267 -0.04429387
0000a0 ac 8b 7e bc e2 cb 27 bb df d4 23 3c 34 a8 21 bd
       -0.01553623 -0.0025603701 0.009999483 -0.03946705
0000b0 55 fe b1 bb 8c 89 17 bc 15 23 49 bd 96 ba e4 bb
       -0.00543193 -0.009249102 -0.049105722 -0.0069802506
0000c0 ec f8 58 bd 39 5e c2 3b f5 85 0e bd 8d 23 00 bd
       -0.052971765 0.0059316424 -0.03479572 -0.031283904
0000d0 46 9f 24 bc 3a a2 84 3c 77 0c 16 bd 2f 7f 1e bd
       -0.010047739 0.016190637 -0.03663298 -0.03869551
0000e0 8e f1 8c 3c b3 3d dd bc e6 ef e7 3b ed cc d3 bc
       0.017205026 -0.02700696 0.0070781587 -0.025854552
0000f0 2c 60 4d bd 00 74 a8 bc 4f 70 c2 bb dc 86 9c bc
       -0.050140545 -0.020563126 -0.0059337984 -0.019107275

weight f4 [64, 64, 3, 3]
000000 08 08 83 bc 97 98 02 bc ce 68 6f bb a5 1b 86 bc
       -0.01599504 -0.007970951 -0.0036530974 -0.016370604
000010 5c 51 91 3b e9 85 73 bc 22 15 b4 bc 86 06 c3 bb
       0.0044347476 -0.01486347 -0.021982733 -0.0059517054
000020 ab a1 19 bc 21 2c ee 3b 2a 30 38 3d f4 c3 79 3d
       -0.009376924 0.007268444 0.044967808 0.06097789
000030 7a 25 71 ba de a0 25 3d 44 9f 43 3c 4e 48 44 3d
       -0.0009199005 0.040436618 0.011939827 0.047920518
000040 72 29 ed bc a0 2b 4d 3d a4 6c 83 3c 6a eb dc 3c
       -0.028950427 0.050090432 0.016043015 0.026967723
000050 26 1d 58 3c f9 c0 83 3c f4 c9 61 bd f7 5d 92 3c
       0.013190543 0.016083227 -0.055124238 0.017867072
000060 a8 d8 33 bd c4 0c dc ba 2a 7b 0f bc 48 01 0a bd
       -0.04390779 -0.0016788472 -0.008757392 -0.03369263
000070 e1 d3 9b bc 69 71 57 bd 80 86 39 bc e6 5c 9c 3c
       -0.01902193 -0.05259839 -0.011323571 0.019087266
000080 0f a7 76 3d 83 56 99 3c b3 67 a5 bc 98 25 00 3c
       0.060217913 0.01871801 -0.02019105 0.007821463
000090 19 92 57 37 85 3d 54 3d a1 8c ef 3c 06 64 f4 bc
       1.2849015e-05 0.051816482 0.029241862 -0.029832851
0000a0 85 c4 c2 3b b7 5f fd 3b 3f dd f1 bc 4a cd 6e 3b
       0.005943837 0.0077323574 -0.029524444 0.003643828
0000b0 18 d9 25 bd 71 48 a0 bb c7 29 81 bd b5 51 a9 bb
       -0.04049024 -0.004891448 -0.063067965 -0.005167211
0000c0 9d 69 55 3b 22 77 0d bd 38 64 5f 3d fd 4f 10 bc
       0.003256417 -0.034537442 0.054538935 -0.008808133
0000d0 3e 12 c3 3c 7d a7 e4 3c 77 11 85 3c 76 1e 0e 3c
       0.02381241 0.027911896 0.01624368 0.008674255
0000e0 42 d3 b7 3b 8c e2 46 bd 40 44 03 3d fd 85 7e 3a
       0.0056099007 -0.048555896 0.03204751 0.0009709297
0000f0 8f 28 3d 3d a8 93 1a bc f7 a6 48 3b 7c ae 81 bd
       0.046181258 -0.009434618 0.0030617097 -0.063321084
000100 90 46 28 bc b5 51 97 bb b0 9a bb bc 27 b6 fa bc
       -0.01027073 -0.0046178945 -0.02290091 -0.030604435
000110 3a 78 40 bd 21 74 c0 ba 2d 40 2f 3b 3e eb 94 3c
       -0.046989657 -0.0014683047 0.0026741133 0.018178578
000120 d0 24 a2 3b 2c 33 0b bc f0 f6 8e 3c 1b 51 79 3c
       0.004948236 -0.008496087 0.017451733 0.015217091
000130 e6 da 28 3d 0b 5b 38 bc 6a 7b 12 3d e7 25 fd bc
       0.041224383 -0.011252175 0.035762228 -0.030901862
000140 99 5c f3 bc 2a 62 10 3d 8a bc 91 bc 2a fd 39 bd
       -0.02970724 0.035249867 -0.017790098 -0.04540745
000150 e3 43 f0 3b d7 a1 9e bc e3 29 f2 3c da 02 5f bd
       0.0073323115 -0.01936428 0.029560989 -0.05444608
000160 c0 4b b0 ba d7 db cd 3c 00 db 88 bc 26 9a e6 bc
       -0.001345031 0.025129242 -0.01670599 -0.028149676
000170 a0 2b a5 bc 63 63 1f bc 8a 59 a1 bc 8f 5d 0a 3d
       -0.020162404 -0.0097282855 -0.019696016 0.03378063
000180 06 26 fb 3b f1 df 58 3d 62 5c 97 3b 80 7c 4c bd
       0.007664445 0.052947942 0.004619167 -0.04992342
000190 01 01 91 bc ec 0e b5 3c 39 ac bd 3c 7b a7 58 bd
       -0.017700674 0.022101842 0.023153411 -0.052894097
0001a0 3e e8 d4 bc e5 4e 24 3d 84 b5 e8 3c 45 a9 41 bb
       -0.025989648 0.040114302 0.028406866 -0.0029550355
0001b0 3b f2 62 3c 9a f6 e0 3c a5 68 c9 bb 78 6e 98 bc
       0.013851698 0.027461339 -0.006146508 -0.018607363
0001c0 bf d5 92 bc bf cb 3b bc 00 6c bb 3a 87 d3 0b bc
       -0.017924188 -0.011462151 0.0014299154 -0.008534319
0001d0 40 15 cb 3c 74 15 0e 3d 22 19 42 3d e0 6d 55 3d
       0.024790406 0.034688428 0.04738725 0.052106738
0001e0 4f 90 93 3c 20 86 1e bc d4 3f 12 3d 44 f7 f7 3b
       0.018013148 -0.009675533 0.035705402 0.007567318
0001f0 2f c9 da 3c 2d 08 4f 3d aa c9 57 ba 8d 29 22 bd
       0.02670726 0.050544906 -0.00082316494 -0.039590407
000200 d3 c1 5a bd 47 c9 c7 bd 57 83 51 bb 1d 31 54 3d
       -0.0534075 -0.097551875 -0.0031969154 0.05180465
000210 e7 d6 7d 3d 0d 1d b0 bc 3b ea 09 3d 6b 8f c8 bb
       0.061972525 -0.021498227 0.033670645 -0.0061206124
000220 b3 49 30 3d ed 37 79 bc ba 43 ec 3c dc 0f 23 bd
       0.043039035 -0.015211088 0.028840888 -0.039810047
000230 e7 3a 42 bd 1f 88 2d bd dc 05 74 bc 03 49 d9 3c
       -0.047419455 -0.042366143 -0.014893975 0.026524073
000240 a3 90 c6 bc a9 e0 25 3c fd 28 66 3c 8c b7 0a bd
       -0.02423889 0.010124364 0.014047858 -0.03386645
000250 76 05 02 bd 7c ed 33 bc 10 ff d1 3c 1d 7a ce bb
       -0.03174349 -0.010981914 0.025634319 -0.006301178
000260 a2 62 53 bd b1 34 dd bc 3a 3d e8 3c 49 e4 a8 3c
       -0.051607735 -0.027002664 0.028349508 0.020616667
000270 ee 31 22 bd 0f 4f 31 bc 82 96 db 3c 55 51 85 bc
       -0.039598398 -0.010822072 0.026805166 -0.016274134
000280 ff d6 35 3d 6a 3a 91 3d e7 46 05 bc d7 78 77 bc
       0.04439449 0.0709122 -0.00813458 -0.015104494
000290 f9 08 06 3c 8d 00 3a bd c8 f5 36 bd b4 ee f4 3c
       0.00818085 -0.04541068 -0.04466799 0.029898979
0002a0 70 f5 d5 3c 1b 2f 01 3d 9c f2 71 3c e0 bb 57 bc
       0.02611801 0.031539064 0.014767315 -0.0131673515
0002b0 f2 0f 3b 3d 52 d0 87 bc cd c9 ca 3c a8 16 a0 3c
       0.045669504 -0.016578827 0.02475443 0.019542053
0002c0 9d a5 91 3c af f3 92 bc 40 b8 84 bc 2c 6f 18 3d
       0.017779166 -0.017938463 -0.016201138 0.037215397
0002d0 d4 c2 25 3a 29 b4 c5 bc 1b 67 ab 3c ce 23 20 3d
       0.0006323282 -0.024133759 0.020923188 0.039096646
0002e0 a6 b8 27 3d e7 74 04 3d 86 b2 d0 3c de de 52 bc
       0.04094758 0.03233805 0.025475752 -0.0128705185
0002f0 59 71 13 3c 69 e2 28 bd 86 9b 82 bd 6e 33 56 3b
       0.008999192 -0.041231547 -0.0637732 0.0032684463
000300 f4 ad a2 bb 4e 9a 25 bd a5 96 b7 3c ee 15 aa bc
       -0.0049645845 -0.04043036 0.0224107 -0.02076241
000310 16 55 ab 3c 86 96 91 3c 79 db 66 bc a0 7a 68 bc
       0.020914596 0.01777197 -0.014090412 -0.014189392
000320 f8 95 e7 bc 72 2d db 3c 34 ac 3c bd 19 15 85 bd
       -0.028269753 0.026755068 -0.046062663 -0.06498165
000330 33 b3 30 bd df 99 60 bb ef 37 0d 3d 79 cf a8 ba
       -0.043139648 -0.0034271402 0.03447717 -0.0012879214
000340 c0 c1 79 bc 51 c4 2f 3d 7a ca 18 bd 33 59 fc 3c
       -0.0152439475 0.04291183 -0.03730247 0.030804252
000350 be e5 a1 bc 7b c4 ac 3c a3 82 59 3c b0 2a 30 bd
       -0.01976287 0.021089783 0.013275775 -0.04300946
000360 a4 4b 8e bd c5 3a 64 bc 7d 56 1e bd 6e 98 a3 3b
       -0.06948021 -0.013930027 -0.0386567 0.0049925363
000370 df 35 2f 3d ba 2f 55 3c c5 01 eb bc 25 7f 00 3c
       0.042775985 0.013011867 -0.028687367 0.007842814
000380 c6 29 8a 3b af 52 b9 bc c0 63 6c bd 5d b6 3f 3d
       0.0042164056 -0.022622434 -0.057712317 0.046804775
000390 e3 c9 56 bd 3f 34 65 3d 12 b6 5c ba 0a 13 56 3d
       -0.052438628 0.05595803 -0.00084194646 0.05226425
0003a0 49 b2 fa 3c 53 44 0b 3c 08 1a 40 bc 6e c6 c2 bc
       0.030602591 0.0085001765 -0.011724956 -0.02377626
0003b0 db 6b a0 bc 04 a9 2e bd 66 fc e9 3c 1b 7d 63 bd
       -0.01958268 -0.042641655 0.028562736 -0.05553923
0003c0 e7 a3 08 3d c2 7d 8b bc 95 27 a7 ba 15 25 ed bc
       0.033359434 -0.01702774 -0.0012752885 -0.028948346
0003d0 bf 77 d2 bc e4 3e 58 bd 2b 87 88 bc c0 ef a7 ba
       -0.025691865 -0.052794352 -0.016666016 -0.001281254
0003e0 42 a6 48 bd 18 52 fa bb c2 f2 f5 bb 8a 00 09 bd
       -0.04898668 -0.007639181 -0.0075057456 -0.03344778
0003f0 8f 86 83 3d dd f6 0c 3c 39 4d 43 3c 88 4b 83 bc
       0.064221494 0.008603779 0.011920267 -0.016027227

bias f4 [64]
000000 a7 cf 1f 3d 2c f6 1e 3d 73 a4 0b bd 4a c5 68 3c
       0.039016392 0.038808987 -0.034092378 0.014207194
000010 8b d5 c3 3c 89 b4 08 3d 79 98 31 bc ac 0c 14 3d
       0.023905536 0.033375297 -0.010839575 0.036144897
000020 ce 85 d9 3c 4d a4 b8 bc ad 25 c5 3b c9 69 91 3c
       0.02655306 -0.022539282 0.006016454 0.017750638
000030 10 41 1c 3d 3c 70 b0 3c 47 99 19 3d 21 f1 8c 3a
       0.038147986 0.021537893 0.037499692 0.0010753014
000040 8b 0b 70 bb 0b 98 02 bd db ca f2 bc c1 a0 05 3d
       -0.0036627974 -0.03188328 -0.029637745 0.03262401
000050 f1 3d e5 3c 92 1a 56 37 5c 6e 9a 3c 99 cc c3 bc
       0.027983638 1.276158e-05 0.018851452 -0.02390127
000060 2a ac 84 bc 8c 04 9f bc 3e 8c 1d 3d b7 bd aa 3c
       -0.016195375 -0.019411348 0.038463823 0.020842416
000070 b3 4f 3c 3c d8 d3 c5 3c 09 76 26 3d d8 69 26 bd
       0.011493611 0.024148867 0.04063991 -0.040628284
000080 7a 2a 4a bb e7 74 a7 3c a8 ea bd 3b 4d 99 33 3d
       -0.0030848072 0.020441486 0.0057957955 0.04384737
000090 8a f3 04 3d ae 61 1a 3d f2 ec a3 3c 6c d1 ab 3c
       0.03245882 0.03769081 0.020010445 0.020973884
0000a0 0c f5 dd ba 99 2b c8 3c 28 33 9f 3c 91 80 c4 3b
       -0.0016933992 0.024434851 0.019433573 0.0059967716
0000b0 e6 75 e5 3b 88 22 5d 3d 65 47 6d bc d8 fd 9c bc
       0.00700258 0.05398801 -0.014482354 -0.01916401
0000c0 d6 b9 67 bc 86 73 46 3d b4 1c d9 3c 89 6f 00 3d
       -0.014143428 0.048450015 0.026502945 0.03135637
0000d0 bf 98 31 3d 3d db c3 bc b8 6e 8f bc e3 bf 30 3d
       0.04335856 -0.023908252 -0.01750885 0.043151747
0000e0 0d 17 00 bc b2 0c 9f 3c 48 0e e6 bc 2b 50 e7 3b
       -0.007817996 0.019415233 -0.028082982 0.0070591173
0000f0 7c 43 00 3c 32 10 31 3d fe 11 3e bd dd 5a 42 bb
       0.0078285895 0.043228336 -0.046403877 -0.002965621

weight f4 [18, 3136]
000000 71 c9 47 3c cf bf 83 bc fd 10 e4 bb 0b 3c e0 bc
       0.0121940235 -0.016082672 -0.006960033 -0.02737238
000010 bc 68 94 3c 6f 4e 50 3b 94 bd f8 3b 3d e5 94 3c
       0.018116347 0.0031785031 0.007590959 0.018175716
000020 b0 86 38 bb 11 46 1a 3d d1 89 0d bb 4f ba 1d 3d
       -0.0028156452 0.037664477 -0.0021597038 0.038507756
000030 d6 fd 88 bb a6 d5 e1 3b fd 8b e2 3c ad 72 2e 3c
       -0.00418065 0.006891924 0.027654642 0.010647458
000040 72 fd 23 3c 54 f6 e3 3a 35 59 8a bc fa 49 de 3c
       0.010009157 0.0017392137 -0.01688824 0.027134884
000050 25 42 93 bc c3 66 60 bc 36 35 9b bc b1 3c ff 3b
       -0.017975876 -0.013696375 -0.018946271 0.0077892174
000060 5e 22 c9 bc 1e 72 a5 3c 4b 90 b4 ba 3d d5 c7 bb
       -0.02455252 0.020196017 -0.0013775913 -0.006098418
000070 10 81 c8 bc 8a 87 83 bc e0 ab 5b ba e4 5b e6 bb
       -0.024475604 -0.016055841 -0.00083797984 -0.007029997
000080 69 ae 0f 39 cc c9 7c 3c a6 18 4b 3d 4f cd d9 bc
       0.00013702516 0.0154289715 0.049584053 -0.026587157
000090 0c ab 8c 3c ad a2 52 bb c5 b1 b5 ba b8 e4 bd 3c
       0.017171405 -0.003214042 -0.0013862184 0.02318035
0000a0 60 c3 29 bc ef c2 63 3d ad 9c aa 3b 60 61 dc 3a
       -0.010361522 0.055605825 0.0052066655 0.0016813688
0000b0 c0 58 42 3d 3a 4e 3f 3b ea 03 b3 bc 37 c4 ff bb
       0.04744792 0.0029190914 -0.021852452 -0.007805373
0000c0 8e d1 d2 bc b3 1c 56 bc cd 41 bf bc e7 17 b9 3c
       -0.02573469 -0.013068366 -0.023346806 0.022594405
0000d0 f2 17 8c bc 3f df 32 bd e2 fe 43 bb 25 e0 90 3c
       -0.017101262 -0.043669935 -0.002990656 0.017685005
0000e0 34 54 50 bc a7 c1 8d 3b f2 f0 d3 3c ea 9b 0f 3d
       -0.012715388 0.0043260637 0.025871728 0.0350608
0000f0 b3 43 9a bb aa d1 29 3c 19 3f e3 3c 99 46 6f 3c
       -0.0047077774 0.010364929 0.027740048 0.014604234
000100 92 05 fd 3c 69 6e f4 bb 28 28 87 bc 52 c5 06 3d
       0.030886445 -0.007459451 -0.01649864 0.032903023
000110 40 a8 0f 3c 89 b6 be 3c 95 60 b7 3c 0b c7 83 3c
       0.008768141 0.023280399 0.022384921 0.016086122
000120 c1 4f 98 bc 30 af 2f bc 1f c8 c8 bb ea c9 74 bc
       -0.018592717 -0.01072292 -0.006127372 -0.014940718
000130 a8 66 1c bc 1e ae 7e bb c6 a8 89 bc 95 fe 1f bb
       -0.0095459595 -0.0038861106 -0.01680411 -0.0024413217
000140 68 73 21 bb 93 48 10 bc f1 94 f0 3c 00 c5 d1 3c
       -0.0024635438 -0.008806366 0.029367896 0.025606632
000150 aa e4 28 bd 1c ad 08 3d 12 7d 1b bb 10 b7 d4 ba
       -0.041233696 0.033368215 -0.002372567 -0.0016228873
000160 37 1f c3 3b b5 8f 20 3d ce 9c 0f bb 6a fe 80 bc
       0.005954649 0.03919955 -0.0021913531 -0.015746314
000170 cb d3 25 3d 35 89 7a 3c 05 ad a7 bc f8 58 5a 3c
       0.040485185 0.015291502 -0.020468244 0.013326876
000180 da 41 74 bc c6 4a 00 3d da e0 5a bb 00 89 df bb
       -0.014908278 0.03132131 -0.0033398182 -0.0068217516
000190 63 ba 18 ba 2e 7f 40 3c 7a 82 24 bc 7c 94 df 3b
       -0.00058261136 0.011749072 -0.010040874 0.0068231206
0001a0 08 f7 fc 3b 87 18 02 3d 69 0f 0a bc 97 a5 69 3c
       0.007719878 0.031761672 -0.008426526 0.014260671
0001b0 20 6d 66 3b ad fd bc 3c db 38 db 38 69 4b 8f 3c
       0.0035160258 0.02307018 0.00010453324 0.017492013
0001c0 fe 3c d5 bb b2 ef 2d bc a8 32 bf bb 48 20 24 3d
       -0.006507515 -0.01061623 -0.005834896 0.04006985
0001d0 3b 8e 44 bb e5 56 04 3d 11 a6 d1 3c 89 22 05 3c
       -0.0029992003 0.03230943 0.025591882 0.00812591
0001e0 00 03 ad bb b3 33 c7 3c 2d f2 06 bc 1d c9 e9 3a
       -0.0052798986 0.024316644 -0.00823645 0.0017836426
0001f0 44 3b c4 3b 9f 0f 97 3b 27 c6 0a 3d 0f 6d 94 3c
       0.0059885103 0.0046100165 0.03388038 0.01811841
000200 c4 b8 bc 3a 52 9d 11 3c a6 f6 ae bc 33 9b 03 3c
       0.0014398326 0.008887606 -0.021357846 0.008032608
000210 17 ed 9b bb db 7d 06 bd 41 27 d4 3b 0e 2d cb bc
       -0.004758488 -0.03283487 0.006474406 -0.024801757
000220 98 71 95 bb 8a c3 30 3c 59 f1 80 bc 8f ce d5 bc
       -0.0045606606 0.010788808 -0.015740084 -0.026099471
000230 b5 bf 2b 3c ee f4 71 3a 1a 43 1d 3c 98 66 18 3c
       0.010482718 0.0009229918 0.009598518 0.009301804
000240 54 62 8d bc ae 2f 8c 3c a5 85 53 3c 15 21 07 3c
       -0.0172588 0.01711258 0.012910281 0.008247633
000250 3f b6 db 3c a0 91 a9 3c 52 1e 50 3c a1 61 80 3c
       0.0268203 0.020699322 0.012702541 0.015671553
000260 dc db 7c 3b 5a ab 9b 3c 57 4a a2 bc 88 f2 7e bd
       0.0038583195 0.019002605 -0.019810839 -0.062243015
000270 8a f6 c3 bc 94 dc 41 bd 4c b5 46 bd c2 8b 3e bd
       -0.02392127 -0.0473295 -0.048512742 -0.046520002
000280 d9 1e c3 bc ac 48 4d 3b 20 d2 f3 3c 61 f2 44 bc
       -0.02381842 0.0031323833 0.029763281 -0.012020678
000290 59 06 cb bb 5e ce 33 bc a5 04 f5 3c 9e e0 77 bc
       -0.006195825 -0.010974495 0.029909441 -0.0151292365
0002a0 ca fd ad bc 90 94 02 bc 2e b6 4d bc 41 08 bf bc
       -0.02123918 -0.00796999 -0.012555642 -0.023319365
0002b0 86 c7 d9 3b 9f b1 6c 3b cd a8 6d bd d2 0a 25 3d
       0.0066460995 0.0036116613 -0.05802231 0.040293522
0002c0 31 bd e1 bc b2 8c ea bc 6c 7a 4d bc 54 5e e9 bc
       -0.027556034 -0.028631542 -0.012541395 -0.028487362
0002d0 2c 84 df 3b 28 55 a1 bc b5 78 16 3d c1 2e da bc
       0.006821176 -0.019693926 0.03673621 -0.026633622
0002e0 87 c0 be bb 16 dc 64 3c a1 0a 21 bd 8c bb 4e bc
       -0.005821291 0.013968488 -0.039316777 -0.012617957
0002f0 9b f3 da bc 92 e0 bb bb 81 11 ac bc bc a1 de 3b
       -0.026727488 -0.005733558 -0.02100444 0.0067941826
000300 a0 48 2f bc 41 63 81 bb c8 ab 1c bc c3 d9 96 bc
       -0.0106984675 -0.0039485996 -0.00956244 -0.018414384
000310 f6 58 be bb 11 43 8e 3c a6 21 1a bc 07 60 59 bc
       -0.005808945 0.017365964 -0.0094074365 -0.013267524
000320 10 67 64 bc 27 72 f0 bc 06 20 e1 3b af b6 0f 3d
       -0.013940588 -0.029351307 0.0068702726 0.03508633
000330 a6 cf 9d 3c 17 d2 52 3c 08 a1 98 3c 2e a4 ac 3c
       0.019264054 0.012867472 0.018631473 0.02107438
000340 2d 14 ae ba 87 20 15 bd 3b 9c ee bb f6 f2 c0 bc
       -0.0013281159 -0.036407974 -0.0072818077 -0.023553353
000350 5d fe a5 3a 7d dd 47 bb 38 1e 07 3d 80 e1 d7 bc
       0.0012664307 -0.0030497008 0.032987803 -0.026352644
000360 db 50 90 bb 1e e2 93 bc ca f2 14 bd 67 d9 55 bb
       -0.00440417 -0.018052157 -0.036364354 -0.0032630803
000370 6e 16 9f 3b 34 99 c0 3c 5a a6 75 bc b6 c8 53 3a
       0.0048549687 0.023510553 -0.014993275 0.00080789195
000380 6f c4 9d 3c 8c bb 61 bc f7 ce ab 3b 7c e2 04 bd
       0.019258706 -0.013777625 0.005243178 -0.032442555
000390 b9 35 ae 3b eb b4 e2 3c 97 68 9f 3c 99 07 ac 3c
       0.005316463 0.027674159 0.019459052 0.020999717
0003a0 9d 70 d6 3c f8 0a ae bc 8b 5f 4f bc 74 25 99 ba
       0.026176745 -0.021245465 -0.012657057 -0.0011684136
0003b0 bb 16 92 3c 26 34 29 bb 9c 07 bb bc 41 3d c9 3c
       0.017833104 -0.0025818436 -0.022830777 0.024565341
0003c0 8e 32 56 3b c4 7f 95 bc 60 fe 85 3c 51 96 2b bc
       0.0032683942 -0.0182494 0.016356647 -0.01047285
0003d0 f7 1d c5 bc cd fd b2 bc ef 93 ac bc 73 2e 2f bc
       -0.02406214 -0.021849537 -0.021066634 -0.010692227
0003e0 90 2e 09 3d b5 c1 69 bc 58 d6 58 bd c9 4d bb bb
       0.03349167 -0.014267375 -0.05293879 -0.00571606
0003f0 24 96 b0 3c ff d8 9c 3a e6 9c cb bc 2b 06 77 bd
       0.021555968 0.0011966525 -0.024855088 -0.060308617

bias f4 [18]
000000 39 09 25 ba 3b e6 13 bb 2d 1a 19 3c 69 35 6f 3c
       -0.0006295625 -0.0022567648 0.00934462 0.014600136
000010 f8 89 b4 bc 6f 8d 41 bc a4 ad 2f bc c1 02 d7 3c
       -0.022038445 -0.011813506 -0.0107225515 0.02624643
000020 19 c0 2b 3d 0b f2 60 bc 84 c1 27 3b 46 cc 81 3c
       0.041931245 -0.013729583 0.0025597522 0.015844475
000030 a5 2a 08 bc 06 b1 80 bc c7 44 c4 bb c0 93 87 bc
       -0.0083109485 -0.015709411 -0.005989644 -0.016549945
000040 41 ad ff 3a 99 00 10 3c
       0.001950659 0.008789205

weight f4 [1, 3136]
000000 cd 64 cb bb 9d 35 de 3b b4 01 42 3b e4 2b 69 b9
       -0.0062070847 0.0067812935 0.0029603066 -0.00022236962
000010 98 af 57 ba 2f 0f 09 bb 1a 5f bf bb a2 f9 1e 3b
       -0.00082277646 -0.002091359 -0.0058401944 0.002425768
000020 21 81 1e 3b ef 02 63 ba 2f ba fb 39 03 ac 70 3a
       0.0024185854 -0.00086598 0.00048013168 0.0009180905
000030 98 fb f4 3b 15 d5 c0 3a 26 c3 e7 3b 44 14 db ba
       0.0074762814 0.0014711941 0.007072824 -0.0016714414
000040 13 e2 43 b8 c7 9d 28 bb 99 e6 ca 3b d8 c3 20 3a
       -4.670217e-05 -0.0025728808 0.00619204 0.00061326986
000050 0e 63 aa 3b 54 db fb 3a b5 ea fa 39 55 f8 07 ba
       0.0051997965 0.0019215145 0.00047858586 -0.00051868457
000060 11 d4 3f b9 17 3b f8 3a 93 7d 73 3b c0 f2 c9 3b
       -0.0001829418 0.0018938509 0.0037153705 0.0061629713
000070 55 20 47 3a ae 05 85 3b c5 ba 85 bb 22 4d 7e 3b
       0.00075960654 0.004059515 -0.0040811026 0.00388033
000080 19 5e 82 3a a2 6a 9c 3b ce 18 32 3b 91 c0 94 b9
       0.0009946256 0.004773454 0.002717543 -0.00028372233
000090 6b 61 ef b9 c7 f1 97 3b de 3e b6 b9 3f 56 a1 3b
       -0.00045658214 0.0046369764 -0.00034760585 0.0049236114
0000a0 17 4e d6 ba 9d e4 81 3a 25 6d c5 bb 45 b9 93 bb
       -0.0016350177 0.0009910051 -0.006024974 -0.00450817
0000b0 e2 37 c5 3a 0c b2 d7 bb 72 e6 d3 bb 61 5d 14 3c
       0.0015046562 -0.006582504 -0.00646668 0.009055466
0000c0 5d 4d 2a bc fa c8 88 3a 62 dc 01 bb 98 34 b8 3b
       -0.010394421 0.0010435872 -0.0019815196 0.005621504
0000d0 2d 54 90 bb e5 5c 8d ba c8 e4 9a 3a 2f 55 11 bb
       -0.004404566 -0.0010785131 0.001181745 -0.0022176018
0000e0 43 b8 f7 3a 35 72 2e 3b 68 24 6b ba d0 88 73 3b
       0.0018899519 0.0026618366 -0.00089699635 0.0037160404
0000f0 89 07 2a 3a 4b 40 21 bb a3 f5 89 ba 6f d9 d0 3a
       0.0006486108 -0.0024604972 -0.0010525476 0.0015933941
000100 0c 9d 31 3a d9 68 3a 3b a5 a0 1f 3b 89 c1 06 3b
       0.0006775416 0.0028443842 0.0024357226 0.0020562133
000110 79 b9 c2 3a 28 d4 ce 3a ff 3d f1 3a 68 59 17 3a
       0.00148563 0.001577978 0.0018405317 0.00057735154
000120 35 94 1d 38 a6 63 cd 3b 1b 41 0f 3b bc 16 d7 b9
       3.7569745e-05 0.0062679825 0.0021858874 -0.00041024934
000130 a0 29 c8 ba a6 13 3c ba 3f 62 c2 bb 6e 11 a2 3b
       -0.0015271194 -0.00071745587 -0.005932122 0.0049459254
000140 8a ff 2c bb 95 c3 db b8 dd d6 75 3b 0c fc 03 bb
       -0.002639743 -0.00010479164 0.0037512102 -0.0020139245
000150 61 55 db 3b c8 e8 29 3c 87 58 ff bb a6 91 d7 bb
       0.0066935276 0.010370441 -0.0077925357 -0.006578642
000160 6c 9f ea ba 2e b3 a4 bb 90 92 62 bb c7 2f da 3b
       -0.0017900295 -0.0050262427 -0.0034572221 0.0066585275
000170 15 4b 39 bb 40 0d 58 3c d1 a7 8e bb 27 e0 cc 3b
       -0.0028273512 0.013186753 -0.0043535014 0.006252307
000180 ec c8 82 ba 0c 6b c8 3a a4 fc 1c 3c bc d7 96 3b
       -0.0009978092 0.0015290692 0.009581719 0.0046033543
000190 29 5f 51 bb 3a 9d 59 3c 20 c4 25 bb 16 b4 a1 ba
       -0.003194759 0.013282115 -0.0025293902 -0.0012336995
0001a0 e2 55 83 3c 7d af 4a b9 10 7e 8a 3b 5d 62 b6 bb
       0.016032163 -0.00019329596 0.0042264536 -0.005565925
0001b0 9d 8f 87 3b 46 f5 23 3c f7 08 44 3c f8 c1 99 3b
       0.004136993 0.010007208 0.011965028 0.0046923123
0001c0 6b a2 45 bb 6f d2 9b 39 0c fc 2b bb 56 00 30 bc
       -0.0030156623 0.0002972069 -0.002624276 -0.010742268
0001d0 ba cd aa 38 0d 50 04 bb b0 fc 95 bb 73 12 a2 3b
       8.144551e-05 -0.0020189316 -0.004577242 0.004946047
0001e0 f4 45 d6 b9 24 94 97 3b ca f8 10 bb 4e cf 92 3b
       -0.0004086938 0.004625814 -0.0022120946 0.004480279
0001f0 bf 58 f5 3b a3 52 75 bc e8 08 35 bb d5 b8 26 3b
       0.007487386 -0.014973315 -0.0027623717 0.0025439758
000200 ef f2 7e bb 15 87 77 3b 3c 31 b7 3a cc bb 01 3c
       -0.0038902124 0.0037769724 0.0013976465 0.007918309
000210 3e 05 a7 ba e2 2b a8 39 3e 2c 97 3a 38 77 23 3b
       -0.0012742651 0.00032076152 0.0011533571 0.0024942886
000220 f0 bc bd ba f2 02 5b ba 1e 4c 19 3b 5d 3e ce 3a
       -0.0014475863 -0.0008354626 0.0023391317 0.0015735138
000230 0c e4 c9 3a 68 64 4d bb 48 45 0a b9 1e be 2f bb
       0.0015403046 -0.0031340364 -0.00013186515 -0.00268162
000240 ab 43 9d bb b7 5b 1f bc 01 89 43 39 77 dc 13 bb
       -0.0047993264 -0.009726456 0.00018647687 -0.0022561827
000250 72 46 9d 3b d1 78 86 bb 48 64 d0 39 6d 4f 0b 3c
       0.0047996575 -0.004103758 0.00039747567 0.008502823
000260 ba bb 01 3b 52 5f 87 bb 6f 50 8a bb 6e 89 61 3b
       0.0019795732 -0.004131236 -0.004221014 0.003441419
000270 5a 5e ef bb 4d 33 df bb f8 a6 70 3b 8c 80 cd 3b
       -0.0073049488 -0.0068115355 0.0036720615 0.0062714275
000280 13 55 64 3a c8 5e ba b9 ae 36 ac 3b e9 04 3e 3b
       0.0008710187 -0.00035547302 0.0052555418 0.0028994626
000290 71 7c 57 b9 7d 81 b7 bb 34 9b b6 3b 23 81 db ba
       -0.00020550356 -0.005600153 0.005572701 -0.001674686
0002a0 97 c3 d4 ba cb ae 76 3a db f1 d7 3b 2e da 8e 3a
       -0.0016232607 0.00094102015 0.0065901107 0.0010898763
0002b0 cf c3 b9 3a 8c 6e f7 3b 1a fa 6d 3c 52 45 47 bb
       0.0014172735 0.00755102 0.014524961 -0.0030406308
0002c0 94 66 80 3b fb cf 20 3b bc 64 a3 ba c3 49 50 bb
       0.0039184783 0.0024538029 -0.0012465934 -0.0031782247
0002d0 b7 2e 14 3b d4 8f 5b b9 fe 80 b3 3a 8f 09 fb b9
       0.0022610852 -0.00020939048 0.0013695059 -0.00047881572
0002e0 8f c5 0b bb 1a 4d 49 3b 53 31 b0 ba e4 0c e2 ba
       -0.002132747 0.0030716122 -0.0013442434 -0.0017246273
0002f0 5f 65 09 bb ef 28 9f bb 32 f0 52 bb e4 28 10 3b
       -0.0020964963 -0.0048571746 -0.0032186625 0.002199703
000300 0e 8d f5 39 90 e3 cb 3a 9d f8 2b ba 51 fe bd bb
       0.00046835135 0.001555549 -0.00065601786 -0.005798139
000310 0d c0 5b ba 07 76 29 39 37 54 71 b9 12 aa ac ba
       -0.0008382805 0.00016161065 -0.00023014923 -0.0013173243
000320 2b ed 28 bb 1b 50 b5 ba 9c f7 a5 3a 96 73 26 ba
       -0.0025776129 -0.0013833077 0.0012662294 -0.0006349621
000330 0e 75 d4 bb 5b d6 c6 ba 0b d4 4d 3b 52 13 7b 3a
       -0.0064836806 -0.0015170084 0.0031406905 0.0009577769
000340 e8 d4 98 3a 36 be a1 ba 52 9c b1 39 8a 33 36 bb
       0.0011660131 -0.0012340012 0.00033876539 -0.0027801716
000350 34 d0 8f 3a 89 b1 a9 3b 1d 97 35 ba 55 67 c4 ba
       0.0010972084 0.0051786345 -0.00069271197 -0.0014984409
000360 04 71 cf ba 3d bf 1e bb 4e ca 4b bb c7 2e e4 b9
       -0.0015826528 -0.0024222874 -0.0031095925 -0.000435224
000370 c1 17 2b 3b f9 bd cc 3a e4 d0 07 3b cd 5a f4 3a
       0.0026106688 0.0015620581 0.0020723874 0.0018642783
000380 c3 92 ba bb 36 f2 86 39 63 50 8c ba bb e1 b4 3b
       -0.005693765 0.00025738933 -0.001070511 0.005520073
000390 b0 51 08 39 d9 82 43 ba c1 99 48 3b ef 3e 87 bb
       0.00013000402 -0.00074581575 0.0030609223 -0.0041273753
0003a0 9b 94 34 bb af ac 45 bb be 65 a1 b9 a9 49 92 ba
       -0.0027554396 -0.0030162742 -0.00030784117 -0.0011160868
0003b0 ed 0f ca 3a 20 24 df 39 d7 41 ac 3b 98 d4 5a 3b
       0.0015416123 0.0004256079 0.005256872 0.0033390876
0003c0 58 64 11 3c e2 4d a7 3b f4 21 42 ba b9 58 bc bb
       0.0088740215 0.00510572 -0.0007405572 -0.0057478813
0003d0 74 f1 05 3b 37 7d 01 bb 46 49 0c bb 59 97 9f bb
       0.0020438107 -0.0019758472 -0.002140598 -0.004870337
0003e0 bf 46 51 bb 09 b3 a5 39 7a 11 46 3a 5f f7 a2 3a
       -0.0031933037 0.00031604644 0.0007555705 0.0012433341
0003f0 da db 34 3b 1f d5 fe b9 36 18 65 3b 91 42 c9 3a
       0.0027596862 -0.00048605443 0.0034957058 0.0015354921
