PPO-GAE/Pong/FINAL.PongNoFrameskip-v4.MODEL (torch_old, 417884 bytes, 9 tensors)

weight f4 [32, 4, 8, 8]
0	0xbc9b4ef0	-0.018958539
1	0xbb8f72ce	-0.0043776995
2	0x3a1eae3f	0.00060531864
3	0xbd20c690	-0.039251864
4	0xbcda405c	-0.026642017
5	0x3cfa3584	0.030543096
6	0x3b86ff4d	0.0041197897
7	0x3d3ff615	0.04686554
8	0xbd562c36	-0.052288257
9	0x3cbb5941	0.022869708
10	0xbd5a560b	-0.053304713
11	0xbd54081c	-0.051765546
12	0xbcf7eaab	-0.030263266
13	0xbc1efbe9	-0.009703615
14	0xbd409693	-0.0470186
15	0xbc6bf5e8	-0.01440189
16	0xbce4ad10	-0.027914554
17	0xbbf5495a	-0.007485551
18	0x3c9abd56	0.01888911
19	0xbd83fbaf	-0.06444489
20	0xbd35bb1f	-0.044367906
21	0xbd846c2b	-0.06465944
22	0xbd476003	-0.04867555
23	0x3cc4e8c1	0.024036767
24	0x3d5a31ab	0.053270023
25	0x3d1ce3d8	0.038303226
26	0xbce86160	-0.028366745
27	0xbc30d4af	-0.010792895
28	0xbd28d67d	-0.041220177
29	0xbc26c138	-0.010177903
30	0xbd6d5e00	-0.057950974
31	0x3d047e97	0.032347288
32	0xbd222211	-0.03958327
33	0x3bcf2529	0.0063215685
34	0x3d0109d8	0.03150353
35	0x3d5cf077	0.053940263
36	0xbcaaac8b	-0.020834228
37	0xbd21a73c	-0.039466128
38	0xbd027a11	-0.031854693
39	0x3d57f5a3	0.05272449
40	0x3cb8b82e	0.022548761
41	0x3c047e16	0.008086702
42	0xbc157829	-0.009122887
43	0x3ca48b8d	0.020086074
44	0x3cc9b39a	0.024621774
45	0xbd41c382	-0.04730559
46	0xbd83b212	-0.064304486
47	0x3b77480f	0.003773216
48	0xbd078ac1	-0.03309131
49	0x3d1e079a	0.03858147
50	0x3ccf381b	0.025295308
51	0x3bf5ac86	0.007497373
52	0x3d457758	0.04820952
53	0x3d3f71bb	0.04673932
54	0xbd5d8959	-0.054086063
55	0xbd880222	-0.06641032
56	0x3d610638	0.05493757
57	0xb7baf2ac	-2.228593e-05
58	0x3d17de76	0.03707739
59	0x3cf06ae9	0.029347854
60	0x3d1e83f2	0.03870005
61	0xbcf5db7c	-0.030011885
62	0xbc80cf95	-0.015723983
63	0xbccb1ad4	-0.024793066
64	0xbd1181a5	-0.03552403
65	0x3d0752a2	0.03303779
66	0xbcb7c77a	-0.022433985
67	0x3a3935fa	0.0007065233
68	0xbd52bed8	-0.051451534
69	0xb8a4bff4	-7.8558835e-05
70	0x3d549f8f	0.05190998
71	0x3c6f792a	0.01461629
72	0xbd150b34	-0.036387637
73	0x3d43d8a6	0.047814034
74	0x3b2b9bcb	0.002618539
75	0x3cd1f077	0.025627358
76	0xbd022a7f	-0.03177881
77	0x3cc68098	0.02423124
78	0xbd0e57b0	-0.034751594
79	0x3d33b14e	0.043870263
80	0xbc6f520e	-0.014606966
81	0x3d4ee018	0.05050668
82	0x3d27cf31	0.040969077
83	0x3cdb98f8	0.02680634
84	0x3bf2150c	0.007387763
85	0xbd6a8e7d	-0.057264794
86	0xbd4b4af4	-0.049632028
87	0xbd79815a	-0.060914375
88	0xbd43e750	-0.04782802
89	0xbc9c791c	-0.019100718
90	0xbcd6aae4	-0.026204534
91	0xbd597c0a	-0.05309681
92	0x3a34f400	0.0006902814
93	0xbc1814e1	-0.009282322
94	0x3d593165	0.053025622
95	0xbccb3537	-0.024805648
96	0x3d0d3304	0.03447248
97	0xbd24b011	-0.040206973
98	0x3d61090f	0.05494028
99	0xbc3fcd78	-0.011706702
100	0x3cb13b3e	0.021634694
101	0x3c6de388	0.01451958
102	0x3d351781	0.04421187
103	0x3d039a8e	0.032129817
104	0xbc9ad34a	-0.018899579
105	0x3d2d4d4b	0.04231004
106	0x3d29528e	0.041338496
107	0x3c43df0f	0.011955037
108	0xbd226208	-0.03964427
109	0xbc48c0aa	-0.012252966
110	0x3cd64288	0.026154771
111	0x3ce24d26	0.027624678
112	0x3c12decb	0.008964251
113	0x3d450245	0.048097868
114	0x3ced31f9	0.028954493
115	0xbc05583e	-0.008138714
116	0xbc135974	-0.008993495
117	0xbc842c0c	-0.016134284
118	0x3c484106	0.012222534
119	0x3d3275e5	0.043569464
120	0xbd48ae8e	-0.048994593
121	0xbd37c774	-0.044867948
122	0xbc92f124	-0.01793725
123	0xbcf933d4	-0.030420221
124	0x3c82a391	0.015947135
125	0x3cec54e5	0.028849075
126	0x3d063919	0.032769296
127	0xbc9da250	-0.019242436
128	0x3d069800	0.032859802
129	0x3cbb1b4e	0.022840168
130	0xbd46ccee	-0.04853528
131	0x3d2e73ba	0.042590834
132	0xbd25efe8	-0.040511996
133	0x3d6965be	0.056981795
134	0xbc814fb0	-0.015785068
135	0x3cadcf04	0.021216877
136	0x3cc211b4	0.023690082
137	0x3d2b4fc8	0.041824132
138	0xbbf174e1	-0.0073686694
139	0x3d33f0af	0.043930706
140	0xbd019c66	-0.031643294
141	0xbb3cffc3	-0.002883897
142	0x3d20d8cf	0.039269265
143	0x3ce98ec7	0.028510464
144	0x3d65e90f	0.056130465
145	0xbb852a6a	-0.004063894
146	0xbccc23d0	-0.02491942
147	0xbd2cc9a2	-0.04218448
148	0xbc7514de	-0.014958588
149	0xbd8421c3	-0.06451752
150	0x3d3aae64	0.045576468
151	0x3cd7330c	0.026269458
152	0x3d05090c	0.03247933
153	0x3d10081c	0.035163984
154	0x3a211ada	0.0006145664
155	0x3d3d157d	0.04616307
156	0x3bab1b8f	0.005221791
157	0xbbca5a95	-0.006175349
158	0xbd7169cf	-0.058938798
159	0xbcafa32c	-0.021440111
160	0xba925dc2	-0.0011166858
161	0xbd2efde9	-0.042722616
162	0x3cfbced6	0.030738275
163	0xbcd41a58	-0.025891468
164	0x3c7a761c	0.0152869485
165	0xbd40fed8	-0.047118038
166	0x3cb5ab1b	0.022176316
167	0xbd869206	-0.065708205
168	0xbc4cb47e	-0.012494205
169	0xbd774be6	-0.060375117
170	0xbd105442	-0.035236605
171	0xbd201a63	-0.039087664
172	0x3cb2ff9a	0.021850396
173	0x3d3030e7	0.043015387
174	0xbbea0a87	-0.0071423682
175	0x3c4850bf	0.012226283
176	0x3ce5c8a6	0.028049778
177	0x3d09ccdf	0.033642646
178	0x3c29e336	0.010369113
179	0xbcf398d0	-0.029735953
180	0xb9e9faa7	-0.00044627974
181	0xbbba76b9	-0.0056904224
182	0xbc25c3fd	-0.010117528
183	0xbd2e9e46	-0.04263141
184	0xbd7de83e	-0.06198906
185	0x3d416154	0.04721196
186	0xbc9d4e26	-0.019202303
187	0x398044f8	0.00024465448
188	0xbcc139cd	-0.023587132
189	0x3c818b63	0.015813535
190	0xbb9044c5	-0.004402729
191	0x3d416fc9	0.047225747
192	0x3d31b4bc	0.043385252
193	0xbd81387e	-0.06309603
194	0xbc8f558a	-0.017496843
195	0xbd386004	-0.045013443
196	0x3d4b1f85	0.049590606
197	0xbd86d515	-0.06583611
198	0xbc12c94d	-0.008959127
199	0xbd4ed5fd	-0.050497044
200	0x3d261b1f	0.04055321
201	0x3cfa99c8	0.030590907
202	0xbcff406d	-0.03115865
203	0x3d0eed33	0.03489418
204	0x3b43c6eb	0.0029873203
205	0xbc90095c	-0.017582588
206	0x3d4ffc93	0.050777983
207	0xbd1f73f2	-0.038928933
208	0xbd460744	-0.048346773
209	0xbd4bbf1d	-0.049742807
210	0x3c44be20	0.01200822
211	0x3d18223c	0.037142023
212	0xbca7cf3b	-0.020484557
213	0xbcfc466d	-0.0307953
214	0x3c83361f	0.016017018
215	0x3cab8431	0.020937057
216	0xbd57ab4f	-0.052653607
217	0x3a48a8d0	0.00076545496
218	0xbc768316	-0.015045902
219	0x3d31b75a	0.04338775
220	0xbd01370b	-0.031546634
221	0xbce1ed15	-0.02757887
222	0xbd5336ba	-0.051565863
223	0x3c8fc6b4	0.017550804
224	0xbd68f69e	-0.056875817
225	0x3d1b4ee9	0.03791705
226	0x3c9e0652	0.019290123
227	0xbd0aa848	-0.03385189
228	0xbcce103f	-0.025154231
229	0xbca1eaea	-0.019765336
230	0x3cc585bc	0.024111621
231	0x3ccbcd29	0.024878101
232	0x3d07ccfc	0.033154473
233	0x3d0fe1e3	0.03512753
234	0x3d2f7d7d	0.042844284
235	0xbcfea21c	-0.03108316
236	0x3d03349e	0.0320326
237	0xbd7acf17	-0.061232653
238	0x3c2e244c	0.010628771
239	0xbd77e9e2	-0.060525782
240	0x3cd425ac	0.02589687
241	0xbce6a4b2	-0.028154705
242	0x3c246f1c	0.010036256
243	0xbd286556	-0.041112266
244	0xbd442887	-0.047890212
245	0x3d30e951	0.043191258
246	0xbc24cf58	-0.0100592
247	0xbd083940	-0.033257723
248	0x3d3e5978	0.046472043
249	0xbcc35e0d	-0.023848558
250	0x3d4cc4b2	0.04999227
251	0xbd00e3d7	-0.031467285
252	0xbd24c31f	-0.040225144
253	0x3d0760ce	0.033051305
254	0xbc804a76	-0.015660506
255	0x3ce03c63	0.027372545

bias f4 [32]
0	0xbd82d685	-0.063885726
1	0xbd41ed63	-0.04734553
2	0x3d22d455	0.039753277
3	0x3d616740	0.055030107
4	0xbd7255d7	-0.059163895
5	0xbcb040d1	-0.021515282
6	0xbcd3f714	-0.025874652
7	0xbd333b5e	-0.04375779
8	0xbce40f56	-0.027839344
9	0x3cfa7c7c	0.030576937
10	0xbcb659e9	-0.02225967
11	0x3d1b9f07	0.037993457
12	0x3d151865	0.036400218
13	0x3b393048	0.0028257538
14	0x3d56869e	0.052374475
15	0xbceba59a	-0.028765488
16	0x3d32b145	0.04362609
17	0x3cc00402	0.023439411
18	0xbc5e8fab	-0.013584058
19	0x3d4a52bb	0.049395304
20	0x3b7415ef	0.0037244519
21	0x3c7eeab7	0.01555889
22	0xbd5485e7	-0.05188551
23	0xbc492e51	-0.012279109
24	0x3d1a6cea	0.037701525
25	0xbc95d7c5	-0.018291363
26	0x3cd5c58e	0.026095178
27	0x3c3c6d88	0.011500724
28	0xbc64d6e8	-0.013967253
29	0xbd4e82c3	-0.050417673
30	0xbc201937	-0.009771637
31	0x3cf13305	0.029443273

weight f4 [64, 32, 4, 4]
0	0x3c9e9761	0.019359292
1	0xbd0cb05a	-0.03434787
2	0xbbdaf8a7	-0.0066824737
3	0xbd096c7b	-0.03355072
4	0xbc64e34c	-0.013970207
5	0x3d25d44b	0.04048566
6	0x3d2583fb	0.04040907
7	0x3d08ea72	0.03342671
8	0x3d2122fa	0.039339997
9	0x3cb0fdb6	0.021605354
10	0x3d0b238c	0.033969447
11	0xbc1436c7	-0.009046263
12	0xbc344950	-0.011003807
13	0xbcf67ea6	-0.030089688
14	0xbd0856d9	-0.03328595
15	0x3c627cb8	0.013823681
16	0x3c6b4643	0.014360013
17	0xbc63f9c1	-0.013914526
18	0x3c536b0a	0.012903938
19	0x3afafa97	0.0019148168
20	0x3d19d9d5	0.037561256
21	0x3ccc5c3b	0.024946323
22	0xbd0a6bd2	-0.03379423
23	0x3c94db55	0.018170992
24	0x3d0c6781	0.034278397
25	0x3c08c4b5	0.00834768
26	0xbab153df	-0.0013529024
27	0x3d247b69	0.040156756
28	0x3ca12751	0.019672068
29	0x3cfa30f2	0.030540917
30	0x3cafd68a	0.021464605
31	0x3c22b349	0.00993044
32	0x3ccd7fcd	0.025085354
33	0xbb875db2	-0.0041310424
34	0x3ceeac1f	0.029134808
35	0xbd022f77	-0.031783547
36	0x3c85c117	0.016327424
37	0x3ce67921	0.02813393
38	0x3c3cb94c	0.011518788
39	0x3cddad74	0.027060248
40	0x3cd88793	0.026431834
41	0x3d2fc8ef	0.042916235
42	0xbcbb6b2b	-0.02287825
43	0x3cd0d5fb	0.025492659
44	0x3cf81209	0.030282037
45	0x3cdb18e1	0.026745262
46	0xbcc41133	-0.023933982
47	0xbd03bc9a	-0.032162286
48	0x3c2237eb	0.009901027
49	0x3d0da1b7	0.03457805
50	0x3cf5a76c	0.02998706
51	0xb9274f00	-0.00015955791
52	0xbcec7294	-0.028863229
53	0x3d07f1a3	0.033189427
54	0x3bdd9c9b	0.0067630536
55	0x3c09623c	0.008385237
56	0xbce09684	-0.027415521
57	0xbd24705a	-0.04014621
58	0xbd108c71	-0.035290185
59	0xbc1e0f7d	-0.009647247
60	0xbc678d9b	-0.0141328825
61	0xbca0e846	-0.019642007
62	0xbaae184d	-0.0013282389
63	0x3d195365	0.037433047
64	0xbc9ee025	-0.01939399
65	0xbc41e218	-0.01183369
66	0x3c5f46b8	0.0136277005
67	0xbd058d28	-0.03260532
68	0xbd24ca1c	-0.04023181
69	0x3d0dc299	0.03460941
70	0xbd295de4	-0.041349307
71	0x3c9afc30	0.01891908
72	0xbd3bad57	-0.045819607
73	0xbd1a260d	-0.037633944
74	0x39f5e0dd	0.00046897578
75	0x3c9cdaa7	0.01914723
76	0x3cf24e1f	0.029578267
77	0x3cd165da	0.025561262
78	0xba311449	-0.0006755037
79	0xbb5ffe7d	-0.0034178786
80	0x3d24990b	0.040185016
81	0x3cb618fe	0.022228714
82	0xbd06874e	-0.03284388
83	0xbcad0884	-0.021122225
84	0xbc82710d	-0.015923047
85	0x3c9ceffa	0.019157398
86	0x3d25146e	0.040302686
87	0x3d0fcd08	0.035107642
88	0xbca51626	-0.020152163
89	0xbc24ca98	-0.010058068
90	0x3cc475a2	0.023981873
91	0x3cdfe3e6	0.02733035
92	0xbbf6b7be	-0.007529228
93	0x3c54cbd7	0.012988052
94	0xbce4cd7e	-0.027930018
95	0xbc26a571	-0.01017128
96	0xbd678180	-0.056519985
97	0x3ba5387c	0.005042134
98	0x3cc006eb	0.023440799
99	0x3cdfe06a	0.027328689
100	0x3d48ad0b	0.04899315
101	0xbce6ab64	-0.028157897
102	0xbd1e9cbf	-0.038723703
103	0xbb91db4b	-0.0044511906
104	0x3dca3b80	0.0987463
105	0xbd014995	-0.031564314
106	0xbca80d30	-0.0205141
107	0xbcf11ea1	-0.02943355
108	0xbc37b3c0	-0.011212289
109	0x3bec4124	0.007209914
110	0xbd126ca1	-0.035748128
111	0xbbb85093	-0.0056248396
112	0x3c959178	0.018257841
113	0xbbd1f0e2	-0.0064068893
114	0x3ceecc81	0.02915025
115	0xbd12926a	-0.035784163
116	0xbd29366a	-0.04131166
117	0x3cba85b1	0.022768827
118	0x3c1a6018	0.009422325
119	0xbc9dfa18	-0.019284293
120	0xbcc8f890	-0.024532586
121	0x3ca42ff0	0.02004239
122	0x3b2c2418	0.002626663
123	0x3cd10387	0.025514377
124	0x3bc649c0	0.006051272
125	0x3ad94197	0.0016575333
126	0x3b491891	0.0030684809
127	0x3d0e3228	0.0347158
128	0x3d30fb0e	0.043208174
129	0xbb8292f1	-0.003984802
130	0x3d12e9c0	0.035867453
131	0xbba85467	-0.0051370147
132	0x3c0f2202	0.008736135
133	0xbcfa5230	-0.030556768
134	0x3cca551a	0.024698783
135	0xbc54e861	-0.012994857
136	0x3a5e0fab	0.00084709626
137	0x3d1d2d79	0.038373444
138	0xbd003e81	-0.03130961
139	0x3beec94a	0.007287179
140	0x38c815c3	9.5407966e-05
141	0xbc236d68	-0.009974815
142	0x3d16d8a6	0.036827706
143	0xbc5b83c6	-0.013398116
144	0x3d48be1a	0.04900942
145	0x3cdaa13e	0.026688214
146	0xbd27c5b7	-0.04096004
147	0xbd497d13	-0.049191546
148	0x3c936860	0.017994106
149	0xbc4450ae	-0.011982126
150	0x3d6ef275	0.058336694
151	0xbd70fafe	-0.058833115
152	0xbd2cd177	-0.04219195
153	0x3ce87e70	0.028380603
154	0xbc339138	-0.010959916
155	0xbd24419f	-0.040101644
156	0x3d04eb08	0.032450706
157	0x3d05f52b	0.032704514
158	0x3ac9e945	0.0015404603
159	0xbd5a7508	-0.053334266
160	0x3c29635a	0.010338629
161	0x3c9c9cc3	0.019117719
162	0xbc98585c	-0.01859682
163	0x3d238835	0.03992482
164	0xbd09625d	-0.033541072
165	0x3ad21ad9	0.001602973
166	0x3cbe8ff3	0.023262
167	0x3d22faae	0.039789848
168	0x3bc394df	0.0059686746
169	0xbca9224d	-0.020646239
170	0x3d06807f	0.032837387
171	0x3d02e93a	0.031960703
172	0xbbe849df	-0.0070888842
173	0x3cbfb109	0.023399847
174	0x3b21c45c	0.002468369
175	0xbd072b53	-0.0330003
176	0x3cc833ac	0.024438702
177	0x3c963d61	0.018339815
178	0x3d2d94f0	0.042378366
179	0xbc47cd73	-0.012194979
180	0xbc352861	-0.01105699
181	0x3d1d44d2	0.03839571
182	0x3c9e74f9	0.019342886
183	0xbd02522d	-0.03181665
184	0x3c021667	0.007939911
185	0x3ca7261f	0.02040392
186	0xbd269a5d	-0.040674556
187	0x3cae9a32	0.02131376
188	0x3d30cee7	0.043166067
189	0xbc091cd7	-0.008368692
190	0x374a2878	1.2049561e-05
191	0x3d2bcf2d	0.041945625
192	0xbbcf8c66	-0.0063338755
193	0x3d104068	0.035217673
194	0xbcca0012	-0.024658237
195	0xbd1e52d8	-0.038653225
196	0x3d187d94	0.037229136
197	0xbd1af344	-0.037829652
198	0x3d261520	0.04054749
199	0xbd2a6f34	-0.041609958
200	0xbcba47ce	-0.022739317
201	0x3ce3b76f	0.027797429
202	0x3ccd6f62	0.025077526
203	0x3cac6849	0.02104582
204	0xbca66ca8	-0.020315483
205	0x3d12e686	0.035864376
206	0xbcaaa74b	-0.020831725
207	0x3ca5bbd3	0.020231163
208	0xbd078092	-0.0330816
209	0xbcb9fc85	-0.022703419
210	0x3cf258e8	0.02958341
211	0xbc87e0f1	-0.016586753
212	0x3ccfe3b1	0.025377126
213	0xbcb8a064	-0.022537418
214	0xbc3fb5d4	-0.011701066
215	0xbc83f3ad	-0.016107405
216	0xbd22b5f3	-0.0397243
217	0xbba43576	-0.005011256
218	0xbbe3364c	-0.006933963
219	0x3d10ffb9	0.035400126
220	0xbc7bcaad	-0.015368146
221	0xbcd8cd74	-0.026465155
222	0x3d272a08	0.04081157
223	0x3b72c5ba	0.0037044124
224	0x3c4d65a7	0.012536443
225	0xbc2ba5a6	-0.010476505
226	0x3ce4aec9	0.027915375
227	0xbc8d7314	-0.017266788
228	0xbc468559	-0.0121167535
229	0xbd1bb94b	-0.038018506
230	0xbd2c257e	-0.042027943
231	0x3cb2ffb2	0.02185044
232	0x3cca752d	0.024714077
233	0x3cdf9b78	0.027295813
234	0x3cb9da24	0.022687025
235	0xbc242d03	-0.010020497
236	0xbb927b8d	-0.004470295
237	0x3bc2d920	0.0059462935
238	0xbc827cf9	-0.015928732
239	0x3c6dcb17	0.014513752
240	0x3b83a7ec	0.0040178206
241	0x3d2b6212	0.041841574
242	0x3d0a1e51	0.03372032
243	0x3d266aad	0.040629078
244	0x39329069	0.000170292
245	0xbc90f4e1	-0.017694892
246	0xbb06c187	-0.0020562129
247	0x3bb657c2	0.0055646608
248	0x3cd6aac8	0.026204482
249	0x3cccca5d	0.024998838
250	0xbcdca9e8	-0.026936486
251	0xbb902722	-0.0043991962
252	0xbc91f733	-0.01781807
253	0xbceec890	-0.02914837
254	0x3d103a54	0.035211876
255	0x3ca1d424	0.019754477

bias f4 [64]
0	0x3c3f7602	0.01168585
1	0x3c905e4e	0.017623093
2	0x3c6326d2	0.013864236
3	0x3d39d517	0.045369234
4	0xbcc66aa5	-0.024220774
5	0x3a8f2e62	0.0010923857
6	0xbd3a0eb8	-0.045424193
7	0x3d06ad57	0.032880154
8	0x3ba8d70c	0.0051525887
9	0x3c8b16b0	0.016978592
10	0x3c9112d6	0.017709177
11	0xbd023e82	-0.031797893
12	0x3c992fc4	0.018699534
13	0x3cf6e045	0.030136237
14	0x3be6bd94	0.0070416424
15	0x3cd612cd	0.026132012
16	0xbcd544ef	-0.026033847
17	0x3c63fd4a	0.013915369
18	0xbcad9847	-0.021190776
19	0xbd336986	-0.043801807
20	0xbb9efcf9	-0.004851934
21	0xbc8faf22	-0.017539565
22	0x3cb846c2	0.022494677
23	0x3aace6ae	0.0013191306
24	0x3d0cad33	0.034344863
25	0x3b845873	0.0040388643
26	0x3acee30d	0.0015784219
27	0x3b1fa931	0.002436232
28	0xbc0841b7	-0.008316449
29	0x3cc30584	0.023806341
30	0xbc8f9e86	-0.017531645
31	0x3c7dbee6	0.015487408
32	0x3c0ad13f	0.00847274
33	0xbbb91f17	-0.005649458
34	0x3c99dde6	0.018782567
35	0xb98f06ce	-0.00027280155
36	0x3d0d8b6b	0.034556787
37	0x3cd2d274	0.025735117
38	0x3d11dc1c	0.035610303
39	0x3bcebace	0.00630889
40	0x3bb2f55d	0.0054613785
41	0xbb5a97fb	-0.0033354748
42	0xbbe7174b	-0.0070523373
43	0x3a110c3c	0.0005533134
44	0x3d48d7d3	0.04903395
45	0x3d1480a8	0.03625551
46	0x3ce875a9	0.028376417
47	0xbcd06766	-0.02543993
48	0xbcd4dd91	-0.025984557
49	0x3c414750	0.011796787
50	0xba8982e8	-0.0010491284
51	0x3c8b2fcf	0.01699057
52	0x3d2332a4	0.039843217
53	0x3bff7bce	0.007796741
54	0x3d36c41e	0.044620626
55	0x3d64fbeb	0.05590431
56	0xb837d600	-4.3829903e-05
57	0x3d02a459	0.031895015
58	0xbcb0cbd5	-0.02158157
59	0x3ca205ba	0.019778121
60	0x3c40fb57	0.011778674
61	0xbcf658e1	-0.030071678
62	0x3bd52439	0.006504562
63	0x3cac2f5c	0.021018676

weight f4 [64, 64, 3, 3]
0	0xbd178af1	-0.03699774
1	0xbd086ee7	-0.03330889
2	0xbd9b771e	-0.07591079
3	0x3d89aa28	0.06721908
4	0xbd36b104	-0.04460241
5	0xbcff258a	-0.03114583
6	0x3d16c252	0.036806412
7	0x3ccdf1df	0.025139747
8	0x3ba34b55	0.0049833455
9	0xbd400a1a	-0.046884634
10	0x3cbf866d	0.023379529
11	0xbc8c7329	-0.017144756
12	0x3d683017	0.056686487
13	0x3c6032ae	0.013683958
14	0x3c6a228f	0.014290466
15	0x3ce5f4d1	0.02807084
16	0x3cd4957c	0.025950186
17	0xb959c11c	-0.00020766672
18	0xbc08c8da	-0.008348668
19	0x3c910533	0.017702674
20	0xbd01df29	-0.031706963
21	0xbc1739d8	-0.0092301
22	0x3d76bd8a	0.060239352
23	0xbd9608d2	-0.07325901
24	0x3d63e362	0.05563677
25	0x3b90054b	0.004395162
26	0xbd2aa3f8	-0.04166028
27	0x3c36aca8	0.011149563
28	0xbd368793	-0.044562887
29	0xbc8eb92b	-0.01742228
30	0x3d9d373a	0.07676549
31	0xbbc68fc5	-0.006059619
32	0xbc21d514	-0.009877462
33	0x3cfc854d	0.030825282
34	0x3ccac9c4	0.024754412
35	0xbd32d011	-0.04365546
36	0xbd2ab99d	-0.04168092
37	0xbcc36f52	-0.023856793
38	0x3bac4853	0.005257645
39	0x3d45b164	0.048264876
40	0x3c55b7a2	0.01304427
41	0x3b761b27	0.0037552805
42	0xba82b7f2	-0.0009973033
43	0x3cf429c7	0.029805077
44	0xbd57768c	-0.05260329
45	0xbd66e7c1	-0.05637336
46	0xbca67947	-0.020321501
47	0x3cf24771	0.029575082
48	0x3b96f768	0.00460713
49	0xbd18f784	-0.037345424
50	0x3b8e6703	0.004345776
51	0x3d539b4a	0.051661767
52	0xba11ab34	-0.0005556822
53	0xbc4a3a62	-0.012343021
54	0xbb8bc5bb	-0.0042655147
55	0xbd4bd63d	-0.04976486
56	0x3cdd7dfa	0.02703761
57	0x3ce2575c	0.027629547
58	0x3c1347c5	0.008989279
59	0xbd016502	-0.03159047
60	0xbb053552	-0.002032597
61	0x3d030057	0.031982746
62	0xbd097b09	-0.0335646
63	0x3a2d0e50	0.0006601559
64	0x3d002136	0.031281672
65	0xbd9c45d4	-0.07630506
66	0x3dd48e30	0.103786826
67	0xbd743a0e	-0.059625678
68	0x3c42e48e	0.011895312
69	0xbc0726d0	-0.008249
70	0xbcaefb4a	-0.021360058
71	0x3d17e0c4	0.037079588
72	0x3d0b8b5e	0.034068458
73	0x3cdaaa92	0.026692662
74	0x3b95c975	0.0045711347
75	0x3d390898	0.04517421
76	0xbd44ec74	-0.04807706
77	0xbd48f67c	-0.04906319
78	0xbc99a4e2	-0.01875538
79	0xbc8cdc37	-0.01719485
80	0x3c2be3cd	0.010491324
81	0xb9bb01cc	-0.00035668758
82	0xbbf52a41	-0.0074818437
83	0xbc570ccf	-0.013125612
84	0xbbe7d7c2	-0.007075281
85	0xbc43f2de	-0.0119597595
86	0xbc9005a8	-0.017580822
87	0xbc769427	-0.015049971
88	0x3d10dab0	0.035364807
89	0xbb06863f	-0.0020526794
90	0xbd0f9a96	-0.035059534
91	0xbc02317f	-0.007946371
92	0xbcdef3fa	-0.027215946
93	0x3d80070e	0.062513456
94	0xbcc7798f	-0.024349956
95	0xbce5a20f	-0.028031377
96	0xbca3d2f0	-0.019998044
97	0xbbe33423	-0.0069337054
98	0xbd0391be	-0.032121412
99	0x3db2eab2	0.08736171
100	0x3d4f7f7c	0.050658688
101	0x3d367250	0.04454261
102	0x3d107463	0.035267245
103	0xbc4f03b0	-0.0126351565
104	0xbcc556cf	-0.024089245
105	0x3d45e21a	0.04831133
106	0x3d0fe775	0.035132844
107	0x3ccc7016	0.02495579
108	0xbca8ed03	-0.020620828
109	0xbcaf9147	-0.021431578
110	0x3d0472be	0.03233599
111	0x3c93a081	0.01802087
112	0xbd1382ad	-0.036013294
113	0xbd01bfea	-0.031677164
114	0x3caa9531	0.020823093
115	0xbc459473	-0.012059319
116	0x3d40cc1b	0.04706965
117	0xbb6dde2b	-0.0036295753
118	0xbd898d8e	-0.067164525
119	0x3d5de759	0.05417571
120	0x3d8b00aa	0.06787236
121	0xbcbe0198	-0.02319412
122	0xbd8307f5	-0.06398002
123	0x3d6bea24	0.05759634
124	0xbd431dd8	-0.047635883
125	0xbd7de7fe	-0.061988823
126	0x3d3dddd6	0.046354137
127	0xbdc2a8b9	-0.095048375
128	0x3d202262	0.03909529
129	0x3daa1f00	0.08306694
130	0x3d2a0bb2	0.04151506
131	0x3cb281a8	0.02179034
132	0x3cdd0506	0.026979934
133	0xbd32fde9	-0.04369918
134	0xbd496d46	-0.049176477
135	0xbd111bdb	-0.035426956
136	0x3ba31cf5	0.004977817
137	0xbb6fd29d	-0.003659404
138	0x3c9e0f80	0.0192945
139	0x3d7409f2	0.059579797
140	0x3be9fd95	0.007140825
141	0xbc1ef77a	-0.009702558
142	0x3b6bce45	0.00359811
143	0x3d419f40	0.047271013
144	0x3cf1dbcf	0.029523758
145	0x3badb5ef	0.005301229
146	0x3cc025eb	0.02345558
147	0x3be0a561	0.006855652
148	0x3c831a6a	0.016003806
149	0xbd82df2f	-0.06390225
150	0x3c632a06	0.013865
151	0xbbfefa55	-0.0077813067
152	0xbd9a5ca9	-0.07537205
153	0xbd4505bf	-0.048101183
154	0x3cf3e1c2	0.029770736
155	0xbc9679ad	-0.018368566
156	0x3d3cf3dc	0.046131
157	0x3ce1831d	0.02752834
158	0xbd2ee30f	-0.04269701
159	0x3d87f6d3	0.06638875
160	0xbd119f3c	-0.03555225
161	0xbca510e8	-0.020149663
162	0xbd3232c4	-0.043505445
163	0xbc970a94	-0.018437661
164	0xbd266050	-0.040619195
165	0x3aa3d467	0.0012499214
166	0x3c385f86	0.011253243
167	0xbcf33e1d	-0.029692704
168	0x3d3d996a	0.046288885
169	0xbc25fd91	-0.010131256
170	0x3d250dfb	0.040296536
171	0xbd1f557f	-0.038899895
172	0x3d229ecf	0.039702233
173	0x3bc51101	0.00601399
174	0x3d671d0f	0.056424197
175	0xbb7bc55f	-0.0038417203
176	0xbba17881	-0.0049276953
177	0xbace605c	-0.001574527
178	0xbd0d50d8	-0.034500927
179	0xbdbca4b3	-0.092111014
180	0xbd51f8bc	-0.051262602
181	0xbd7c8cbf	-0.061657663
182	0xbd645ba5	-0.05575146
183	0xbc6e7535	-0.0145543115
184	0x3d2d93a9	0.042377148
185	0x3b828321	0.003982917
186	0x3cf9de2b	0.030501446
187	0xbc5e97e9	-0.013586023
188	0xbb014dae	-0.0019730139
189	0x3d2cbbce	0.042171292
190	0xbc4be64b	-0.012445043
191	0x3ccf5ed5	0.025313774
192	0xba928192	-0.0011177531
193	0x3a45b0e4	0.00075413124
194	0xbc38e420	-0.011284858
195	0x3d987b60	0.07445407
196	0xbce1d046	-0.027565133
197	0xbd76f0be	-0.060288183
198	0xbc8abc12	-0.016935382
199	0xbd31aa95	-0.04337557
200	0xbd29f334	-0.041491702
201	0x3da85153	0.08218636
202	0xbc756363	-0.014977309
203	0x3afcb474	0.0019279853
204	0x3cfc0af4	0.030766942
205	0x3ccefbb6	0.02526651
206	0x3d16e974	0.036843732
207	0x3c135dbd	0.008994517
208	0xbca88746	-0.020572316
209	0x3ca58f17	0.020209832
210	0x3d085e67	0.033293154
211	0xbc9f1c37	-0.019422634
212	0xbd8106da	-0.06300135
213	0xba3cc30e	-0.0007200696
214	0xba5bce12	-0.0008384894
215	0x3c754d23	0.014972004
216	0xbcc9e8e6	-0.024647187
217	0xbd48ffc5	-0.049072046
218	0x3c0ddb8f	0.008658304
219	0xbbd46d34	-0.0064827446
220	0xbd0190fb	-0.031632405
221	0x3ca1afaf	0.019737093
222	0x3cca59f6	0.0247011
223	0xbbba6041	-0.005687744
224	0xbd2e5c03	-0.042568218
225	0xbd59e803	-0.05319978
226	0xbbad11f5	-0.0052816817
227	0xbd63b801	-0.0555954
228	0xbcef7ae8	-0.029233411
229	0x3ccbb5ab	0.0248669
230	0xbd132749	-0.035926137
231	0x3d682255	0.056673367
232	0x3bab8ce3	0.005235301
233	0xbd80c2af	-0.06287133
234	0xbd57f473	-0.05272336
235	0xbcb07083	-0.021538025
236	0xbc863f1e	-0.016387518
237	0x3d04631d	0.032321084
238	0x3b9050be	0.0044041565
239	0x3c4d46d4	0.012529094
240	0xbb04304b	-0.0020170386
241	0x3c462028	0.012092628
242	0x3cf04171	0.02932808
243	0x3d5659f3	0.052331876
244	0xbbb60428	-0.0055546947
245	0xbb7448f5	-0.003727493
246	0x3d4433f3	0.047901105
247	0x3bcf2c21	0.0063223992
248	0xbc533846	-0.012891835
249	0xbd01db00	-0.031702995
250	0x3be7bd7d	0.0070721493
251	0xbd23d3ed	-0.03999703
252	0xbc5cc684	-0.013475064
253	0xbd5b023f	-0.05346894
254	0x3d02cb4d	0.031932164
255	0xbc8d3db8	-0.017241344

bias f4 [64]
0	0x3d2b220c	0.041780517
1	0x3bc0b87f	0.0058813686
2	0xbc72472a	-0.014787475
3	0xbcfd379e	-0.03091031
4	0xbd035272	-0.032061048
5	0x3cc43ab8	0.02395378
6	0xbbb5b3cf	-0.0055451165
7	0x3b9111d9	0.0044271764
8	0xbcb52636	-0.022112947
9	0x3d6fef68	0.058577925
10	0xbc92cef9	-0.017920958
11	0xbc841b43	-0.01612628
12	0x3a9d7e0e	0.0012015717
13	0xbb908b22	-0.004411117
14	0xbab1837d	-0.0013543215
15	0x3b48a98b	0.0030618634
16	0xbcf7b670	-0.03023836
17	0x3817f79d	3.6231813e-05
18	0x3d2529fb	0.04032324
19	0x3cefd1e0	0.02927488
20	0x3d114cdf	0.0354737
21	0xbceecef9	-0.029151427
22	0x3c6fdea5	0.014640485
23	0x3d8968a8	0.06709415
24	0xbc4d94e5	-0.012547706
25	0xbaca3b9e	-0.0015429144
26	0xbc3df106	-0.011593109
27	0xbc99cf14	-0.0187755
28	0x3bf0225e	0.0073283156
29	0xbbda67e3	-0.0066652163
30	0x3c3d61a0	0.01155892
31	0xbc800b09	-0.015630262
32	0xbd297d60	-0.041379333
33	0x3c7691a4	0.015049372
34	0xbc92f4fc	-0.017939083
35	0xbcce12fa	-0.025155533
36	0xbd768298	-0.060183138
37	0xbd16afec	-0.036788866
38	0x3cad359a	0.021143723
39	0xbcabd02d	-0.02097329
40	0x3c98420a	0.018586177
41	0xbd562c30	-0.052288234
42	0x3cc71422	0.024301592
43	0xbcbc029a	-0.02295046
44	0xbc264a18	-0.010149501
45	0xbcd23198	-0.025658414
46	0x3d3fd741	0.04683614
47	0x3d2a9e0d	0.041654635
48	0xbcb8d1dd	-0.022561008
49	0xbc7f7c56	-0.015593609
50	0xbd72d001	-0.0592804
51	0x3d3f3d41	0.046689276
52	0x3c7138e5	0.014723037
53	0xbd149138	-0.036271304
54	0x3bb8b0c2	0.0056363055
55	0xbcca85f2	-0.024722073
56	0xbcce0596	-0.025149148
57	0x3bc8ca0d	0.006127602
58	0x3cae3999	0.0212677
59	0xbbe7c318	-0.0070728175
60	0x3ceeb101	0.029137136
61	0xbd9aa803	-0.07551577
62	0xbb1c6f3a	-0.0023870007
63	0xbccff360	-0.025384605

weight f4 [6, 3136]
0	0x3d32628a	0.043551005
1	0xbb87688f	-0.0041323374
2	0x3d28b489	0.041187797
3	0x3cbc951c	0.02302032
4	0xbc46fb66	-0.012144899
5	0x3d23b493	0.03996713
6	0x3cced63c	0.02524864
7	0x3d0aebd8	0.033916324
8	0x3c224932	0.009905146
9	0xbcdf9da5	-0.02729685
10	0x3ab92663	0.001412582
11	0xbc096cdc	-0.0083877705
12	0x3c82d169	0.015968995
13	0x3d3d6291	0.04623658
14	0xbcc8189a	-0.024425793
15	0xbc7897ca	-0.015172908
16	0xbc5d87e5	-0.013521169
17	0x3bfdebf8	0.007749077
18	0x3bdd6dd3	0.006757477
19	0xbbdf29b0	-0.0068103895
20	0xbcc1d201	-0.023659708
21	0x3c014aa6	0.007891333
22	0xbb8d436b	-0.0043110154
23	0xba8a3eff	-0.0010547339
24	0x3c983b1d	0.018582875
25	0x3ccb69ea	0.024830777
26	0x3c612ff7	0.013744346
27	0xbd3bf902	-0.04589177
28	0x3d05e63e	0.03269028
29	0x3c648008	0.013946541
30	0xbd351b0d	-0.04421525
31	0x3c4c2ce1	0.012461872
32	0x3c37a5be	0.01120895
33	0x3cca9837	0.024730785
34	0x3ba038a3	0.004889564
35	0x3ad4f203	0.0016246442
36	0xbc384ebe	-0.011249242
37	0xbd0e9b92	-0.034816332
38	0x3d0f449a	0.034977533
39	0x3d28b281	0.04118586
40	0xbba92e68	-0.0051630028
41	0xbc934b33	-0.017980194
42	0x3c8bad59	0.017050432
43	0xbc959983	-0.018261677
44	0xbbdb718a	-0.0066968845
45	0xbc88bfe7	-0.016693069
46	0xbc37d808	-0.011220939
47	0xbca3064b	-0.019900462
48	0xbd121316	-0.035662733
49	0xbd70d567	-0.058797266
50	0x3bd6f62c	0.0065601077
51	0xbc545cc7	-0.012961573
52	0x3c70e9da	0.014704192
53	0x3a7fb51f	0.0009754467
54	0xbbec28c3	-0.0072070076
55	0x3ad8ac12	0.0016530773
56	0xbc6e9556	-0.014561972
57	0xbcac2943	-0.021015769
58	0xbc3859c3	-0.01125187
59	0xbb180a77	-0.0023199597
60	0x3d34cacb	0.04413871
61	0xbc8bd6ee	-0.01707026
62	0x3d0c29b3	0.034219455
63	0x3cbbeb8f	0.022939472
64	0x3c8b3668	0.016993716
65	0x3cb2a8f3	0.021809077
66	0x3ced7643	0.028987056
67	0xbd119909	-0.035546336
68	0x3c32e1ab	0.010918061
69	0xbb9f962e	-0.0048701977
70	0x3c9e021a	0.019288111
71	0x3be586b1	0.007004582
72	0x38004e43	3.0590465e-05
73	0xbcc050c6	-0.023476016
74	0x3c4ca48c	0.012490403
75	0xbd0658cd	-0.03279953
76	0xbc63b40c	-0.013897907
77	0x3d31c35c	0.0433992
78	0xbc8f1190	-0.01746443
79	0xbd4fbd00	-0.050717354
80	0x3b5a0eb3	0.0033272922
81	0x3c47e831	0.012201355
82	0xbbba910c	-0.0056935605
83	0x3d1aabc0	0.03776145
84	0x3ba3c3e8	0.004997719
85	0x3c44f4d9	0.012021267
86	0x3ca3364a	0.019923348
87	0x3c48a731	0.012246893
88	0xba800f47	-0.0009770178
89	0xbd20f061	-0.039291743
90	0x3d19ace5	0.0375184
91	0x3ccfe64e	0.025378373
92	0x3d2742f0	0.04083532
93	0x3bc773bb	0.006086794
94	0xbc3c1dc2	-0.011481704
95	0xbd68e16a	-0.056855597
96	0x3d14a606	0.036291145
97	0xbcf4d486	-0.029886495
98	0xbcb12ba8	-0.021627262
99	0xbbd4566d	-0.0064800293
100	0xbc6e5cab	-0.014548461
101	0x3c0b8c44	0.008517329
102	0xbd0a93d8	-0.0338324
103	0x3b1bf279	0.0023795648
104	0x3ce0f4aa	0.027460415
105	0xbcab548e	-0.020914342
106	0x3be145e9	0.006874789
107	0x3d0d1635	0.034445006
108	0x3c18ca73	0.009325611
109	0x3ceffd96	0.029295724
110	0x3c177768	0.009244777
111	0x3d0daba4	0.034587517
112	0xbd9db14d	-0.07699833
113	0x3ccf79d1	0.025326641
114	0xbcb84a10	-0.022496253
115	0xbc8eb424	-0.017419882
116	0x3c9a7f68	0.01885958
117	0x3cd6ecf9	0.026236044
118	0xbad43cd9	-0.001619245
119	0xbb9b17cf	-0.004733063
120	0x3d3de54a	0.046361245
121	0xbad90825	-0.0016558213
122	0x3a96a6de	0.0011493822
123	0xbc1c8800	-0.009553909
124	0x3ce36b2d	0.027761066
125	0xbc226c5d	-0.009913531
126	0xbc9c51bb	-0.01908194
127	0x3cac378e	0.021022584
128	0x3cefe527	0.029284073
129	0x3c3d3aa4	0.011549626
130	0xbd7ba1d1	-0.061433617
131	0x3ca1cd31	0.019751163
132	0xbd1964fa	-0.037449814
133	0xb909d73d	-0.0001314552
134	0x3c9d05fa	0.019167889
135	0x3c3328d2	0.010935025
136	0x3c3f2f0c	0.011668932
137	0x3cc104c3	0.02356184
138	0xbda87cd6	-0.082269356
139	0x3dbe6677	0.09296887
140	0x3cb9a22d	0.02266034
141	0x39adf631	0.00033180558
142	0xbd35f499	-0.04442272
143	0xbcb74fdc	-0.022376947
144	0x3cdf1136	0.027229887
145	0xbd1ec539	-0.038762305
146	0xbc652623	-0.013986143
147	0xbc8f303f	-0.01747906
148	0xbd4ba19c	-0.04971467
149	0xbc60685b	-0.013696755
150	0xbcdb5bb9	-0.026777135
151	0xbcc36123	-0.02385003
152	0xbcd56ee7	-0.026053859
153	0xbca40eac	-0.020026527
154	0xbd3498bf	-0.044090983
155	0xbc9e3806	-0.019313823
156	0xbd21fec9	-0.039549623
157	0xbd25d782	-0.040488727
158	0xbc341863	-0.010992142
159	0xbc4f8277	-0.012665383
160	0x3d095588	0.033528835
161	0xbc5435bb	-0.0129522635
162	0x3c19e744	0.009393517
163	0x3c73e4ff	0.01488614
164	0xbc5e3d21	-0.013564379
165	0x3c61bf07	0.013778455
166	0x3cb09338	0.021554574
167	0xbb384a10	-0.0028120317
168	0x3a7de451	0.0009685206
169	0xbbc0ca8e	-0.0058835214
170	0x3b8e5ff4	0.0043449346
171	0xbb456c09	-0.0030124208
172	0x3d046a66	0.032328032
173	0xbc1ae2a7	-0.009453452
174	0x3d5bf8b8	0.053703994
175	0x3b6c610a	0.0036068582
176	0x3bfb0fcb	0.007661795
177	0x3c4216af	0.0118462285
178	0xbca6d00d	-0.020362878
179	0x3d457a12	0.04821212
180	0x3ae1ce81	0.0017227681
181	0x3cdf1c03	0.027235037
182	0x3c597fdc	0.013275113
183	0xbd074e38	-0.03303358
184	0x3d287dd9	0.041135643
185	0x3d5d8bd2	0.05408842
186	0x3c2c7b1c	0.010527398
187	0x3d3407f8	0.043952912
188	0x3cb7d459	0.022440122
189	0x3ae4321b	0.0017409952
190	0x3baff40a	0.005369668
191	0x3ca4c313	0.02011255
192	0x3c022c02	0.007945063
193	0x3cf93dbc	0.030424945
194	0x3c384eb6	0.011249235
195	0xbcbfa1aa	-0.023392517
196	0x3c5236dc	0.012830462
197	0x3ca7b629	0.020472603
198	0x3ba82c27	0.0051322165
199	0x3820c120	3.8326834e-05
200	0x3c7912c8	0.015202232
201	0xbc82d941	-0.015972735
202	0xbb179b05	-0.002313317
203	0x3ce826de	0.028338846
204	0x3b761922	0.0037551601
205	0x3b74aa8d	0.0037333101
206	0x3b44fad9	0.0030056743
207	0x3c332970	0.010935172
208	0x3cd83ffa	0.026397694
209	0xbce2b51a	-0.027674247
210	0xbcbacf4b	-0.022803923
211	0x3bffaf66	0.0078028915
212	0x3c223073	0.0098992465
213	0x3c56f039	0.013118797
214	0x3c80218f	0.015641002
215	0x3ba13fd1	0.0049209376
216	0xbbf56823	-0.0074892207
217	0x3c6cf56a	0.014462808
218	0x3bfe4c86	0.007760587
219	0xb9957aa4	-0.0002851087
220	0x3b1bf0ee	0.0023794728
221	0x3ba2b28a	0.004965131
222	0xbc60f2a4	-0.013729725
223	0x39cea98a	0.00039417698
224	0x3b8dc3a4	0.0043263007
225	0x3a49d85b	0.0007699781
226	0xbc04ed9b	-0.00811329
227	0xbc77442b	-0.015091936
228	0x3d46cbc0	0.048534155
229	0x3be8ef0e	0.0071085757
230	0xbc5c41a5	-0.013443385
231	0xbc6924dd	-0.01422998
232	0xbd3a68eb	-0.045510214
233	0x3d3c8250	0.046022713
234	0x3c8abd05	0.016935835
235	0xbcd94458	-0.026521847
236	0x3c75c554	0.01500066
237	0xbd19050e	-0.037358336
238	0x3d618303	0.055056583
239	0x3ad93e1c	0.0016574296
240	0xbbf23458	-0.007391494
241	0x3cfe9436	0.031076532
242	0x3c9d8624	0.019229002
243	0xbbfb14c8	-0.0076623894
244	0xbce88708	-0.0283847
245	0x3b48363e	0.003054991
246	0x3d3cb058	0.046066612
247	0x3cb54bde	0.022130903
248	0xb967ce0f	-0.0002210664
249	0x3c5b6a14	0.01339199
250	0x3c57ebcc	0.013178777
251	0x3d0830be	0.03324961
252	0x3caa0559	0.020754503
253	0x3cca6b90	0.024709493
254	0xbc06b1fe	-0.008221148
255	0xbc7527b6	-0.014963081

bias f4 [6]
0	0x3c255e8a	0.010093341
1	0xbcb66616	-0.022265475
2	0xbc21acbb	-0.009867842
3	0x3c888a5c	0.016667537
4	0x391d7c06	0.00015018889
5	0x3d01939b	0.03163491

weight f4 [1, 3136]
0	0x3c1b0b8f	0.009463205
1	0xbb650f54	-0.0034951763
2	0xbc1eec60	-0.009699911
3	0xbc133828	-0.008985557
4	0xbad02ae4	-0.0015881923
5	0xbb34f814	-0.0027613686
6	0xbbfebac0	-0.007773727
7	0xbaef4400	-0.0018254519
8	0x3b25c2e0	0.0025293157
9	0xbb4d2f8d	-0.003130886
10	0x3c0ab950	0.0084670335
11	0x3a3d9e04	0.0007233324
12	0x3a191958	0.00058402633
13	0xbb5f48f2	-0.0034070578
14	0x3b904584	0.004402818
15	0x3b92bc6a	0.004478027
16	0x3a61e2f5	0.0008616888
17	0x3a1517e5	0.00056874595
18	0x3b93cb40	0.0045103133
19	0xbb49dfda	-0.0030803592
20	0x3bcf51d9	0.0063268957
21	0xba6823cd	-0.00088554324
22	0x3a687190	0.000886702
23	0x3b075ffc	0.0020656576
24	0xbb9a9f03	-0.0047186627
25	0xbb3fd3a6	-0.002927044
26	0xbb76c38a	-0.0037653171
27	0x3b8ebd47	0.0043560597
28	0x39a99c9b	0.00032350872
29	0xbb699ca4	-0.0035646344
30	0xbb6e51b0	-0.0036364608
31	0xbb921657	-0.0044582295
32	0x3a673685	0.0008820075
33	0x39f045c6	0.00045828352
34	0x3b96d015	0.004602442
35	0x3a1faed1	0.00060914183
36	0xba004136	-0.00048925297
37	0x3b5a4013	0.0033302351
38	0x3c15ff2b	0.009155075
39	0xbb55f986	-0.0032649948
40	0xba9d2d02	-0.0011991563
41	0x3b1fc252	0.0024377299
42	0x3ae6720e	0.0017581598
43	0x3b9dca50	0.0048153773
44	0x3a3e604d	0.0007262275
45	0x3acda802	0.0015690329
46	0x3b8c67df	0.0042848433
47	0x3bb5ac75	0.00554424
48	0x3a7ab23b	0.00095633016
49	0xbb971404	-0.0046105403
50	0xb9d953a4	-0.00041451782
51	0x3acc9297	0.0015607652
52	0x3aba2467	0.0014201523
53	0xba2af803	-0.0006521942
54	0x3acbc2b3	0.0015545696
55	0xbb86f767	-0.004118848
56	0x3bb05eae	0.0053823804
57	0xbb83644f	-0.0040097605
58	0x3aee13bd	0.0018163841
59	0x3c120223	0.008911642
60	0xb9f32d79	-0.00046382452
61	0x3994db05	0.00028391942
62	0x3c04c81f	0.008104353
63	0x3b086385	0.0020811271
64	0x3b0898c1	0.0020843002
65	0xbb521864	-0.0032057995
66	0x39d4a8a5	0.0004056144
67	0x3b020dd4	0.0019844668
68	0xbabc52e1	-0.0014367962
69	0x3aefc09d	0.0018291656
70	0xb9116812	-0.00013867047
71	0x3a99cde1	0.001173433
72	0xbb254d39	-0.002522303
73	0xbb513296	-0.003192102
74	0xbbb4a011	-0.0055122455
75	0xb9e8cb38	-0.00044401898
76	0x3b34c1a5	0.0027581241
77	0x3bb3894f	0.005479015
78	0x3b4da839	0.0031380786
79	0x3b330e03	0.0027321584
80	0x3b36d807	0.0027899758
81	0x3b8437b7	0.004034962
82	0xbb09dc0c	-0.00210357
83	0x3abf5180	0.0014596432
84	0x3b5fe997	0.003416633
85	0xba9e90b1	-0.0012097565
86	0xbb99f1ac	-0.004697999
87	0xbb643ffd	-0.003482818
88	0xbb9538f1	-0.004553907
89	0x39f0874d	0.00045877174
90	0xba6e455c	-0.0009089315
91	0xba450ef4	-0.0007517182
92	0xbb25e2b8	-0.0025312137
93	0xba6f267c	-0.0009122861
94	0xb9e3a3c8	-0.0004341884
95	0x39b5ce30	0.00034676632
96	0xba42281a	-0.00074064883
97	0x3a635780	0.00086724013
98	0x3ace8d0b	0.0015758587
99	0x3bace66a	0.005276491
100	0x3c9edca3	0.019392317
101	0x3c289b24	0.010290895
102	0x3c7e13c1	0.015507639
103	0x3c262691	0.010141031
104	0x3bad74ea	0.0052934783
105	0x3b466d05	0.0030277383
106	0xbbbaa620	-0.005696073
107	0x3b19d3f2	0.0023472277
108	0x3b74538f	0.003728125
109	0x3bb2e48c	0.005459374
110	0x399102d4	0.00027658662
111	0x37dd7164	2.6398055e-05
112	0xbb459f43	-0.0030154742
113	0x3b2c3cf6	0.0026281453
114	0x3b9f6e12	0.0048654163
115	0x3b3ee725	0.0029129472
116	0xbb5935f0	-0.0033143722
117	0xba449c3a	-0.0007500086
118	0xbb426be1	-0.0029666352
119	0x3b755f16	0.003744071
120	0x3a653cb7	0.0008744704
121	0xbb33fe9f	-0.0027464998
122	0x3af5650f	0.0018722134
123	0x3b710865	0.0036778685
124	0xb9dc8c8d	-0.00042066388
125	0xbae6c265	-0.0017605542
126	0xb9fea25b	-0.0004856762
127	0x3ac38e27	0.0014919684
128	0x3b105519	0.0022023378
129	0xbb14c431	-0.0022699947
130	0xbaf5464a	-0.0018712964
131	0x3ae625bc	0.0017558853
132	0x3a95d6ba	0.0011431791
133	0x3ba5c1f8	0.0050585233
134	0x3b9b7931	0.0047446718
135	0x3ad9ce77	0.0016617317
136	0x39b3a9e6	0.00034268125
137	0xbab6ceb2	-0.0013947098
138	0xb9d849c3	-0.00041253687
139	0xbaa18ebb	-0.0012325862
140	0x3ad5380e	0.0016267316
141	0x3c08dbe1	0.0083532045
142	0x3afdcdc8	0.0019363696
143	0x3a339841	0.00068509957
144	0x3b47be67	0.003047848
145	0x3b11e4d1	0.002226163
146	0xbab56a3a	-0.0013840862
147	0xbc108a4f	-0.008822038
148	0xbb2bbfe1	-0.0026206898
149	0x3937ad86	0.00017516883
150	0xb8395c66	-4.419349e-05
151	0x3a1ec48c	0.00060565094
152	0x3af15029	0.001841073
153	0x3a7a0c40	0.00095385686
154	0xba23c4d1	-0.00062472845
155	0x3b5fdf97	0.003416037
156	0xba57d1a5	-0.00082328386
157	0xbb9a6561	-0.0047117923
158	0xbc0c46a6	-0.008561766
159	0xbb86798f	-0.0041038464
160	0xba86514d	-0.0010247618
161	0xbb855104	-0.0040684957
162	0xbb9dabe3	-0.0048117503
163	0x3b1307f2	0.0022435156
164	0xba68ff7e	-0.0008888169
165	0x3acb38ae	0.0015504563
166	0xbb8d87e2	-0.004319177
167	0xbabc9b07	-0.0014389463
168	0xb98faadc	-0.00027402386
169	0xbb804b47	-0.0039152238
170	0x3a98a023	0.0011644404
171	0xba942472	-0.0011302365
172	0xbb682d6c	-0.0035427464
173	0xbba4e385	-0.0050320053
174	0x3a723e40	0.00092408434
175	0xbb13aee0	-0.0022534654
176	0xba3b0d02	-0.0007135422
177	0x3b1c566d	0.0023855225
178	0x3a63a18d	0.0008683436
179	0x3b67cee9	0.003537113
180	0x3b0293a6	0.001992443
181	0x3aa35fe3	0.001246449
182	0xb959fa9a	-0.00020788089
183	0x3b40163c	0.0029310128
184	0xbafb768c	-0.001918511
185	0xbb055dd6	-0.002035012
186	0x39ff215e	0.0004866225
187	0xbb067867	-0.0020518543
188	0x3a257c49	0.00063127704
189	0xbb464ffb	-0.0030260074
190	0xbb2119d5	-0.0024582047
191	0xbbccba3a	-0.006247786
192	0xbb4f9cdc	-0.0031679189
193	0x3aa992b7	0.0012937401
194	0xbae31eb3	-0.0017327875
195	0xbaf51c82	-0.0018700513
196	0xbbf5d9e8	-0.007502783
197	0xbbe9aab7	-0.0071309465
198	0xbbd9b26a	-0.006643583
199	0x3a1af2f0	0.00059108343
200	0xbc356ff7	-0.011074058
201	0xbc04abbf	-0.008097588
202	0xbba49af5	-0.005023355
203	0x3baa68eb	0.0052004955
204	0xbaed5ae9	-0.0018108758
205	0x3be330d8	0.006933313
206	0xbb0f5612	-0.002187137
207	0xbbed204c	-0.007236516
208	0xbc745094	-0.014911789
209	0x3b2bf268	0.0026237015
210	0xb9a84614	-0.0003209567
211	0x3aeb9970	0.0017974805
212	0xba8851bc	-0.0010400335
213	0x3bb49259	0.00551061
214	0x3a777a49	0.0009440524
215	0xbb5a8bf2	-0.0033347574
216	0x3a86eb84	0.0010293578
217	0x3ae64d8c	0.0017570718
218	0x3a70bfcc	0.00091838534
219	0x3b7b48af	0.0038342883
220	0x39ceb78c	0.00039428135
221	0xba3ae520	-0.0007129479
222	0xb9f24a8c	-0.0004621338
223	0x3b196a6f	0.0023409387
224	0xbb4effd2	-0.0031585586
225	0x3aeb64c0	0.0017959103
226	0xbac8df9f	-0.0015325433
227	0xbb3d5dc8	-0.002889501
228	0xb990356c	-0.00027505623
229	0x3aecf187	0.0018077352
230	0x3b376d74	0.0027988823
231	0x3a1e76d9	0.00060449314
232	0xbb360431	-0.0027773494
233	0x3b44afa0	0.0030011907
234	0xba8b461f	-0.0010625756
235	0xbb7bd902	-0.0038428907
236	0x3b18a748	0.0023293067
237	0x3a4226fb	0.0007406321
238	0xbaa2757f	-0.0012394636
239	0xb9bd2274	-0.0003607456
240	0xba6ae9a4	-0.0008961207
241	0xbaf2aaff	-0.0018514096
242	0x39ecaf7b	0.0004514417
243	0x3a302be4	0.00067204074
244	0x39891884	0.00026148942
245	0xbbbb4cf4	-0.0057159606
246	0xbc3f0b10	-0.011660352
247	0x3b4395ea	0.0029843994
248	0xbbf3ae24	-0.0074365307
249	0xbbc94406	-0.006142142
250	0xbc608791	-0.013704197
251	0xbba05e3a	-0.004894045
252	0xbb6d39b4	-0.0036197724
253	0x3c361eee	0.011115773
254	0x3a04de48	0.0005068523
255	0xba084c71	-0.0005199379
