PPO-GAE/Pacman/FINAL.MsPacmanNoFrameskip-v4.MODEL (torch_old, 455508 bytes, 9 tensors)

weight f4 [32, 4, 8, 8]
00000000: c64a 153c b73f 0b3d 7c31 01bd a0df 073d
00000010: 04cc e23b 05db 87bd dd78 913c 33f1 34bd
00000020: 4e95 dbbc 128e 81bd e93d 0b3b 9234 513d
00000030: fa2f 84bd 52df 303c bc32 523c b1f8 9abb
00000040: 5171 3a39 83e7 26bd 0cb6 a0bd 2498 aabc
00000050: 8f19 bebc 9f35 6f3d 61b1 283d 9933 0cbd
00000060: d283 92bb 0b49 53bd 4607 61bd e9d3 0f3c
00000070: 3d0f f53c 48f1 b03c 926b f6bb e851 2bbd
00000080: d0b4 16bc e027 8c3b feed 363b 7ed1 89bc
00000090: e129 84bb e587 2abd fb94 9dbb 4c5f 5fbc
000000a0: 93a7 22bd 3c89 52bd 8e1d 253d c8ba 3739
000000b0: 2dcc 41bd 9760 5b3c c166 753d 7e8c aa3c
000000c0: fed9 3bbd cdc0 a3bd 1241 0bbd 9aee 53bd
000000d0: 3c26 39bd 9a69 7dbd dcdc 72bd 663e 773c
000000e0: 8681 69bd 3713 63bd 5093 cfbc addc 7dbd
000000f0: fad5 363d 6f1f 093d f7a3 09bd dc7a 36bd
00000100: b5ac 05bd 88e2 ef3a 41af 1e3d bdc1 cdbc
00000110: 7e8f 003c d37a 4ebd 0f22 a1bc 3c56 f9bc
00000120: cc35 c1bc cf45 41bd c969 90bc 071a 863c
00000130: 5e25 173d 2018 4cbd 5817 1ebc d970 4e3d
00000140: f850 73bd 2513 88bd 216a 643a 17e9 73bd
00000150: 8128 04bd 55ac 49bd 3b88 84bc 33ad 1ebb
00000160: bc19 0a3c c37a c73b 2399 8d3c 3637 1ebd
00000170: 468e 0e3d fc0a 23bd d978 263b 8963 2cbd
00000180: 9a60 21bd c855 4abc d617 093c bd86 573b
00000190: 600f f3bc 1989 91bb a846 b8bc 685c 283d
000001a0: c368 403d 3de5 5d3d d290 eebb 5c81 2dbd
000001b0: 8167 4fbc 93cc 6b3d ff44 f23c 37ad 22bc
000001c0: 05e3 90bb 82d1 d03c 5d0b aebc 85af 26bb
000001d0: bfa6 453d 11e6 7fbd 2e93 273c 5c76 563d
000001e0: c5ad 843d 7259 d43c 7aa1 123d ebb9 38bd
000001f0: 8184 df3c 9e7a d23c 9cc6 163d 2f29 473d
00000200: 9e9b 7abc b23a d03c d1ee 90bc 6e77 c93c
00000210: 7dcc 6fbd 2f10 093d ca92 bdbc 30dc 4d3d
00000220: b5bf 50bd 5557 aabc c018 3dbb aba2 073d
00000230: d608 6c3c b6f1 253d 2849 54bd 13ea 89bd
00000240: 32be e9bc db2a 233d ad0a 7fbc f750 d3bb
00000250: 06a2 f13c 3064 323d 365f 9b3c dbe1 4e3d
00000260: 04f8 aa3b 1d40 77bd 7212 96bd 1303 69bd
00000270: 51b3 093d 306a 17bd f579 8ebd 9b0a 273d
00000280: 3c92 0a3d 1198 91bd 1861 0c3d f9db 61bd
00000290: 288d 25bd e1da 6cbd 22d9 293d 3017 0bbc
000002a0: 3dd1 1a3d fca7 40bc 376e 693d 7a0f 243d
000002b0: 05fb 79bd 3452 103d edc6 863d da27 423d
000002c0: 06b7 1a3d 7e7b e73c 383c 4cbd 2872 2d3d
000002d0: a5eb 34bc 9c3e e4bb 993c e0ba c62c d1bc
000002e0: bf02 1f3d 9dd6 653d 67df c8bc c04c 443d
000002f0: 3244 30bd 0d87 8bbc ba7b 873d 72f5 0fbd
00000300: 77c7 193d b8c4 cfbc 930f e83c 3910 4ebd
00000310: 85db 0bbd a8e1 073d cf8c 7e3c 7e42 acbc
00000320: 8aa6 01bd f686 1abc 710b 053d 5eb3 5fbd
00000330: 2e9b 61bb f170 31bd 68f1 bdbc 9710 48bd
00000340: fe67 68bd 2ce4 febc da7d 183d 214a 1dbd
00000350: c06f 32bd 5681 613d 886c 123d d9d9 81bd
00000360: 23bd 9c3a 483f bd3b e3fe 0b3d 89a6 cf3c
00000370: 05cc f03b 0ec5 c73c a2e4 10bd af7e 39bd
00000380: 5270 2f3d f251 18bd 7efa 503c 08a6 01bc
00000390: d41d 4b3c 0da1 5dbc efb4 36bd 3a94 803c
000003a0: dd16 47bc 8e12 73bc 0dfb 1abd c10b 903a
000003b0: 0ee9 163b 4725 2f3d d080 a4bc f348 6d3d
000003c0: ed81 96bc e710 ca3c b286 48bc 425a fbbc
000003d0: d3a4 9b3c d383 8cbc 2953 6abc fef3 8cbb
000003e0: 1475 dfbb 3553 4f3d 04b7 203b a794 713d
000003f0: 6b23 40bd 9fda 6b3d db2c 5dbd 6147 43bd
0.009112066 0.03399631 -0.031541333 0.03317225 0.006921293 -0.066335715 0.017757827 -0.044175338
-0.026804592 -0.06325926 0.0021246618 0.051075526 -0.06454463 0.010795431 0.012829479 -0.0047293534
0.00017780556 -0.04074813 -0.07847223 -0.0208245 -0.023205547 0.058400746 0.041184787 -0.034228895
-0.0044712806 -0.05158333 -0.054938577 0.008778551 0.029914493 0.021599427 -0.0075201476 -0.04182616
-0.0091983825 0.0042772144 0.002791285 -0.016823526 -0.0040333127 -0.041633505 -0.0048090196 -0.01363356
-0.039710592 -0.05140041 0.04031139 0.00017521821 -0.047313858 0.013389728 0.059912447 0.020818945
-0.04586219 -0.07995758 -0.033997603 -0.05174122 -0.04520248 -0.061868288 -0.05929266 0.015090561
-0.05700829 -0.055438247 -0.025338799 -0.06197803 0.044637658 0.033477243 -0.033603635 -0.04455076
-0.03263541 0.0018301765 0.038741354 -0.025116796 0.007846711 -0.050410103 -0.01966956 -0.030436628
-0.023585223 -0.047185715 -0.017628567 0.016369833 0.03690087 -0.049827695 -0.00964912 0.05040059
-0.05940339 -0.066442765 0.0008713324 -0.059548464 -0.03226519 -0.049236614 -0.016178241 -0.0024212121
0.008428987 0.0060876324 0.017284935 -0.038626872 0.03480365 -0.039805397 0.002540162 -0.04208711
-0.039398767 -0.012349553 0.008367499 0.0032886707 -0.029670417 -0.004441392 -0.022494629 0.04110375
0.04697491 0.054173697 -0.0072804475 -0.042359695 -0.012658955 0.057568144 0.029573916 -0.009928993
-0.004421594 0.025490526 -0.021245653 -0.0025434208 0.048254725 -0.062475268 0.0102279615 0.05235897
0.064784564 0.025921557 0.035798527 -0.04509918 0.027284862 0.025693234 0.036810502 0.04862326
-0.015295891 0.025418613 -0.017692002 0.024593081 -0.058544625 0.0334627 -0.023141284 0.050258815
-0.050964076 -0.020793596 -0.0028853863 0.033114117 0.0144064035 0.040513717 -0.05182758 -0.06734099
-0.028533075 0.039835792 -0.01556651 -0.0064488607 0.029496204 0.043552577 0.018966299 0.05050836
0.005217554 -0.060363878 -0.07327737 -0.056887697 0.033618275 -0.036966503 -0.06956855 0.0407816
0.033830866 -0.071090825 0.034272283 -0.055141423 -0.04041782 -0.057825927 0.04146684 -0.008489415
0.0377972 -0.011758801 0.056989875 0.040053822 -0.061030407 0.035234645 0.06580911 0.047401287
0.0377722 0.028257128 -0.049862117 0.042345196 -0.01104251 -0.0069654714 -0.0017107903 -0.025534045
0.03882098 0.056112874 -0.024520589 0.047924757 -0.043033786 -0.01703217 0.06615396 -0.035146184
0.03754374 -0.025362357 0.028327739 -0.05030844 -0.034144897 0.033174187 0.015536501 -0.0210278
-0.031652965 -0.009431591 0.032481615 -0.054614417 -0.003442477 -0.0433206 -0.0231864 -0.048843946
-0.0567398 -0.03111466 0.037229396 -0.038400773 -0.043563604 0.055054985 0.035748035 -0.06340379
0.0011958223 0.005775366 0.034178626 0.025347965 0.00734854 0.024385955 -0.03537429 -0.04528683
0.042831726 -0.037187524 0.0127550345 -0.00791312 0.012397248 -0.013527167 -0.044606145 0.01569568
-0.012151447 -0.014835967 -0.037837077 0.0010989831 0.0023027095 0.04276016 -0.020080954 0.057930898
-0.0183725 0.024666263 -0.012239145 -0.030682687 0.018999493 -0.017152702 -0.0143020535 -0.004301547
-0.0068193767 0.05061646 0.0024523148 0.058979657 -0.046908777 0.05758154 -0.053997856 -0.047675494

bias f4 [32]
00000000: f0bb 05bd 2013 b6bc 6654 1e3d 1972 c8bc
00000010: d294 7cbd 4bca cf39 e579 6c3c d647 0e3d
00000020: 6acf fcbb 9db8 063d 8a09 e03c 147c 1ebd
00000030: 381b f4bb b7db b23a 2fd5 29bd 7506 41bd
00000040: 1df4 d83b 2c0d ab3c 1288 20bd 3751 323d
00000050: a7d7 833d 2d1e 5abc c9d3 273d e9c9 5c3d
00000060: 219f 06bd a67e 2e3d 6f07 10ba 8adb cc3c
00000070: 927b b33c 84ad 8c3b 7b16 4e3c 143d f9bc
-0.032649934 -0.022225916 0.038654707 -0.024468469 -0.061665364 0.00039632837 0.014433359 0.034736477
-0.0077151554 0.032890905 0.027348299 -0.03869255 -0.007449534 0.0013645802 -0.041463073 -0.0471253
0.0066208974 0.020880304 -0.039192267 0.043534484 0.06437617 -0.0133128585 0.04097346 0.053903494
-0.0328666 0.04260125 -0.0005494272 0.025007028 0.021909509 0.0042931456 0.012578602 -0.030424632

weight f4 [64, 32, 4, 4]
00000000: 592a 2a3d 339d 43bd df47 a63c 8e68 713c
00000010: 8f51 66bd 1ab6 2bbd 31e3 ebbc 303e febc
00000020: 655e 72bc 52ae 453c 52f6 8c3c 1a5c 66bd
00000030: 8f8c 1ebc ff38 c43c 8499 c2b9 4fae b5bc
00000040: 656d 77ba 815a 94bc 8a42 aa3a c7a9 793c
00000050: 881d a1ba 7039 8e3c 9ce4 023c 9736 223c
00000060: abcd a73c 302a 053d f1e9 083d 849e 4fbd
00000070: e4bf bdb8 88f5 123c f868 fd3c 9ffb dc3b
00000080: 66b6 2f3d 2bd4 0b3d e4e5 60bd 4a95 0cbd
00000090: a9af cb3c e558 54bd c5e3 58bc b3d7 1abd
000000a0: 68be be3c 6992 1dbd 4b9f b0bc c8c9 edbc
000000b0: 8261 72bc 570c 29bd d88f 573c 02a9 4cbd
000000c0: 81b5 a4ba 3f96 9bbb 4653 b73b e624 3a3d
000000d0: 48f4 d8bc a968 dabb 33b6 1639 2057 9a3c
000000e0: 909b fabc a018 49bd d81c 7dbc 94a2 6f3c
000000f0: cac1 0c3d 66ea 0abd 8605 c93b 236c 013d
00000100: 53b7 10bd 5b0b 88bb 5719 06bd 5c67 77bb
00000110: 0e55 453c 9dd7 863b 7e7f 47bd 8029 1d3d
00000120: 920b 42bb 5212 163b 6da8 553c 0f65 2fbc
00000130: 0653 753c 1c19 093d 9c8a 7abc edbc c4bb
00000140: 36dc c5bc 3d80 373c d245 25bc 9915 01bd
00000150: f076 67bc 1ff8 75bd 2029 f8bc 1395 a03c
00000160: 2402 17bd 82c9 a23b 8b0c 30bb dd75 4fbd
00000170: ae22 6c3b 693d c9bc 4a56 94bc 433d 153d
00000180: 8068 363c 1614 7b3c f446 d0bc 8b0e 68bd
00000190: 7426 2ebd 6d29 24bd b326 423c a98f 96bb
000001a0: 080c 7dbd 735c 5c3d 8b6e e73b 0237 debc
000001b0: d249 14bd 0590 bf3a 4f29 7cbc 74bc 1f3d
000001c0: a82f 1e3c 2c49 1abd bc43 f7bb 9fec 963b
000001d0: ee82 fd3c d1e3 1bbd 6dc9 aebc c27f 423c
000001e0: 8d78 dfbc 92e8 c43b c4f4 5fbd 3ba5 dfbc
000001f0: abe1 8ebc f269 bcbc 1f69 633b fae2 e4bc
00000200: 54d9 fcbc 4eb4 c13c 25d1 56bd 65b6 5fbd
00000210: 30bc a93c a648 e0bc a304 ce3c f4f9 6fbc
00000220: 5c11 75bc ab9c 7e3c 06e2 21bc dd02 9b3c
00000230: b75f f43a 24e4 42bc cc57 e33c 4a6f 20bc
00000240: f152 05bc 5d71 72bd cb31 dfbc 4774 09bd
00000250: 0086 e1bc 5601 1abc 10e5 dbbc 2322 ec3c
00000260: cf7d 2ebd 2adb 8dbc b9e2 1dbc 9de9 84bc
00000270: 3b9d f3bc bc31 d93c f9ff 193d 7d07 b2bc
00000280: 56ae 5a3b 3e94 c03c 09e6 babc 6a16 79bc
00000290: 2766 a23c ea90 913c 7fa7 9c3c 1a45 e239
000002a0: 7d6b 8bbc 07f8 e0bb c006 463c 0fa7 13bd
000002b0: a3d2 003d f32a ea3c a6a9 363d 7c67 f5bc
000002c0: 2beb 39bd 13db ed3c a0be c7bc 0161 363c
000002d0: 4230 7fbd 0e76 18bc 5f2b cabb 7499 afbc
000002e0: 80b1 14bd 067d cc3c f0a6 42bd 6ee9 5cbc
000002f0: 6078 5e3d 685e c23c a173 c8bc 7bca 1cbd
00000300: c281 0fbd 8e81 3ebd 99bf 893b 4381 403c
00000310: 553e c6bc b167 603d b3e1 febc 33f1 89bd
00000320: 1069 3d3d 3b87 433d 6763 3abd db4c 60bd
00000330: 9280 9a3c 7c9b c33c 46cf 033c 3d5b d6bc
00000340: d90a 903b 4bef 023a dbde a4bc 885e 94bc
00000350: 1803 96bd 0e65 823c 90bd 293c 6902 bf3c
00000360: dc25 fd39 f154 b23c 755a 06bd c09e 203d
00000370: 822d 1ebd 905b 0dbd fe95 723d 5fc5 bd3c
00000380: b571 0fbd b955 2fbc 11ba 043c 6867 6a3c
00000390: c3a7 ecbc 2724 ca3c 1ed4 9d3c 2293 eb3c
000003a0: 15cd eb3c 783d 4d3b 4c59 1c3d a144 82bd
000003b0: c53c 12bd 20ae df3c b70c 85bd f84a e93c
000003c0: 9931 203d 8b09 9c3c cb44 c8bc 3111 29bd
000003d0: 0155 573c 7de3 413c 3c3c 14bc 0b2a 74bc
000003e0: 7800 b33b 7d5e f73b 7853 c93c 5879 0abd
000003f0: 502f 253d cfe7 303d 7d5b f5bc 001d e0bc
0.041544292 -0.04775734 0.020297943 0.0147344 -0.056230124 -0.041921712 -0.028794857 -0.031035513
-0.014793013 0.012065487 0.017207298 -0.05624018 -0.0096770665 0.02395296 -0.00037116942 -0.022177843
-0.00094386033 -0.018109562 0.0012989801 0.015238232 -0.0012292126 0.017361373 0.007989075 0.009900711
0.020483812 0.032510936 0.03342623 -0.05068828 -9.047965e-05 0.008969672 0.030933842 0.0067438628
0.042898558 0.034137886 -0.05490674 -0.03432206 0.024864035 -0.05184259 -0.013237898 -0.037803363
0.023284152 -0.038469706 -0.021560332 -0.02902688 -0.0147937555 -0.041271534 0.013156854 -0.049965866
-0.0012566299 -0.0047481353 0.0055946438 0.045445345 -0.02648367 -0.0066653085 0.00014372989 0.018840373
-0.030591756 -0.04909575 -0.015448771 0.014626164 0.0343645 -0.033914946 0.0061346916 0.031597268
-0.03533108 -0.0041517443 -0.03273901 -0.0037750816 0.012044204 0.0041150586 -0.04870557 0.038369656
-0.0029608947 0.0022899103 0.013040644 -0.010705247 0.014973408 0.03347121 -0.015291836 -0.006003967
-0.024152856 0.011200008 -0.010087447 -0.031514738 -0.014127478 -0.06005108 -0.030293047 0.019602334
-0.036867276 0.0049678693 -0.0026862945 -0.050649513 0.0036031413 -0.024565415 -0.018107552 0.036435377
0.011133313 0.015324613 -0.025424458 -0.056654494 -0.04251714 -0.04007857 0.011850047 -0.0045947623
-0.061779052 0.053799104 0.0070627383 -0.02712584 -0.036203213 0.0014615065 -0.015390708 0.038998082
0.009654917 -0.03766744 -0.0075459164 0.004605844 0.030946221 -0.03805906 -0.021336282 0.01187128
-0.027279163 0.00600917 -0.054676786 -0.027300468 -0.017441591 -0.022999737 0.0034700108 -0.027940262
-0.030865349 0.023645546 -0.05244555 -0.054617304 0.020719618 -0.027378391 0.025148695 -0.014646996
-0.014957752 0.015540282 -0.009880548 0.018922264 0.0018644248 -0.011895213 0.027751826 -0.009792158
-0.008137451 -0.059190143 -0.027245423 -0.033558156 -0.027529716 -0.009399733 -0.026842624 0.028824871
-0.04260045 -0.01731642 -0.009636574 -0.016224677 -0.02973806 0.026512973 0.03759763 -0.021732086
0.0033368072 0.023508187 -0.022814767 -0.015203098 0.0198241 0.017769296 0.019122837 0.00043157564
-0.017019028 -0.0068655047 0.01208657 -0.03604799 0.03145088 0.028584933 0.044595383 -0.029956572
-0.04539029 0.029035127 -0.02438289 0.011131526 -0.06230188 -0.00930549 -0.006169721 -0.021435477
-0.03630209 0.02496196 -0.047522485 -0.013483388 0.054314017 0.023726657 -0.024469199 -0.038279038
-0.035035856 -0.04651027 0.0042037484 0.011749568 -0.024199644 0.054786388 -0.031113481 -0.06735458
0.046242774 0.047736388 -0.045504954 -0.054760795 0.018860135 0.023877852 0.008045023 -0.026166553
0.0043958244 0.0004994764 -0.020125797 -0.018111482 -0.07324809 0.015917327 0.010360137 0.023316579
0.00048284128 0.021769019 -0.03280111 0.039213896 -0.03861762 -0.03451115 0.059225075 0.023165403
-0.03502055 -0.01070159 0.008101002 0.0143068805 -0.028888589 0.024675442 0.019266184 0.028756682
0.028784314 0.0031317156 0.038171098 -0.06360746 -0.035702486 0.027304709 -0.06496566 0.02847813
0.0391098 0.01904752 -0.024446866 -0.04127616 0.013142825 0.011834023 -0.009047564 -0.014902602
0.0054627024 0.0075491057 0.024575934 -0.03380713 0.040328324 0.04318982 -0.029950852 -0.027357578

bias f4 [64]
00000000: b41b 4c3d 3525 183c 7f01 3ebd e04c f4bc
00000010: 890f 273c bfae c03c 95a1 1bbc 260a 12bd
00000020: f7f3 ffbb 6aa4 5f3d 445f 02bd 7d90 46bd
00000030: cb41 07bc 83f0 013b 2c0e f5bc b757 573b
00000040: 395f a6bc 5e4b 953c 0245 3a3d 55f7 653d
00000050: 03ff 1dbc 439a d9bc bbe1 8cbb 0469 98bc
00000060: ab96 b83c d4f1 243d 5c34 faba 614a ad3c
00000070: 2114 20bc d5c2 3a3d 43aa febc 342d 89bc
00000080: 95ef 1b3d 5fea 2fbd f8bc ac3c 1e87 0e3d
00000090: 5eea bb3c 9160 223d 0026 d5bc 095d 00bd
000000a0: c239 8c3c d59d 063d bf10 1b3c d97d c33c
000000b0: 204c 923c e050 7c3c a66a d73c e54e 1c3d
000000c0: e8f5 1c3d 225e fa3c 0079 b43c 7080 97bc
000000d0: 16ac c0bc d91a 453c 0630 ed3c bd3e d7bc
000000e0: d6f8 3f3d 2c91 a83b 75a4 993b 290a 7cbc
000000f0: 1815 1fbd 9389 d6bb 9b6d 203c 9329 40bd
0.049831107 0.009286215 -0.046388146 -0.029821813 0.010196575 0.023520825 -0.009498973 -0.03565421
-0.0078110653 0.054600157 -0.031829134 -0.04847764 -0.008255432 0.0019827194 -0.029913984 0.0032858679
-0.020309078 0.018224414 0.045475967 0.056144077 -0.009643319 -0.026562816 -0.00429937 -0.018604763
0.022532782 0.040269688 -0.0019089091 0.02115363 -0.009770424 0.045595963 -0.031087046 -0.016745187
0.03807028 -0.042948123 0.021086201 0.034796827 0.022938903 0.039642874 -0.026019096 -0.031338725
0.017117385 0.032865364 0.009464442 0.02386372 0.017858565 0.0154001415 0.026295971 0.038161177
0.038320452 0.030562464 0.022030354 -0.018493861 -0.023519557 0.012030327 0.028953563 -0.026275033
0.046868168 0.005144259 0.0046887943 -0.015383282 -0.038838476 -0.006547162 0.009791757 -0.04691465

weight f4 [64, 64, 3, 3]
00000000: 6bed 8fbc 9f36 fe3c 1fc0 0ebc 1c9b a5bc
00000010: 632a 033c cd9d 36bb 1bc7 573c 9192 dabc
00000020: 0fb5 8cbd da94 3cbd 772d e93c d418 b3ba
00000030: a483 1a3d d859 97bc 4385 e9bc 9bdc 92bc
00000040: 00a3 88bc 70cf 9abc bf96 013b ca85 43bd
00000050: 55c7 0a3d de2e 873c aa07 33bc d707 24bd
00000060: f8a2 1fbc 90bf 733b 2b5d ba3a 759d 503d
00000070: 9564 d1bc 163f babc e402 c03c 7e46 593c
00000080: 7a05 9abc bc06 ea39 49a8 f5bc f700 a3bc
00000090: 5282 e8bb f2af 513d b5c8 dcbc 43e7 2bbc
000000a0: 762a bcbc c11c d0bc 635b 703c 1c28 d2bc
000000b0: 9ebf 8ebc 201c c33b 7eb1 f13c 2ce8 60bc
000000c0: fecc 61bd ab06 7dbd 964b fe3c 8dde 8b3c
000000d0: 04a0 7cbd 8022 2fbc 158e d8bb 4672 97bc
000000e0: 5be6 6dbb 9954 3abd a7c9 503d 2d75 0fbd
000000f0: 4a06 47bc 9929 02bc 740d c53c 2cd3 58bb
00000100: e1f4 71bd 3260 b2bc 1923 94bb 27c1 05bd
00000110: 6d8a bd3c 7d85 16bd 9bd0 0fbd 571c b43c
00000120: 1112 81bd a4fa 33bc c250 a8bc 7bde d4bb
00000130: 1071 5fbd a750 c1bc 1442 103d 7c0e 863d
00000140: 8b00 173d 9ff6 033c 4838 0ebd 7fb7 e8bc
00000150: 819f 10bd 59d8 a6bc 3d20 e13b fea7 cc3b
00000160: 4833 03bd 4c16 f43c f54e 1cbd f234 81bb
00000170: cd36 97bc 3556 9dbc d6f4 523d 7424 4e3c
00000180: 6b48 963c 6fdf e83b 5f8b 9bbc 463e 77bc
00000190: 4e05 033d d102 d83c 6ae7 9a3b f2ed 9fbc
000001a0: d72e fabc 3b0f 9a3c a535 0f3c ba02 ea3c
000001b0: 44c2 01bd 2f22 debc 14ed 553d f247 193d
000001c0: 8635 e5bc 6d03 8ebc 71a2 52bb e9d4 e33c
000001d0: aeaa 883c 5f9f e23c c1fb 0b3c 5046 dcbc
000001e0: e6ce d8bc 6c59 54bc b044 a63c a74e ffbb
000001f0: 11bd 093d 6990 d3ba eace cdbc aeb2 923a
00000200: 21e5 fabc 6d5d 2fbd 7f5e 3abd 15ce e4bb
00000210: d7e2 5a3c c30e ed3c 31dc 52bc 10e3 e2bc
00000220: a4ee d53c 42c1 853c a386 81bc fc97 38bd
00000230: d0a7 d0bc 4186 67bd bebe 11bd 580e e2ba
00000240: 9ea7 24bd 97f0 8abc dc10 39bd a134 3a3c
00000250: 5888 98bc 6d8d 3dbc e495 ecbc c84b 993d
00000260: 413a 4a3d 87c8 4ebd 2192 39bd b847 0a3c
00000270: ec44 cabb 0955 0bbd b300 15bd 1c36 233d
00000280: 6f72 333d 0c8d fabb 0d8b cabc 70b1 13b9
00000290: 48e6 1fbc 651f 413a 1b4d d83c 37e8 17be
000002a0: 3012 86bc a85e 10bd 4d6d 493c 8d64 aabc
000002b0: 388a 71bc c0b3 153d bc0e f83c 777e d13c
000002c0: a59b 063d 4535 8f3c 9cf9 5ebd b773 5538
000002d0: ff0f ab3a ede3 0dbd bd72 3abd 5e28 40bd
000002e0: 0166 4cbc 0ec7 6cbd d741 83bd 276e 2c3d
000002f0: 5c87 513d 029c 053d 4d9d 053d 3e79 1abd
00000300: 6c87 18bd 002a 3f3c 5f74 9b3b 916f 0bbd
00000310: 5fdc 94bd 0af0 4dbd b035 b03b 6109 87bc
00000320: 1703 f5bc 483d e3bc 2d1c 133d 018b debc
00000330: a10a 703c fae7 56bd 132a a23b d6c6 e7bc
00000340: 4e9e 15bc 960f 3dbd 8b97 0bbd c484 bcbb
00000350: 2808 1f3c 66ef 9fbc 689e d2bc 1304 efbc
00000360: 0422 ac3c af1f 7b3c 8aea 1c3c 17fe 0e3d
00000370: 58e0 b93b 8b26 dcbc 42ba 1abb cb26 36bd
00000380: 4a02 f03b a550 e53b 145a febb 13c5 80bc
00000390: 0f46 6e3c 0858 6dbc 145b e73c 72aa fa3c
000003a0: 9653 a0bc 23f6 c1bc 9809 c23b c3db b4bc
000003b0: a584 34bd 12cf c93c 0dac b13c 41ec cebc
000003c0: d100 c2ba f4ba 48bd 3e3e 93bb 36f7 9c3c
000003d0: 7c8d 39bd cfa1 aabc 51ab 63bc 58d9 90bc
000003e0: 7596 50bb 9380 c73c c615 06bb 6bc7 7e3c
000003f0: 7983 6e3c f93c 473c e810 c23b 39c0 d23c
-0.017569264 0.031031905 -0.008712797 -0.020215563 0.008005711 -0.0027865053 0.013170029 -0.026681216
-0.06870472 -0.046040393 0.028464062 -0.0013664016 0.0377232 -0.018475458 -0.028505927 -0.017927459
-0.016679287 -0.018897742 0.001977369 -0.047735013 0.033881504 0.01650184 -0.01092712 -0.04004654
-0.009743445 0.0037193038 0.001421844 0.050931413 -0.025560657 -0.02273516 0.023438878 0.013261436
-0.01880144 0.00044636976 -0.029987471 -0.019897921 -0.0070956135 0.051193185 -0.026951173 -0.010492149
-0.022969466 -0.025404336 0.014670226 -0.025653891 -0.017425355 0.0059542805 0.02950358 -0.013727229
-0.055127136 -0.061773937 0.031041902 0.017073894 -0.06167604 -0.010689378 -0.0066087344 -0.018487107
-0.0036300633 -0.045490835 0.05097356 -0.035023857 -0.0121474955 -0.007944488 0.024054267 -0.0033084853
-0.059071425 -0.021774385 -0.0045207855 -0.032654908 0.023137296 -0.036748398 -0.03511105 0.02198617
-0.06302274 -0.01098505 -0.02054632 -0.0064962483 -0.054551184 -0.023598028 0.035219267 0.065457314
0.036865752 0.0080544045 -0.034721643 -0.02840781 -0.035308365 -0.020366834 0.006870298 0.006245612
-0.032031327 0.029795788 -0.038161237 -0.003943079 -0.018458748 -0.019206146 0.051503025 0.012581933
0.018345078 0.0071067135 -0.018987356 -0.015090531 0.03198748 0.02636853 0.0047272937 -0.01952264
-0.030539913 0.01880609 0.008740817 0.028565753 -0.031679407 -0.02711591 0.05222805 0.037422128
-0.027979624 -0.017335618 -0.003214028 0.027811484 0.016682949 0.027663885 0.0085439095 -0.026888996
-0.026465844 -0.012960773 0.020296425 -0.0077913585 0.033627573 -0.001614106 -0.025123078 0.0011192167
-0.030626835 -0.042813707 -0.045500275 -0.0069825747 0.013359747 0.028937703 -0.012869881 -0.027696162
0.02611477 0.016327504 -0.01581127 -0.04506682 -0.025470644 -0.05652452 -0.035582297 -0.0017246706
-0.040198915 -0.016960425 -0.045182094 0.011365087 -0.018619701 -0.011569363 -0.028880067 0.07485157
0.04937196 -0.050484207 -0.045305375 0.008439951 -0.006172767 -0.034016643 -0.03637762 0.039846525
0.043810304 -0.0076462086 -0.024724508 -0.00014085113 -0.009759493 0.0007367044 0.026403954 -0.14834677
-0.016366094 -0.03524652 0.012294126 -0.0207999 -0.014742427 0.036548376 0.030280463 0.025572998
0.032863278 0.017481456 -0.054437265 5.0890925e-05 0.0013051032 -0.034641195 -0.04551958 -0.046913497
-0.0124754915 -0.05780702 -0.06409042 0.042097237 0.05115448 0.032619484 0.032620717 -0.03771328
-0.037238523 0.011667728 0.004744097 -0.034041945 -0.07268595 -0.050277747 0.005377494 -0.016483964
-0.0299087 -0.027739182 0.035915542 -0.027165892 0.014650972 -0.052467324 0.0049488633 -0.028293055
-0.009131981 -0.046157442 -0.03408007 -0.0057531316 0.009706534 -0.019523334 -0.0257103 -0.029176747
0.021012314 0.015327378 0.009577403 0.034910288 0.005672496 -0.026873847 -0.0023609553 -0.04447059
0.0073244916 0.006998139 -0.007762203 -0.015718972 0.01454307 -0.01448632 0.028241672 0.030598853
-0.019571107 -0.023676937 0.005921554 -0.022077447 -0.044071812 0.024634872 0.021688486 -0.025259139
-0.0014801269 -0.049006417 -0.004493504 0.019160848 -0.045300946 -0.02082911 -0.0138958255 -0.017681763
-0.003182796 0.024353301 -0.0020459755 0.015550475 0.014557713 0.012160533 0.0059224255 0.025726425

bias f4 [64]
00000000: 2f1b aabc 7c22 9e3c 034d 28bc 68e0 72bc
00000010: 3765 ecbb 98c5 1cbd db31 e33c 51b8 063c
00000020: 5579 9dba c321 803d a5f0 c63b 750a a8bc
00000030: 5157 78bc 1bb7 3bbd 413a 3d3d f371 a93c
00000040: 71e7 a33c 70b0 373d 947d 523d 373e 033c
00000050: c46d 12bd 1ec2 583d 700d d03c 9f83 91bc
00000060: 1300 8abc bd65 c73b bc1c aeba 20a3 683c
00000070: c15c 833d a28d 053d 9a79 d83c 6f3b 083c
00000080: fdc3 273b 9f1c 09bd 6a82 9a3d 1e43 61bc
00000090: 9461 633d e921 f93c 588c 883c f2a1 d73b
000000a0: ae50 23bc b7b4 853c e9d1 883c 040a c1bb
000000b0: fae7 b4bb c7f6 1d3d 9b10 bfbb b312 193d
000000c0: d730 813d 24c7 6e3d 99ad cabc 08e3 87ba
000000d0: 5990 f43c c177 583d a118 65bc 232b 1bbd
000000e0: e876 b8bb 66cb a33d 251f 683d c78c c2b9
000000f0: fe2d 873c 13e0 d03b 1095 9fba 46a0 5a3a
-0.020764915 0.019303553 -0.010272267 -0.01482401 -0.007214214 -0.038274378 0.027733734 0.008222655
-0.0012014309 0.062564395 0.0060711675 -0.020512799 -0.015157537 -0.04582892 0.046198133 0.020684218
0.02000782 0.044846 0.051389292 0.008010439 -0.035749212 0.0529195 0.025397032 -0.017762957
-0.016845739 0.006085126 -0.001328371 0.014199048 0.06414176 0.032605775 0.026425172 0.008314951
0.0025598996 -0.03347456 0.07544406 -0.013748912 0.05551298 0.030411677 0.016668484 0.0065805847
-0.009967966 0.016321523 0.016701655 -0.0058910865 -0.005520818 0.038565423 -0.005830837 0.03737135
0.063081436 0.058295384 -0.024740981 -0.0010367343 0.029853987 0.05284858 -0.013982923 -0.037882935
-0.005629409 0.079977795 0.056670327 -0.0003710745 0.016501423 0.006374368 -0.0012175161 0.00083399226

weight f4 [9, 3136]
00000000: 3604 36bc a5e8 403c 72d3 3e3b 1719 333c
00000010: 17b4 813c a14c 08bb db54 8a3b f983 1c3b
00000020: 13e8 253c 2a93 8a3b 441d 9ebc 155a f43a
00000030: 0f39 41bb 6be0 59bc 0482 03bc 04f9 883b
00000040: 1aec 373b 9d93 723c 31b7 e63b 6af8 15bc
00000050: bfd2 693b fa83 ac3c 3215 46bc e22e 523d
00000060: 7640 733c 4662 94bc 68c8 02bc 1be4 56bb
00000070: 000b 273b b613 37ba ae35 22bb 52d2 9cbb
00000080: c3f9 9dbc 690c adba 4108 b4b8 1295 04bd
00000090: e149 1c3c 6646 7bbc 1217 59ba 6cb2 bdbc
000000a0: 2746 013c 8f52 27bc cc3f cbbb 5c24 0bbb
000000b0: bbf7 793b 2d10 6ebc 797e c03b 3b65 9aba
000000c0: 0354 85bc 5ea6 ca3c 627d 643c 53ff 50bb
000000d0: 0588 68bb cc8b ac3c 287b 1c3d 2072 b13c
000000e0: 6638 9bbb f217 b5bb 1bb4 59ba aa04 223d
000000f0: a877 013c 8734 ab3a 7d0a 783c 8624 3bbc
00000100: 3554 eb3c 8deb a0bc c0fc 2b3d e1a4 72bd
00000110: 58d8 03bc 4ff8 8fba 2c2f 64bc ef2c 023b
00000120: 496e 883c 6b50 913c 6a21 d4bb 42ac a43a
00000130: 76cf 363b 2767 033d e5c7 753c be22 923c
00000140: a1d5 0ebc 9abe 1cbd 3f62 d63b 721d 463c
00000150: 7a8e 973c 2968 813c db86 abbc 5bb3 a43c
00000160: 9200 deba df8f 393c 3cf7 a73c 32a3 49bc
00000170: cfc8 e4bb 3237 1e3d e9e8 52bc 6d07 0f3c
00000180: bd71 71bc f96b 8939 b206 913c 9430 3a3c
00000190: 0470 723c 69af 1fbc 846c 91bb 5927 8c3c
000001a0: d7ff 653b 0886 bfbb a5ab a0bb c63d 9abc
000001b0: a831 ac3c df1a 033c 2187 43bc 53a6 423a
000001c0: 74d3 563c 2f66 cc3c 30dd f9bb efb3 c33c
000001d0: 158f 2dbb 608f bfba d485 6d3c a259 e63b
000001e0: f464 ef3b a313 94ba 5b0a 50bc 88c1 913c
000001f0: 757e 41bc c89f 983a b161 bb3a bea3 253c
00000200: 46e5 593c 87d2 87bc fa95 273c f4a0 e7bb
00000210: 9cde 0dbc 0523 87bc 0b2a 963c 530a 3abc
00000220: e18e 0bbc 2407 82bc e7bc e9bb 72f2 f0bb
00000230: 62b6 5c3a f319 163c 9031 dc3a 5724 83bc
00000240: d431 5cbb 9272 f43b 0f1c 5cbb 28d3 6fbb
00000250: ea2c 19bc d392 a8bb 68a9 313c 6a5a 10bc
00000260: 140b b63a 61de a63b 68b0 54ba e4e3 c8ba
00000270: e2cf 623c 9009 69bc 708f 7ebb 1b51 84bb
00000280: f404 383c acee a8bc a6bf 0d3d a942 f53b
00000290: dd95 c03b af86 07bc 1829 a63c edaa 73bc
000002a0: ddfd e7bb f292 4d3c d37b 8cbb ff23 0f3c
000002b0: f555 303c 4cb0 103c 1099 fd3b 1a4f 203c
000002c0: dc31 2b3d edd6 a13c ed48 053b f6f3 243c
000002d0: 83a9 1bbc 7ab4 cf3c bf59 883c d2ca 89bc
000002e0: 8e92 05bc 8307 363c 9f25 b63c dc40 8b3c
000002f0: d2a7 91bc e943 8ebc f1fc dc3a 0a26 4a3c
00000300: 9e94 17bc 3054 8fbc 3ceb 2bbc ead1 273c
00000310: 42c8 4abc 049f 703c 6c3a 2e3a aed7 d63c
00000320: 5d40 bdb7 5f7a f0bc a9ab 9ebb 938d f7bb
00000330: 4d63 123d 0cdb e13c 009d 83bc 91b9 88bc
00000340: 7322 893c d4b7 1f3d 8b7f 933c a256 673c
00000350: e75d df3c 4a75 d1ba ca81 d53c 8339 9cba
00000360: f349 e83b 8b4b d33c b789 763b e63c d93b
00000370: 4e81 dbbc 3718 d13b d4de 86ba 687d 183c
00000380: 2bdf 023d a4df 5b3b dd68 533c 2fc2 1cbc
00000390: 495b 393c c471 fcbc fcda 0f3c b012 7d3c
000003a0: 0fb0 7ebb 9fa0 58bc b893 88bc 822d a03c
000003b0: 8807 86bb d03d 29bc 72e9 053c 0f11 c5bc
000003c0: f159 d23c 607f 4e3d a950 fdbc 8dd0 013c
000003d0: 91b3 5c3c 54a3 e13c b27f 173b e321 f9bb
000003e0: 3721 063c 865e 3c3c 2a38 983c a406 adbc
000003f0: 7afc a53c 8c9b 40bc 2feb 54bc edfb 0c3c
-0.011109402 0.011774217 0.002911773 0.010931275 0.015832944 -0.0020797628 0.0042215413 0.0023882373
0.010126132 0.004228969 -0.019301064 0.0018642569 -0.0029483472 -0.013298134 -0.008026604 0.0041800756
0.0028064311 0.014805702 0.007040881 -0.009153465 0.0035678593 0.021059025 -0.012090014 0.051314242
0.014846912 -0.018113267 -0.007982351 -0.003278977 0.0025488734 -0.0006983833 -0.0024751234 -0.0047858143
-0.019284135 -0.0013202551 -8.584606e-05 -0.032368727 0.0095390985 -0.0153366085 -0.0008281331 -0.023156367
0.007890261 -0.010212555 -0.0062026735 -0.0021231389 0.0038142044 -0.014530224 0.0058744517 -0.0011779437
-0.016275411 0.024737533 0.013945909 -0.0031890466 -0.0035481465 0.021062754 0.03820339 0.021660864
-0.004736948 -0.005526536 -0.0008304731 0.03955523 0.007902063 0.0013061919 0.015139219 -0.011422282
0.028726676 -0.01964357 0.041989088 -0.059239272 -0.008047186 -0.0010984036 -0.013927262 0.0019863208
0.01665415 0.017738542 -0.00647371 0.0012563544 0.0027894652 0.032080796 0.015001272 0.017838832
-0.008717925 -0.03826771 0.0065424736 0.012091981 0.018500555 0.015796738 -0.020938328 0.020105055
-0.0016937426 0.011325805 0.020503633 -0.012306975 -0.006981946 0.038626857 -0.012872913 0.008729798
-0.01473659 0.00026211122 0.017703388 0.011364121 0.014797214 -0.009746411 -0.004437985 0.017108606
0.003509512 -0.005844835 -0.004903274 -0.018828284 0.021019772 0.008002012 -0.011934073 0.0007425297
0.013111938 0.024951069 -0.0076252446 0.02388951 -0.0026482989 -0.0014614873 0.014497239 0.007029728
0.0073057357 -0.0011297356 -0.012697781 0.017792478 -0.011809935 0.0011644298 0.0014296082 0.01010984
0.013299292 -0.01657988 0.010228628 -0.0070687477 -0.008659031 -0.01649619 0.018330595 -0.011355001
-0.008517952 -0.015872546 -0.0071331146 -0.0073531205 0.0008419511 0.00916146 0.0016799439 -0.01600854
-0.0033599036 0.007459947 -0.003358606 -0.0036594365 -0.009349087 -0.005144456 0.010843612 -0.008810619
0.00138888 0.0050924276 -0.0008113445 -0.0015326706 0.013843508 -0.014223471 -0.003884282 -0.004037989
0.01123165 -0.02062162 0.0346066 0.007484753 0.00587724 -0.008271857 0.020283267 -0.014872295
-0.0070798234 0.0125472415 -0.004287222 0.0087366095 0.010762681 0.008831095 0.0077391937 0.009784484
0.041795596 0.019755805 0.0020337657 0.01006793 -0.009500864 0.025354613 0.016644357 -0.016820345
-0.008152617 0.011110189 0.022234736 0.0169987 -0.017780218 -0.017366366 0.001686005 0.012338171
-0.009251742 -0.017496198 -0.010493096 0.0102429185 -0.012376847 0.01468635 0.0006646279 0.026225891
-2.2560527e-05 -0.029355226 -0.004842241 -0.0075547188 0.03573923 0.02757027 -0.016066074 -0.016690047
0.01674006 0.03899367 0.018005153 0.014119776 0.027266456 -0.001598039 0.026062865 -0.0011918995
0.0070888936 0.025792858 0.0037618706 0.006629574 -0.026795056 0.0063810605 -0.0010289797 0.009307243
0.03195111 0.0033550048 0.012903419 -0.009567781 0.011313268 -0.030815966 0.008780237 0.01544635
-0.0038862263 -0.013221889 -0.016672 0.01955295 -0.0040902533 -0.010329679 0.0081733335 -0.024055986
0.025677653 0.050414443 -0.03092225 0.007923258 0.013470546 0.027543701 0.0023116884 -0.0076029166
0.00818663 0.0114971455 0.018581469 -0.02112133 0.020261992 -0.011755835 -0.012995525 0.008604986

bias f4 [9]
00000000: 711f c73a 1f80 8d3c 598b a83c 39c3 4f3c
00000010: 70e8 923b ad63 a2ba a4d3 d03a a2ac cebb
00000020: 6b7c 433c
0.0015191865 0.017273007 0.020574259 0.012680822 0.004483275 -0.0012389325 0.0015932214 -0.0063072005
0.011931519

weight f4 [1, 3136]
00000000: a78e 20bc 76d6 503c 5ebd 6b3b 98ae 233c
00000010: 14a6 6c3c 0e66 5d3c 0ce5 26bc 4ad0 3a3c
00000020: f365 193c d3fa f93b 803a 88bb 7a7a 91bb
00000030: ac2f 61bc 619f 1cba 0fdb 623b 1a3f ee3a
00000040: d938 43bb 1b10 b1bb e311 7ebc 938b 283a
00000050: 2e6f 943c 0525 1f3c 4dab 423c 5923 88bb
00000060: 34a2 5b3c b699 373a 14a7 043c 312b 45bc
00000070: f867 59bb d8df edba 234e 12bc 0014 263c
00000080: feba 013c 52bf 9f3b bd69 ab3c 71a5 cd3b
00000090: 25bf 6e3c 3787 5e3c d6f3 1ebc a849 443c
000000a0: efd3 2a3c 6c88 953a 9aeb c43b c44b 673c
000000b0: b297 caba 38ed 0dbb 7c0e f03b 351a ef3b
000000c0: 2d3c 7cbc 3e84 123c 4346 6abb 5c87 003c
000000d0: 53c7 573b abd2 183c be91 2dbc a6be 9f3c
000000e0: 14e3 793c ca77 ce3a 7ecb 9abc e38f 5b3b
000000f0: 652e 74bb a567 eebb 7d9d 413c e57a 133c
00000100: f669 953b 4683 4b3c 6cef 1e3c 9b51 83bc
00000110: e7cb f0bb d035 02bc 2a31 b8bb 4c25 3ebc
00000120: f40d dc3b f25e 853d 9492 163c 3053 a53c
00000130: 90ac 0c3b bf31 b43c 4e13 823c b423 b43b
00000140: 2bf4 fe3c b231 0e3a e495 c33c b877 673a
00000150: 2a40 c23c 23f7 293c a491 873c 303d 99bb
00000160: 4d5c f83c 5450 a23c 8b78 083a ac68 62bb
00000170: 5e08 3bbb 87c0 363c e3f3 4abc ed84 5dbc
00000180: be8e 993c b554 243c f2e8 d83a fc5d 70bc
00000190: faae 15bb 1935 0fbc a7b7 dcbb 12d6 1cbb
000001a0: a735 a0bb 584d 033c 062d 0bb9 4cad 4e3b
000001b0: 8626 7c3b 0920 0f3c 2f3f 1c3c 48ed 533c
000001c0: 3146 893c 94c7 a83c 2e0a c33c 5d6e a0bb
000001d0: 80b5 17bc b557 4dbc 1e16 933a 1d21 f4ba
000001e0: f444 243b a56d 933b c7f2 51bc 24e4 543c
000001f0: 6bbd be3b d43d 09bb 0cbf 863b a804 23ba
00000200: 1839 873b 7996 81bc 8989 593c 8628 963b
00000210: bc72 fcbb bd75 11bc 1266 0e3b 7dd2 1fbc
00000220: c099 65bc 79c0 41bb 84e9 fd39 b491 cdbb
00000230: 7cd3 d0ba 3a76 a43b 82e1 cc3a fcab 31bc
00000240: 75f4 0dbc a57d 453c 65e9 06bc eb62 43bc
00000250: 4926 773a 34de 64bc d7ec 763c 6379 2cbb
00000260: 56b1 103c d63a af3c d325 8fba f3a8 4c3c
00000270: 34be c2bb 01d3 093c 6132 243b 3257 1e3c
00000280: 8f6d 92bb df0f a33b f939 ca3b 9ea6 21bb
00000290: d183 eb3b 8917 643b a342 dc3c e2cd 9dbb
000002a0: 2024 163b 3248 283c ea82 713b f466 813b
000002b0: ecf2 ab3b 6902 6bbb 3c8e c23a b17c 4d3b
000002c0: d2e9 ffb9 7317 133c 1bc9 623a 8e3d 473a
000002d0: 4985 d839 9e7a 59bb 01be 963c e001 8c3c
000002e0: 2b26 bd3b ca94 3f3c e643 843d a2ff f7bb
000002f0: 26ee 063c afc0 8cbc eb00 ad3b d6b5 683c
00000300: 2599 88bc 0173 68bc 809a 363c fd21 8e3c
00000310: 84c4 283c 3d69 dd3b 6715 313b 7575 3dbc
00000320: 9be8 0838 ada7 c338 23ec 113c 0764 553c
00000330: d4d9 bf3b be0b 243c 2506 0b3b 51b9 c0bb
00000340: 26da 36bb 2c70 bdb9 1a28 803c fa1a d93a
00000350: 4196 343b 8960 dc3a 453b 993b ca55 52bc
00000360: ba9a a5bb 8c8d 42ba 9a8c 033d d28e 193c
00000370: b391 9b39 0a5b 76bb 8741 cbb9 9525 c23b
00000380: 27a4 f93a 3684 a93b 7222 0e3c 0d68 eeba
00000390: a8ae e13a 84ee 9cbb 9906 833b ebec d33c
000003a0: 8209 0f3b 7984 e1bb 0224 6e3b 62d9 073c
000003b0: 1fc0 0bbb e208 ff3b 4520 583c 9337 37bb
000003c0: a99b 893c f6af b63a e57f 863b 4512 c03b
000003d0: 0e9c dc3a 4d37 4d3b fadd ccbc 604c 263c
000003e0: 9400 a43c bb9c 6bbb 3198 72bc b66f 1dbc
000003f0: fc62 613d f08a 553c e02c 43bb b372 12ba
-0.009799636 0.012746444 0.0035971026 0.009990357 0.014443893 0.013513101 -0.010186445 0.011402199
0.0093626855 0.0076287775 -0.0041573644 -0.004439649 -0.013744276 -0.0005974677 0.0034615432 0.0018176765
-0.0029788523 -0.0054035312 -0.015507194 0.00064294896 0.01811942 0.009713416 0.011881662 -0.0041546044
0.013405371 0.0007003801 0.008096475 -0.012034223 -0.0033173542 -0.0018148376 -0.008929762 0.010136604
0.007918118 0.004875102 0.020924443 0.0062758257 0.01457194 0.013582042 -0.00970169 0.011980452
0.0104265055 0.0011408455 0.006009531 0.014117185 -0.0015456586 -0.0021656286 0.0073259454 0.0072968253
-0.015395206 0.008942662 -0.0035747446 0.007844772 0.0032925203 0.009327571 -0.01059383 0.019500088
0.015251894 0.0015752253 -0.01889586 0.0033502511 -0.0037259099 -0.007275539 0.011817333 0.009001468
0.0045597507 0.012421435 0.009700637 -0.016030123 -0.007348526 -0.0079474 -0.005621095 -0.011605572
0.0067155305 0.0651225 0.00919022 0.020181268 0.002146516 0.021996377 0.015878346 0.00549742
0.031122288 0.00054242753 0.023875184 0.000882979 0.023712236 0.010373863 0.016548939 -0.0046764836
0.03031745 0.019813694 0.00052059506 -0.0034547253 -0.0028538923 0.0111543005 -0.012387249 -0.0135204615
0.018744823 0.010029961 0.0016548915 -0.014670845 -0.002283989 -0.008740687 -0.0067357603 -0.0023931307
-0.0048892084 0.008014046 -0.00013272846 0.0031536398 0.003847511 0.008735665 0.0095365485 0.01293499
0.016757103 0.020602979 0.023808565 -0.004895969 -0.009259582 -0.012533118 0.0011221801 -0.0018625591
0.0025065513 0.0044991546 -0.01281423 0.012993846 0.00582092 -0.0020941393 0.00411213 -0.00062186504
0.004126679 -0.015818821 0.01327742 0.0045824675 -0.007704107 -0.008878169 0.002172832 -0.009754774
-0.014013708 -0.0029564186 0.00048429903 -0.0062734727 -0.0015932168 0.0050189765 0.0015631171 -0.010844227
-0.00866424 0.012053882 -0.0082343565 -0.011925439 0.0009428007 -0.013968993 0.015071115 -0.002631747
0.008831343 0.02139036 -0.0010921307 0.0124914525 -0.005943084 0.008412124 0.0025054442 0.009664344
-0.004468627 0.004976257 0.0061714617 -0.0024665962 0.0071873446 0.0034804067 0.026887244 -0.004815803
0.0022909716 0.010271119 0.0036851713 0.0039490405 0.0052474644 -0.003585959 0.0014843415 0.003135484
-0.000488116 0.008977759 0.0008651183 0.000760042 0.00041298036 -0.0033184658 0.018401148 0.017090738
0.0057723722 0.011693189 0.06458263 -0.0075683156 0.00823549 -0.017181722 0.0052796504 0.014203509
-0.016674588 -0.014187575 0.011145234 0.017350191 0.010300759 0.00675693 0.0027020813 -0.0115636485
3.2641557e-05 9.3295566e-05 0.008906397 0.013024337 0.0058548246 0.010012565 0.002121338 -0.0058814664
-0.0027901023 -0.00036132464 0.015644122 0.0016563826 0.0027555379 0.0016813438 0.004676255 -0.0128378365
-0.0050538452 -0.0007421605 0.03211651 0.00937243 0.00029672458 -0.0037590885 -0.00038768 0.0059248903
0.0019046114 0.0051732315 0.008675205 -0.0018188969 0.0017218189 -0.0047891755 0.0039985892 0.025869807
0.0021825735 -0.006882247 0.003633738 0.008291574 -0.002132423 0.0077830413 0.013191287 -0.0027956709
0.016797857 0.0013937938 0.0041046017 0.005861553 0.0016831176 0.003131348 -0.02500819 0.010150045
0.020019807 -0.0035951573 -0.014806793 -0.0096091535 0.05502604 0.013033614 -0.0029781386 -0.00055865495
