PPO-GAE/BankHeist/FINAL.BankHeistNoFrameskip-v4.MODEL (torch_old, 568460 bytes, 9 tensors)

weight f4 [32, 4, 8, 8]
000000 fa a8 2f bd e5 77 76 bc 4c d8 db 3b 35 42 70 bd
       -0.042885758 -0.0150432335 0.006709134 -0.05865689
000010 e6 8a 8a 3d f3 df 00 3b df 15 50 3d 24 06 d7 3c
       0.06764774 0.0019664734 0.050802108 0.026248045
000020 e9 87 84 bc c2 30 37 3d 1d e1 32 bd 3d 2d 43 3d
       -0.016178088 0.044724233 -0.043671716 0.047650564
000030 b6 cd 81 3d ef 86 41 3d 76 06 69 3d f9 ae 6c bd
       0.063380644 0.047247823 0.056890927 -0.057784054
000040 d8 78 ab 3a c6 d3 38 bd 94 0d 5e 3d 5a 47 b5 3c
       0.0013082279 -0.045123838 0.054212168 0.02212875
000050 4a 16 8d 3d fb 91 64 bc 0e 19 82 3a a5 67 d3 39
       0.06889017 -0.01395082 0.000992568 0.00040322277
000060 0b ad ad bb 6d 9f d7 bc c1 2c 6b 3d 82 02 6d bc
       -0.0053001693 -0.026321137 0.057415728 -0.01446593
000070 fc d8 af bc af 68 17 bd f1 79 e1 3c 3e 71 38 bd
       -0.02146577 -0.03696507 0.027523967 -0.04502987
000080 e1 9d c9 bc d9 fb a5 3b 36 3c 0a bd 22 ec 6d bd
       -0.024611415 0.005065423 -0.033748828 -0.058086522
000090 84 02 85 bd f9 d5 4b 3c 3e 98 60 bd b5 14 84 bd
       -0.064946204 0.012441152 -0.05483269 -0.06449262
0000a0 df 22 d6 bc c0 32 9c bd 2e 84 6a bd fa bc 8b bc
       -0.026139675 -0.07626867 -0.057254963 -0.017057884
0000b0 97 f9 05 bd a5 b5 a4 3b 87 70 65 bd 21 36 8c 3d
       -0.03270873 0.0050265365 -0.056015518 0.06846262
0000c0 b0 b0 f8 3a 37 a2 5b 3d 72 d8 93 bc af f8 b2 3c
       0.0018973555 0.053621497 -0.018047545 0.021847097
0000d0 25 09 ff bc 2e 1e 2a 3d 07 dc 6c bd 43 98 38 bd
       -0.03113229 0.041532688 -0.057827022 -0.045067083
0000e0 8b 79 87 3d 70 0c b6 3d 72 ad 84 3d 1d 0a 73 3d
       0.06614979 0.08889091 0.064783946 0.059335817
0000f0 67 14 65 3d 86 9d 3e 3d c4 96 3c 3c f7 de e3 3c
       0.05592766 0.046536945 0.011510555 0.027816279
000100 6b 91 48 3c 9b cd 36 bd 61 b3 33 3c cf fc 91 3c
       0.012241702 -0.044629674 0.01096806 0.017820744
000110 a4 2e 7d bd e8 eb f4 bc d5 72 0e bd 46 c9 34 bc
       -0.061812058 -0.029897645 -0.03477748 -0.011034315
000120 90 b5 6d bc 4b f2 08 3d 70 2d 74 3c 6c d6 be bc
       -0.01450862 0.033434194 0.014903411 -0.023295604
000130 bb 34 82 bc 26 16 05 3d 36 cf 38 3c 0b 8c 4e 3d
       -0.015894284 0.032491826 0.011279872 0.050426524
000140 fe 63 16 bc 93 1b 7d bd e0 fe 86 bd 54 ba c0 3a
       -0.009179113 -0.061793875 -0.06591582 0.0014703968
000150 16 9d 3e bc 84 19 1a 3d 58 bf 76 bd e8 67 72 bd
       -0.011634132 0.03762199 -0.060241073 -0.059181124
000160 6b 8c 1b bd 71 2c 4a bd 09 d3 f3 bc a3 c5 01 bb
       -0.03797571 -0.04935879 -0.029763715 -0.0019801639
000170 be 1b 24 bc ec b9 e8 3a f5 f2 5c bd 40 bc bc 3a
       -0.01001638 0.0017755604 -0.05394264 0.0014399365
000180 c9 c6 43 3d e6 cf 18 3d b6 57 f3 3c 11 7f e5 bc
       0.047797 0.037307642 0.02970491 -0.028014692
000190 49 85 5c 3d 3a 3d ec 3c 67 79 4e bc 6c 97 13 b8
       0.053838048 0.028837789 -0.012602187 -3.5188554e-05
0001a0 44 45 ac 3c 13 48 16 3d 4f 65 24 bb 9d b2 98 3c
       0.021029122 0.03668983 -0.0025084799 0.018639857
0001b0 a7 62 aa bc 2b 97 c0 bc 12 f2 83 3d 87 6e d5 bb
       -0.020798994 -0.023509583 0.064426556 -0.00651342
0001c0 24 e1 68 bd 5f aa 0f bd b3 1b 12 3b 0a 6b e5 bc
       -0.056855336 -0.035074588 0.0022294342 -0.028005142
0001d0 46 cd 24 bd eb 1b 4e bd c4 6b 1a 3d dc fb 24 3d
       -0.040234827 -0.050319593 0.03770043 0.040279254
0001e0 0d 5b 36 bd ae bb c6 3c 08 02 85 3a 08 8c 8a bc
       -0.044520427 0.024259415 0.00101477 -0.016912475
0001f0 9e 78 98 bd f9 d5 6a 3b 76 c3 a3 3c cf c0 d3 3b
       -0.07444881 0.0035833104 0.019990664 0.0064621936
000200 71 53 1c bd 6f df be 3b 7e 89 58 bc 7b ce eb 3b
       -0.038165513 0.005824975 -0.013216374 0.0071962452
000210 ab a7 ba bc 3f 92 86 bd 2b 49 6a bd e6 d2 13 bd
       -0.022785028 -0.06570863 -0.057198685 -0.0360898
000220 a2 3a 6a 3d 97 fa 93 bd 7c 53 2d 3d 6e 1b e3 3c
       0.057184823 -0.072255306 0.042315945 0.02772304
000230 2c 2e 4c 3d 33 5f 20 3d 94 b7 66 bd 1d 34 87 bd
       0.04984872 0.03915329 -0.056327417 -0.06601737
000240 6a 7b 0e bd ac 80 6b bc b6 ee 8f bc 65 7d 13 3c
       -0.034785666 -0.0143739395 -0.017569881 0.009002064
000250 0f 21 87 bb fc b8 0b 3d e2 53 94 3b d8 15 e5 3c
       -0.004123814 0.03411196 0.004526601 0.027964517
000260 87 2e 4f 3d e7 e9 c6 bc 22 89 b5 3b cf 01 70 bd
       0.05058148 -0.024281455 0.005540029 -0.058595475
000270 27 b2 24 bc 28 99 3c bd ff 0a c2 3c e6 f6 18 bc
       -0.01005224 -0.0460445 0.023686884 -0.009336209
000280 9e 67 b1 bc 15 86 0b 3d 43 81 0b 3c f0 11 eb bc
       -0.021655854 0.034063417 0.008514705 -0.028695077
000290 13 21 bd 3c 57 4d f3 3c a8 7a 8b 3c 53 a2 4e bd
       0.02308706 0.029699964 0.01702626 -0.050447773
0002a0 23 65 86 3d 43 f1 df 3c 2f 86 92 bd 3a b3 72 bd
       0.06562259 0.027336722 -0.071545 -0.059252955
0002b0 ac d8 33 bd 77 2b 03 3b 03 26 35 bc 21 ba bb bc
       -0.043907806 0.002001492 -0.011056426 -0.022915902
0002c0 76 84 41 3c 56 0a 23 bd 9d 96 0e 3c f7 21 ee 3c
       0.011811366 -0.03980478 0.008702901 0.02906893
0002d0 86 d9 c7 3c 0c 7c 4b bc 88 e6 4d bd 41 12 12 bd
       0.024395715 -0.012419712 -0.05026868 -0.03566194
0002e0 5c ff e2 bb 03 06 84 bd ab 22 8a bd 78 ec 20 bd
       -0.006927414 -0.06446459 -0.06744894 -0.039288014
0002f0 a1 07 5e bd fa cc 9b 3c 16 74 0a 3d 0b b3 7f bc
       -0.054206494 0.019018639 0.033802114 -0.015606652
000300 1f f5 39 3d 8d 86 38 3c 7b 01 ac bc 9d 8e ec 3b
       0.04539978 0.011262548 -0.0209968 0.0072191493
000310 ed e8 58 bd 14 ac cc 3c 95 10 de bc 85 bc f2 bc
       -0.05295651 0.024984397 -0.027107516 -0.029630909
000320 91 dc 61 3d de d5 f5 3c 1b b8 38 3d 4a fa 89 bd
       0.05514199 0.030009206 0.04509745 -0.06737192
000330 d0 ca 07 3d ac 3d 98 bc 70 fc 58 bd 99 c4 11 3d
       0.0331524 -0.018584095 -0.05297512 0.03558788
000340 55 7d 44 bc ec 70 7d 3d 0f 88 33 bc 4c ba 30 bd
       -0.011992772 0.06187527 -0.010957732 -0.043146417
000350 6d e0 c5 3b fc af 99 bc f4 77 cc bb 31 b5 a2 3b
       0.0060387165 -0.018760674 -0.0062398855 0.0049654474
000360 0c 20 3e 3d f8 fe ad bc 42 83 25 3d 8c 29 b7 3b
       0.04641728 -0.021239743 0.04040838 0.0055896696
000370 ea e8 4f bd fa 4f 2b 3d a7 64 63 bd ab 83 09 3d
       -0.050759234 0.04182432 -0.05551591 0.033572834
000380 16 6d b4 bc 27 17 6c 3d 6e 12 2a bd 48 b8 13 bd
       -0.022024672 0.057639267 -0.041521482 -0.036064416
000390 75 7a f6 3b d2 a1 05 bd c7 85 f9 3c f3 f2 3a 3d
       0.0075219222 -0.032625027 0.030459298 0.04564185
0003a0 8a b8 88 3d 48 e7 88 bc 15 8c 9f bd 55 a8 5b 3d
       0.06675823 -0.016711846 -0.077903904 0.05362733
0003b0 12 37 ba 3c ee d8 cd bb bd b5 86 3c b3 32 47 3d
       0.022731338 -0.0062819635 0.016444081 0.048632335
0003c0 9f 9f 29 3b 2b 7c 99 bd c4 7a da bc 2f 90 60 bd
       0.0025882495 -0.07494386 -0.026669867 -0.054825004
0003d0 d2 56 47 bc 52 a1 15 bd d5 33 79 bc 6d 4f 5e 3d
       -0.012166696 -0.0365308 -0.015210112 0.054274965
0003e0 f2 3b 8f bd e5 a1 97 3c 49 13 12 3c 9c 4d 99 bd
       -0.069938555 0.018509815 0.008915731 -0.07485506
0003f0 b1 62 4f bd 2f 30 86 bd 82 70 7b bc 64 95 a3 bc
       -0.05063123 -0.06552159 -0.015346648 -0.019968696

bias f4 [32]
000000 bb 16 1d bd b2 b3 4a 3c 49 e8 19 3a 78 16 f6 3c
       -0.038351756 0.012371944 0.00058711 0.03004001
000010 39 ba 24 bc a6 e5 f2 bb 83 ff 37 3c 99 3c 31 3d
       -0.010054165 -0.00741263 0.011230352 0.04327068
000020 47 71 88 3c 19 0e 82 bd 83 4b 04 bd 47 8d 6e bd
       0.016655577 -0.06350345 -0.032298576 -0.0582402
000030 4f 1d a2 bd 0e cf 1f bb ed 8a 7d 3d 77 4c f7 3b
       -0.079157464 -0.0024384889 0.061900068 0.007546957
000040 8c a8 b3 3c e0 47 5e bd d6 51 3f bc 74 dd 10 3d
       0.021930955 -0.054267764 -0.011677226 0.035367444
000050 42 05 a7 bc 9b 6e 23 bd 3e c1 0b bc 13 02 4f bd
       -0.02038825 -0.039900403 -0.008529959 -0.050539088
000060 b7 66 9a 3d 6b 6b 44 3d 0d d8 05 3d f0 bf d5 3c
       0.075391226 0.047954004 0.032676745 0.0260925
000070 09 08 0e bd b2 3d 46 bd 5a 02 aa 3c 75 a2 43 bd
       -0.03467563 -0.04839868 0.020753074 -0.047762353

weight f4 [64, 32, 4, 4]
000000 04 7f 85 bc 5d 2b 08 3c 8b 14 6c bc 87 79 9f bc
       -0.016295917 0.00831112 -0.014409195 -0.019467128
000010 27 2c df 39 b9 85 55 bd fb 4d a1 ba 34 08 0b 3d
       0.0004256677 -0.05212948 -0.0012306565 0.03394337
000020 a5 49 56 bd d6 90 94 3d b7 67 0d 3d e0 4b 42 bd
       -0.052316327 0.07254188 0.03452274 -0.04743564
000030 53 18 40 bd d7 4e 07 bd ed 9c b5 3b 0a 94 bd 3b
       -0.046898197 -0.033034172 0.0055423887 0.00578547
000040 b5 9d 5d bb b6 12 35 bd 5e a0 35 bd dc fc bc bc
       -0.0033815925 -0.044207297 -0.04434239 -0.023069791
000050 96 3f cd 3c 96 0d 0b bd be fd ea bc 11 54 25 3d
       0.025054734 -0.033948503 -0.028685447 0.040363375
000060 6b 54 57 bd c8 ad 5f bd d4 47 e0 3c 05 b5 1a 3d
       -0.05257074 -0.05460909 0.027378 0.03777029
000070 ff 35 b7 3c 16 dc f8 3c 8e f2 cf 3b 6c 59 49 3d
       0.022364615 0.030378383 0.0063460534 0.049157545
000080 1a 5b 0c 3d c2 a1 0e 3d de 1d a6 3c e3 12 28 3d
       0.03426657 0.034822233 0.020277914 0.041033637
000090 14 13 16 bd c1 8d 5b bc 9e be 8b bd 15 7b 1f bc
       -0.036639288 -0.013400496 -0.06823467 -0.009733935
0000a0 a7 d5 82 bc 5c 8e fb bc cf da e5 bc 32 79 85 bc
       -0.015971018 -0.03070753 -0.028058438 -0.016293142
0000b0 3d 5c d0 3c 42 5d f2 bc 4e f4 f2 3c 40 71 1a 3d
       0.025434608 -0.029585484 0.02965751 0.03770566
0000c0 b9 95 04 3d 50 0e d8 3c ee ef fe bc f1 bf a3 3d
       0.03236935 0.026374012 -0.031120267 0.07995594
0000d0 26 eb f4 bc 7e ca e0 3c 2b 05 29 bd 53 cf 16 3b
       -0.029897284 0.027440306 -0.041264694 0.0023011758
0000e0 79 b3 18 bd 1c 88 c2 3c cc 7a a3 bb 64 9f 01 bd
       -0.037280533 0.023746543 -0.0049890038 -0.031646147
0000f0 b7 ee 50 bd 9b f4 87 3c 01 01 49 3d 06 ff bf 3c
       -0.051008906 0.01659613 0.049073223 0.023437034
000100 ae 94 3d 3d 73 53 e2 3c 23 5c 2b 3c e5 f0 d0 3c
       0.04628437 0.027627682 0.010458979 0.025505492
000110 e3 13 ce 3b 68 c9 aa 3c 67 78 12 bc d8 77 b8 bb
       0.006288992 0.020847991 -0.008939839 -0.005629521
000120 5e 59 52 3b 43 3d 30 3c c6 26 4b 3c 0e d6 1c 3b
       0.0032096724 0.010756793 0.012399381 0.0023931297
000130 84 5e 68 3c 7b 73 e1 3c f0 13 f2 bc be 7e 83 bd
       0.0141826905 0.027520886 -0.029550523 -0.064206585
000140 b4 60 13 3d 5f c6 96 3c 73 a9 cc 3b 49 5a d9 3b
       0.035980895 0.018405138 0.006245786 0.0066330773
000150 9c de eb bc b1 d6 ef 3c 5f 26 29 3d e0 3a 06 3c
       -0.028792672 0.029277178 0.04129636 0.008192748
000160 cc b8 80 bc cf aa 53 bd e2 2b 82 3b 08 12 3b 3d
       -0.015713118 -0.051676568 0.0039725164 0.045671493
000170 3f 7c 6a bc 33 82 9d bc 74 f6 2c 3c 0c 40 60 3d
       -0.014311849 -0.019227123 0.010556806 0.05474858
000180 02 f8 9d bb a3 72 5f bc f2 57 9f 3c 7e 46 1b bd
       -0.0048208246 -0.013638171 0.019451115 -0.037909023
000190 6d dd 21 bb 27 87 69 3c ac d9 15 bd 8a 4b 08 bd
       -0.002469863 0.014253414 -0.03658454 -0.033275165
0001a0 3a f4 04 3c 95 29 3f bd 8d 3e 1e bc 4c 52 83 bd
       0.008114869 -0.046670515 -0.009658468 -0.06412181
0001b0 e3 5b db bb a3 58 0c 3d 5b e8 1a bd 4a ea 39 3c
       -0.0066943034 0.034264218 -0.037819248 0.011347363
0001c0 56 b8 c9 bc 29 5a 07 3b c3 4b 0c 3d 47 6d b5 3c
       -0.024624031 0.0020653105 0.03425194 0.022146834
0001d0 b2 9d d8 3c 7e c9 c8 bc a4 d1 3a bd bd 76 59 3c
       0.026442382 -0.024510141 -0.045610085 0.013272938
0001e0 af 51 a3 bb 53 d7 50 bc cc 92 e2 3c e2 ff c5 3c
       -0.0049841027 -0.01274665 0.027657889 0.024169866
0001f0 77 1c 60 3b 85 cb 36 bb e9 7a 8c 3c b5 32 ab bc
       0.0034196654 -0.0027892303 0.017148452 -0.020898202
000200 41 ce 21 3c 2a 7f 5d bd b4 9f 42 bd 3b 66 ec 3c
       0.009875835 -0.05407635 -0.047515586 0.028857341
000210 fd a7 d5 bc 41 a3 85 bc cd 80 fa bc 98 db a1 3c
       -0.02608108 -0.016313197 -0.030578995 0.01975803
000220 f8 18 19 3d 9c 55 7e 3c 2f f7 0c 3d 5b 72 0a 3d
       0.037377328 0.015523341 0.03441542 0.033800464
000230 64 5d 0f 3d ee 4e 08 3d 86 3f 72 3c 54 66 64 bc
       0.035001174 0.0332784 0.014785653 -0.013940413
000240 0e b7 b5 bb 33 91 00 3b 10 3b d8 bc e1 99 60 bc
       -0.0055455035 0.0019617795 -0.02639535 -0.013708563
000250 d2 d8 75 3b 0c 5f e0 bc 71 65 59 3c 13 bf 1c 3d
       0.0037513268 -0.027389072 0.013268814 0.03826816
000260 95 3d 29 3c 4f 79 b1 bb 8c 8d db 3b 16 f0 00 3c
       0.010329624 -0.0054160724 0.0067002233 0.007869741
000270 d4 11 9e bc c7 02 ac bc a0 88 dc bc 28 7a 2f bd
       -0.01929561 -0.020997418 -0.026920617 -0.042841107
000280 c8 17 98 bc 0a 96 23 bc 20 cd 27 3d aa 3f 42 bd
       -0.018566027 -0.009984503 0.040967107 -0.047423996
000290 48 49 32 bc da 60 c0 3c 40 aa 25 3b b1 3f 80 3d
       -0.010881729 0.023483682 0.002527848 0.06262148
0002a0 99 26 b5 3c 6e 45 47 bb f3 b4 d1 3c 3d 8a 25 3d
       0.022113131 -0.0030406374 0.025598979 0.040415037
0002b0 b6 20 d6 bc ee 0b 38 3d 76 d1 2b bd 21 16 4d bd
       -0.026138645 0.044933252 -0.041947804 -0.050069932
0002c0 3a f0 82 bd 41 d5 c0 3b 70 34 33 3c cd 17 ce 3b
       -0.06393476 0.005884797 0.010937795 0.0062894584
0002d0 ee 7b 32 bc 93 33 26 bc a2 e6 52 bc af 0b 1b 3d
       -0.010893805 -0.010144132 -0.01287237 0.03785294
0002e0 40 9d 73 3c f8 7b 1c bc ee 63 66 bd 96 f1 1f 3d
       0.014869034 -0.009551041 -0.056247644 0.039048754
0002f0 42 02 9d 3b 8d 78 3b bc 0b f5 e8 bb 10 e7 18 bd
       0.004791529 -0.011442316 -0.0071092895 -0.037329733
000300 1f 51 73 bd 46 a7 34 3d 30 eb 07 bd 4d c9 8c 3c
       -0.059403535 0.044104837 -0.033183277 0.017185831
000310 66 e3 b3 bb ea 50 aa bc f2 c3 36 3d 88 2f bf 3b
       -0.0054897545 -0.020790536 0.04462046 0.0058345236
000320 fc 5f 97 3b a4 69 2c 3d 09 61 3e 3d d6 d3 64 bb
       0.0046195965 0.042092934 0.04647926 -0.0034916303
000330 ef 83 dd bc 51 70 34 3d 25 83 19 3b d0 7e 16 3b
       -0.02704045 0.044052426 0.0023424115 0.002296377
000340 c7 f0 a3 3d 65 87 ff bc 7b 9d 19 bd 62 41 b4 3c
       0.08004909 -0.03119249 -0.0375037 0.022003833
000350 0e ce b6 3b 9d 96 1f 3d 4d 1e 03 3d 49 62 d2 3c
       0.005578763 0.038961995 0.03201132 0.025681632
000360 eb 47 80 bb c7 64 a8 bc db 17 0d bd b9 f7 73 3c
       -0.0039148233 -0.020555867 -0.03444658 0.014890605
000370 90 1e 0a bd db 2f 14 3d 9a d3 e5 bc e1 e8 17 3d
       -0.033720553 0.03617845 -0.028055001 0.037087325
000380 34 fb 3f bc 27 9a 0b bd 03 f5 43 bc 2a 65 9b 3c
       -0.011717606 -0.034082558 -0.011960271 0.018969137
000390 a2 83 51 3d 35 ec 25 3d f5 52 fb 3c a1 c2 7d bd
       0.051150925 0.040508468 0.030679205 -0.06195319
0003a0 b7 8e a1 ba 5b cf 72 bc 5c ce 14 3d 54 25 3d bd
       -0.0012325858 -0.014819945 0.036329612 -0.046178177
0003b0 3c 37 6f bd e7 48 4b bb 25 12 e9 bb 47 0b 46 bd
       -0.058402285 -0.0031018795 -0.0071127587 -0.0483506
0003c0 66 ee d6 bb bd 40 72 bc 31 f8 b5 bb 92 6b 80 3b
       -0.006559181 -0.014785943 -0.0055532684 0.0039190734
0003d0 7d 85 da 39 89 69 86 bc c2 98 98 bb c4 19 e0 3b
       0.00041679657 -0.016407745 -0.004656882 0.006839009
0003e0 1f b4 01 bd e6 39 46 bd 6b 06 6c 3c 90 04 b0 3b
       -0.031665917 -0.04839506 0.014405827 0.0053716376
0003f0 82 cd ac bc 13 84 bc bc 06 c8 36 3d a4 d1 53 bd
       -0.021094088 -0.023012197 0.04462435 -0.0517136

bias f4 [64]
000000 d8 0a a0 3c 44 7f 29 3b 84 97 81 bc 51 9e 73 3c
       0.01953642 0.002586321 -0.015819319 0.014869289
000010 0d 0d cf bc 96 53 f3 3b 91 47 34 3d f5 4c 34 3d
       -0.025274778 0.0074257357 0.044013564 0.044018704
000020 ca f3 0e bd 27 1c 9c bc f0 cb 9b 3b dc e2 1a 3c
       -0.034900464 -0.019056393 0.004754536 0.009453502
000030 38 93 28 bc fc 74 15 3d fe 19 44 bd 7c f7 25 bc
       -0.010289006 0.036488518 -0.04787635 -0.010129806
000040 84 b9 53 3c cd a2 1b 3c 55 cb c6 bc 43 8c 0d bd
       0.012922648 0.009499264 -0.024266878 -0.034557592
000050 35 8e 34 bc 1b 08 42 3c c5 5a e8 bc 19 83 0e bd
       -0.011020233 0.011842753 -0.028363595 -0.034792993
000060 99 ef b4 bc b2 e2 74 bc 65 a9 40 3c 4b 8a 11 3d
       -0.022086905 -0.0149466265 0.011759137 0.035532277
000070 a9 cb bd bc 76 65 1e 3d 83 20 d0 bc 0d 7a a9 bc
       -0.023168402 0.03867098 -0.025406128 -0.020688081
000080 e1 31 29 bd 2f 29 46 3c 9b f4 8b bc e0 19 dd bc
       -0.041307334 0.01209478 -0.01708441 -0.026989877
000090 9d a2 c1 3c b0 07 d1 3c de c8 a4 3c 15 89 91 3b
       0.02363711 0.025516361 0.020115312 0.0044413903
0000a0 c9 02 7c bc 89 74 cf bc f5 d3 5c bd b5 58 5d bc
       -0.015381523 -0.025324123 -0.053913075 -0.013509919
0000b0 fd 09 1b 3d 40 78 95 3b 3e 6f e3 3c 37 4a 8d 3c
       0.037851322 0.004561454 0.027763005 0.017247302
0000c0 a6 1d ef bc 6e 4a 0f 3b 52 90 9b bc 3b f9 07 bc
       -0.029188942 0.0021864432 -0.018989716 -0.008299167
0000d0 e5 97 be 3c f1 af 52 bd 71 8f e5 3c cf 8b bf bb
       0.023265788 -0.051437322 0.0280225 -0.005845524
0000e0 f1 97 21 bd 33 73 8b 3c 27 69 1e 3d 5e 28 19 3c
       -0.039451543 0.017022705 0.0386745 0.009348003
0000f0 97 02 d7 bb 30 ac 22 bc 8c c9 5d bc 09 fe 6e bd
       -0.006561588 -0.009928748 -0.013536822 -0.058347736

weight f4 [64, 64, 3, 3]
000000 da b8 95 3c ff 3d af 3c 5f 16 4a 3d ac b9 1a bd
       0.01827662 0.021391867 0.04933774 -0.037774727
000010 bf 1a 80 3b 14 3f 45 bd 86 45 47 bd cc 4b ff 3c
       0.0039094384 -0.04815586 -0.048650287 0.031164072
000020 cc cf a9 3c 19 4a fa 3b 92 cf e6 3c 0b a8 f5 bc
       0.020728968 0.0076382277 0.02817515 -0.029987356
000030 bf 04 e2 3c 8f 06 e2 bc c7 30 2b bd 17 af 8b bd
       0.027590154 -0.027591018 -0.041794565 -0.06820505
000040 f9 49 f8 bc 56 20 d3 3c 44 c5 47 bc 6a 54 e7 3b
       -0.03030871 0.025772255 -0.012193028 0.0070596235
000050 50 6e 2a bd d7 79 75 bd e4 e2 34 3d 40 31 d5 bc
       -0.04160911 -0.05993065 0.044161692 -0.02602446
000060 40 31 46 3b ec 13 a8 bc b6 e8 85 3b cb d0 e2 3c
       0.0030241758 -0.020517312 0.004086579 0.02768745
000070 97 3f 7e 3d a9 56 44 bc b1 ec 56 3a 19 6f 49 bd
       0.062072363 -0.011983552 0.0008198722 -0.049178217
000080 83 fb 35 bd 53 5d ac 3c bf 19 09 3c 41 43 44 3b
       -0.044429313 0.021040594 0.008367955 0.0029947313
000090 68 2c 5e bd 8c a2 c4 3c b3 02 27 bd 6a 80 77 3c
       -0.054241568 0.02400329 -0.04077406 0.0151063
0000a0 28 b3 3a bc d4 48 95 3b 63 5d 9a bd f3 fd ac 3c
       -0.011395253 0.004555801 -0.07537343 0.021117186
0000b0 2f 51 a4 3c 36 4d 53 bc e5 d8 94 bc fb 4b a3 3d
       0.020058243 -0.0128968265 -0.01816983 0.079734765
0000c0 83 9f 93 bc 7d dd ee 3c 33 df 36 bc 28 aa f9 bb
       -0.018020397 0.029158348 -0.011161613 -0.007619161
0000d0 f3 68 4e bb 43 63 19 bd 47 e7 b8 bc c1 31 5c bc
       -0.003149566 -0.03744818 -0.02257122 -0.013439597
0000e0 c3 0d 00 3d 2b 2f 52 bd bc 22 d6 bb 7e 4e 43 bb
       0.031263124 -0.051314514 -0.0065349024 -0.0029801424
0000f0 2c 26 d1 3a ed 05 06 3d 5e 4e 1f 3d 6a 92 b9 3a
       0.0015956811 0.032720495 0.038893096 0.0014158015
000100 cf 4a f2 bb ed eb c0 3b a6 e4 3e 3d 94 25 3e bc
       -0.007394172 0.0058874995 0.046604775 -0.011605639
000110 e0 10 f7 3c 7a f0 f4 ba 8e e7 68 3b cb 8b d3 3c
       0.030159414 -0.001868739 0.0035538408 0.025823494
000120 74 df 05 3d cb 6d 25 bc 3e cd b3 bc f8 db db bc
       0.032683805 -0.010096977 -0.021948453 -0.026838288
000130 8b 49 1f 3d 9e 8a 13 3d ff b3 6b bb cd 3e 8c bd
       0.038888495 0.036020868 -0.003596544 -0.06847916
000140 f2 c6 c4 bc 57 bb 08 bd a5 d5 34 3b b1 8c 98 3c
       -0.024020646 -0.033381786 0.0027593162 0.018621774
000150 71 13 fc 3c c9 10 5c 3c 63 44 7e bc 38 11 22 3a
       0.03077099 0.013431736 -0.015519234 0.00061823754
000160 3d 08 b6 bc c6 bf 9b bc 84 85 9f 3c 3e 04 79 bd
       -0.022220725 -0.019012343 0.019472845 -0.06079506
000170 15 19 75 bb 1b 3e f6 ba ef de f0 3d 86 9f a3 3a
       -0.0037398983 -0.001878682 0.11761271 0.0012483455
000180 47 65 30 bd b0 1f 91 bc 7c c0 24 bd 27 c4 10 3d
       -0.043065336 -0.017715305 -0.04022263 0.035343315
000190 d4 d5 03 bb 29 e5 15 3d 4e d6 25 3d 7e 42 eb bc
       -0.0020116465 0.036595497 0.04048758 -0.02871823
0001a0 18 64 2b 3d 82 59 c7 bc cb 7b 6c 3c 88 3a fe bc
       0.041843504 -0.024334673 0.014433811 -0.03103377
0001b0 6e 9c 01 3d f4 58 13 3d 33 65 ac bc 9b 4a 49 bc
       0.031643324 0.035973504 -0.02104435 -0.012285854
0001c0 1e cd 1c 3d ad b6 67 bd 7b 7d 34 bd 81 b4 34 3d
       0.038281552 -0.056570698 -0.04406498 0.044117454
0001d0 c3 ad 39 bb b3 ef 1c 3d 94 0a 96 3d 55 f2 c8 bc
       -0.002833233 0.038314532 0.07326236 -0.024529615
0001e0 05 3f a7 bc e4 8c d8 bc 8c 65 1c bd e9 ad 5a bc
       -0.020415792 -0.02643437 -0.03818278 -0.0133471275
0001f0 8e 13 c2 bc a9 82 51 3d d9 a8 b6 bb 5f a8 4c bc
       -0.023690965 0.051149998 -0.0055743274 -0.012491315
000200 96 cf 97 bc 7d db fa 3b 79 56 33 bd ec ab 37 3d
       -0.018531602 0.0076555596 -0.04378364 0.04484169
000210 1d 41 09 3d 3b f4 92 bc 59 c8 30 3d 21 bc 50 bc
       0.033509362 -0.017938724 0.043159816 -0.012740166
000220 c5 65 46 3d 83 3d 37 bc 77 d9 4c bc 6e 69 08 3d
       0.0484369 -0.011184099 -0.0125030195 0.03330367
000230 50 f6 f4 bb 97 af 2a bc 85 97 a4 b9 e4 2b 33 3d
       -0.007475652 -0.01041784 -0.00031393408 0.04374303
000240 ce e7 6b 3c 27 11 07 bd 2c ee 20 bc 8e 39 0b 3d
       0.014398528 -0.032975342 -0.00982241 0.033990435
000250 83 32 33 3d e9 48 f9 bb 57 e1 6b 3d 50 04 0e 3b
       0.043749344 -0.0076075685 0.057587948 0.002167005
000260 99 6e 79 bb 22 66 21 bd 62 c4 bb bb 4f c3 d0 3b
       -0.0038060306 -0.039404042 -0.0057301978 0.006370939
000270 8a f3 e4 3b 1e 1a 05 3d eb bd 09 bd 63 f9 cd 3c
       0.00698704 0.03249561 -0.033628386 0.02514333
000280 16 30 97 bc 55 e6 a5 bc de 6a ac bb a4 91 43 3d
       -0.018455546 -0.020251432 -0.005261763 0.047746316
000290 b2 7d 1d 3d cf a1 90 3c 31 36 9a bb 31 80 85 3d
       0.03844995 0.017655281 -0.004706167 0.06518591
0002a0 0d e6 53 bd 7f 2f 30 bb 8e b4 92 3c 05 4d 0e 3c
       -0.051733065 -0.0026883779 0.01790836 0.008685355
0002b0 40 f3 59 3c f3 2b ac bb 0f b6 cc bb 60 bb b6 3c
       0.013302624 -0.0052542626 -0.006247289 0.022306144
0002c0 34 ce 81 bc f0 e9 3d bc b5 ae e5 3c 83 6e 2f bc
       -0.015845396 -0.01159142 0.028037408 -0.0107075
0002d0 61 ab 35 3d af f3 a9 3c 92 e1 13 3d d8 04 14 bd
       0.044352893 0.02074608 0.036103792 -0.03613743
0002e0 de ef 33 3d d4 9c 37 bd 90 ac 26 3d 4e 03 a8 bb
       0.043929927 -0.044827297 0.040691912 -0.005127347
0002f0 28 c7 09 bc 6b d1 f2 3c 45 11 2d 3d cb 30 e6 bc
       -0.008409299 0.029640874 0.042252798 -0.028099438
000300 25 0f 3b bd 3d 85 80 3b 7e 35 f0 3c 5f d8 84 bc
       -0.04566874 0.0039221332 0.029322382 -0.016216455
000310 65 c4 ed 3b ef 79 e9 3b 71 af 7f 3b b7 57 d0 3c
       0.007256078 0.0071251313 0.0039014483 0.02543245
000320 a2 5c c0 bc 79 cb d3 3c 96 97 c3 bc 4d 4a 4a 3d
       -0.02348167 0.02585386 -0.023875993 0.049387265
000330 26 49 48 3c 21 c7 5c bc ae 12 5b bd bd cd de bc
       0.012224471 -0.01347521 -0.05348461 -0.027197713
000340 4e f2 a7 3c 7f 47 77 3b 4b 83 a5 3c df b3 c4 bc
       0.020501282 0.0037731824 0.020204207 -0.02401155
000350 c5 3d 43 bd 9b d9 4b bc 3b 54 2b 3a c2 3d a4 3b
       -0.04766633 -0.012442018 0.00065356836 0.005012245
000360 dd 0e 06 3d 2d d1 c0 ba da 0d 17 3d f4 0a c3 ba
       0.03272902 -0.0014710777 0.036878444 -0.0014880584
000370 bb 20 15 3d 73 0c bb 3a 10 e1 01 3b 95 6b b9 3b
       0.036408167 0.0014270678 0.0019817986 0.0056585767
000380 e9 f9 80 bc 14 ca f0 3c 52 14 22 bd bb 7f 79 bc
       -0.015744166 0.029393233 -0.03957016 -0.015228207
000390 30 60 46 bd 1e 53 b9 bc de 59 c7 bc 52 e2 14 bc
       -0.048431575 -0.022622641 -0.024334844 -0.009087162
0003a0 27 81 2e bd 9d 3c 2a 3c 14 1f 40 3c 05 db 25 3c
       -0.042603638 0.010390428 0.01172616 0.010123019
0003b0 9b da 7e bc 54 db ac 3c b0 48 b6 3a f0 db e0 bc
       -0.015555049 0.021100678 0.0013907161 -0.027448624
0003c0 92 a4 de 3c cb 2e 08 3d 43 c4 8c 3c 9f b7 28 3d
       0.027178083 0.03324775 0.017183429 0.04119074
0003d0 8d ca 89 bc f8 65 4c 3c a0 78 65 bd 94 70 e5 b7
       -0.016820217 0.012475483 -0.05602324 -2.735135e-05
0003e0 65 46 9c 3c 14 31 fe 3b c0 9b 3a 3b af a9 80 bd
       0.019076535 0.0077573154 0.0028474182 -0.062823646
0003f0 90 1e 95 bc 66 54 d8 bc f1 95 9f 3b 08 95 f1 bc
       -0.01820305 -0.026407432 0.0048701693 -0.029490009

bias f4 [64]
000000 d4 fc 84 bc 9f 5b dc bc ed 84 4a bc af 88 77 3c
       -0.01623384 -0.026899157 -0.012360794 0.0151082715
000010 ad 49 01 bd a3 de ab bc 53 72 53 3c 1b 36 35 bd
       -0.031564403 -0.020980185 0.012905675 -0.044241052
000020 56 f9 d7 bc 49 12 35 bd 69 77 b8 bc 51 3b ec 3c
       -0.02636401 -0.04420689 -0.022517877 0.028836878
000030 a6 a3 2b bc c4 8c dd bc 42 cb b3 bc 88 dd d8 bc
       -0.010476029 -0.027044661 -0.021947507 -0.026472822
000040 37 12 99 bc 3f 0f 48 bd 93 a1 45 bd c0 c4 c0 bc
       -0.018685443 -0.048842665 -0.048249792 -0.023531318
000050 06 bc 66 39 b4 af f2 bc fa df bd bc f1 cd 63 bb
       0.00022004553 -0.029624797 -0.02317809 -0.0034760202
000060 82 2b b7 bc d0 56 b6 3b c9 1a 1b bc 8d 65 dc 3c
       -0.022359613 0.005564548 -0.009466835 0.026903892
000070 c4 8b a9 3c 5b b3 04 3c db 41 db bb 3b 6c 91 bc
       0.020696528 0.008099402 -0.0066912 -0.017751804
000080 fc 1b c5 bc 88 ac 82 bc 22 cb bf bc ac 67 c6 bc
       -0.024061196 -0.01595141 -0.023412291 -0.024219356
000090 ac 5d 55 bc c1 61 f8 bc ed b3 29 bd 12 e9 2b 3c
       -0.013022821 -0.03032005 -0.041431356 0.01049258
0000a0 04 53 b6 3c 96 98 08 3d 14 45 3d bd 49 fd ec 39
       0.022256382 0.033348642 -0.046208456 0.0004520214
0000b0 5c 75 41 bd c3 9d 39 bd 43 4f 5e bd 73 9a 1b ba
       -0.047231063 -0.04531647 -0.05427481 -0.00059357955
0000c0 a4 9f 0e 3b ec 0f 85 3c b4 1f 22 bd 09 db b3 3b
       0.0021762634 0.016242944 -0.039581016 0.0054887575
0000d0 4f e3 14 bd a0 10 44 bb 55 ed 27 3c b6 23 8c 3c
       -0.03634959 -0.0029917136 0.010249455 0.017106872
0000e0 06 4d 04 3d 42 11 25 bd 4e f3 80 bc bf 40 c0 3b
       0.032300018 -0.04029966 -0.015741017 0.0058670933
0000f0 0b 52 85 3c e7 bc 03 3d 9c 2f ad bc 92 93 f0 3c
       0.016274473 0.032162573 -0.021140866 0.029367242

weight f4 [18, 3136]
000000 b0 7e 1f bd 00 b6 38 3c a6 c2 89 bb 63 de 80 3c
       -0.038939178 0.011273861 -0.004204112 0.015731042
000010 c0 5b 7c 3b e2 63 95 3c cf ce 3d bd 99 5b e1 3b
       0.0038506836 0.018236104 -0.046339806 0.0068773744
000020 fd 45 0d bc d4 55 70 3c ce 3e da bb 88 19 b0 3c
       -0.008622644 0.0146689005 -0.006660319 0.02149655
000030 12 cc 10 3d 81 6d 22 3d d8 6b d2 3b 6f 56 4b bc
       0.035350867 0.039655212 0.0064215474 -0.012410744
000040 fc f4 9e bc 2e 1e 9b bc 24 f4 2b bd 38 5f f3 3c
       -0.019403927 -0.01893529 -0.041980878 0.02970849
000050 e0 49 d2 3c 83 18 94 3b 1c 36 58 3d fb c6 fe bb
       0.025669992 0.0045195236 0.052785978 -0.007775185
000060 c9 f9 39 3c ac d0 27 3c 4f 2a 08 3d d0 45 f6 3a
       0.011351057 0.010242622 0.033243474 0.0018789116
000070 68 2b 90 3c 32 69 1f bd dd 1b 14 3d 60 ea c2 3a
       0.017598823 -0.03891868 0.036159385 0.0014870875
000080 ac f7 ec ba 45 48 09 3c e6 c6 06 3c af 94 02 3d
       -0.0018079183 0.008379047 0.008226132 0.031880077
000090 bb ec 0d bb f7 00 81 3c e0 94 6a bb e9 5d e7 3a
       -0.0021655995 0.01574753 -0.0035794303 0.0017651889
0000a0 a8 c6 61 38 37 cf 24 3c 1b d0 19 3c 58 0e dd 3b
       5.3829193e-05 0.0100591695 0.009387995 0.0067460947
0000b0 be 6b aa bc 77 57 9f 3b 13 9d 62 3c 24 16 af 3c
       -0.020803329 0.0048627215 0.013831395 0.021372862
0000c0 a6 f7 7e 3b 9b c8 33 bd 76 55 a8 bc e8 3f 56 bd
       0.0038904934 -0.043892484 -0.020548563 -0.05230704
0000d0 1d 14 b2 3c 6e c6 52 3d f1 02 0d 3d 48 55 2a bd
       0.021738106 0.05145877 0.034426633 -0.041585237
0000e0 b5 e1 12 3d 16 ed 69 3c e0 c7 3e 3d ab 34 e5 3b
       0.035859782 0.014277717 0.046577334 0.006994804
0000f0 9c 85 e5 3c c4 ba 17 bc fb 76 c4 3b 60 38 8a 3c
       0.028017811 -0.009260837 0.005995629 0.016872585
000100 04 e9 05 3d 33 d0 40 bc 8b 6a 9e 3c 7d b1 44 bc
       0.032692924 -0.011768389 0.019337913 -0.012005207
000110 e1 14 a3 bc 2f 8b fe 3c b5 cc e3 3c b3 6e 7d 3c
       -0.019907417 0.031072227 0.027807573 0.015468287
000120 c0 74 bf bc 47 99 cc bc c8 a9 ee ba e2 9b 18 3d
       -0.0233711 -0.024975432 -0.0018208558 0.037258036
000130 70 5f ce 3c fd 28 37 bc a2 ca de 3c 54 7a c0 3b
       0.025191993 -0.011179206 0.027196232 0.0058739576
000140 d0 81 aa bc 1d 2e c6 3c b5 66 17 3b 21 57 6d 3a
       -0.020813853 0.02419191 0.002310199 0.0009053816
000150 ee 0d d2 bb ed dc 95 3b 65 52 07 3d d1 95 2a bc
       -0.006410352 0.0045734555 0.033037562 -0.010411696
000160 16 ca 9b bc 31 19 d7 bc 23 56 03 bc 85 17 d9 3b
       -0.01901726 -0.02625713 -0.008016142 0.006625118
000170 fd ba 12 bc 9a 39 54 3c 92 12 06 b9 55 26 8b 3b
       -0.008955714 0.012953186 -0.00012786154 0.004246513
000180 dc 89 aa 3c 25 17 24 3d 63 47 76 3c 59 17 bd bc
       0.02081769 0.040061135 0.015031668 -0.023082422
000190 66 6d ad bb 69 3f 17 bc ae 42 f4 bc a9 90 7a 3d
       -0.0052925823 -0.009231427 -0.029816952 0.061173115
0001a0 ad d9 bf 3b 02 9a 98 3c 44 b2 d0 bc a8 04 21 bd
       0.0058548064 0.018628124 -0.025475629 -0.03931108
0001b0 35 e1 c3 3b e6 0d 50 bd bb f1 de 3c c3 47 56 3c
       0.0059777745 -0.050794505 0.027214875 0.013078633
0001c0 36 f7 20 bc 27 5d f5 3c 56 9d 10 bb 7f 0b 8b ba
       -0.009824565 0.029951645 -0.0022066436 -0.0010608285
0001d0 98 e7 9e bc 67 74 a5 3d 2c e8 87 bb ed 74 95 3c
       -0.019397542 0.080788426 -0.00414755 0.018244231
0001e0 fb 4b ec 3a 37 1a 57 bc 84 32 23 3d 2a e1 d7 3b
       0.0018028015 -0.013128809 0.039843097 0.006588121
0001f0 3f 02 f7 3c a5 d1 58 3c 92 93 b2 3c c7 c9 1c bd
       0.030152438 0.013233577 0.021798883 -0.038278367
000200 96 75 27 bd 6b d6 b7 bc 5b 62 e4 3c c7 9e e7 bc
       -0.040883623 -0.02244111 0.02787893 -0.028273953
000210 48 8d 27 3d 03 40 60 bc 14 1e 1f bc d6 74 c5 bb
       0.04090622 -0.013687137 -0.009711761 -0.006025891
000220 b4 de c8 3c 0f d6 ee bb 36 d2 a7 3b 2f cc 2c 3c
       0.024520256 -0.0072887014 0.0051214946 0.010546728
000230 81 33 73 3c 15 64 e9 3b e0 69 3b 3c f3 f2 e7 bc
       0.014843822 0.0071225264 0.011438817 -0.02831409
000240 1d be 83 bb 96 97 60 bb c6 fe 7e 3b 58 90 d6 3b
       -0.004020466 -0.003427004 0.003890918 0.006547969
000250 37 f3 19 3c f9 16 56 3d ff 4b 05 bd ce e7 c4 3c
       0.009396366 0.052268002 -0.03254318 0.024036314
000260 7b e2 14 3c 7f 8c f3 bb 20 fa 8c 3b b6 92 b0 bb
       0.0090872 -0.00743252 0.004302278 -0.005388583
000270 0b 56 81 bc 1b a5 b5 bc 3e 54 f1 3c 66 68 07 b7
       -0.015788099 -0.022173455 0.029459115 -8.070934e-06
000280 ff 98 74 3b 2c af 82 bb 9f 0b e6 ba f6 47 98 3c
       0.0037322638 -0.0039881673 -0.0017551071 0.018589001
000290 43 06 0f bd f2 9e 3b 3c f2 01 c2 3c d7 36 b7 3c
       -0.03491808 0.01145147 0.023682568 0.022365017
0002a0 c0 8d 1b 3d 02 3b 21 3d ea 48 92 3c d5 3b e4 3c
       0.03797698 0.039362915 0.017857034 0.027860561
0002b0 a8 1e 46 bd af 32 a2 bc 9e 86 5c 3d 56 26 95 3c
       -0.04836908 -0.019799558 0.05383932 0.018206757
0002c0 b0 30 66 3c 81 53 76 3c af 0f 4f bd 3f 56 55 bc
       0.014049694 0.015034557 -0.050552066 -0.013021051
0002d0 98 dd 3a bc 72 7d 48 bc 10 25 65 bc a5 f5 63 3c
       -0.011405371 -0.01223694 -0.013985887 0.013913547
0002e0 ba 39 09 bc 89 2b 52 bc 14 15 a1 bc ce c1 05 3c
       -0.0083755795 -0.012827762 -0.019663371 0.008163882
0002f0 96 be cd 3b 32 bc 06 bb 6e 82 23 bb aa 7a 81 bb
       0.006278823 -0.002055895 -0.0024949568 -0.0039513903
000300 89 d7 9b 3c 97 7e 84 bc a1 f4 b2 3b 82 90 0f bc
       0.019023674 -0.016173644 0.005461291 -0.008762481
000310 72 04 ff 3c e1 c8 70 3c df 7b 83 3c 05 90 06 bc
       0.03113005 0.014696331 0.016050277 -0.008213048
000320 c7 ce 0a bd 90 b7 d2 bc 24 78 86 3c b5 5f 50 3d
       -0.033888604 -0.025722295 0.01641471 0.050872523
000330 97 c7 11 bd ba 09 93 3d 7c 22 1c bd bf 74 b6 bb
       -0.035590734 0.071795896 -0.038118824 -0.0055681164
000340 7f 80 51 bc a7 53 30 bd 70 38 1c bd d6 39 7d bc
       -0.0127869835 -0.043048527 -0.03813976 -0.015455684
000350 08 ab 88 3c 6b c2 2f bb c2 c6 0a 3d ea 2d c3 3b
       0.016683117 -0.0026818763 0.033880956 0.005956401
000360 ae b2 ab 3c 5b ce 7c 3c d8 34 00 3d 39 fa 2e bb
       0.020959225 0.015430058 0.031300396 -0.0026699437
000370 f7 f5 23 3c 68 32 9f 3c 1e 4e 0f 3d 1b c5 94 3b
       0.010007373 0.019433215 0.034986608 0.0045400984
000380 2f 24 b3 bb 4c 3b 05 bd ca e4 ad bb a1 01 b7 3c
       -0.00546696 -0.032527253 -0.005306815 0.022339644
000390 72 f2 a5 3a 23 87 db 3c 5e 8a dc bb 4d c9 b8 bb
       0.0012660755 0.026797837 -0.006730362 -0.0056392313
0003a0 c6 0f fe 3c ec aa fa 3c b0 12 c0 bb 5c 63 c4 bc
       0.03101338 0.03059908 -0.0058616027 -0.02397316
0003b0 86 b0 ea 3c c7 b7 88 3d 50 ee f4 ba 46 df ca 3c
       0.028648626 0.06675678 -0.0018686745 0.024764668
0003c0 7c 6d 90 39 f0 d3 ae bc e6 42 da bc ec 70 03 bb
       0.00027547393 -0.021341294 -0.026643228 -0.002005632
0003d0 7d 39 fd 3a 02 18 6f 3c 08 77 3d bc a5 03 44 bd
       0.0019319501 0.014593126 -0.011564024 -0.04785504
0003e0 62 a8 9f 3c a3 83 5f 3c ee dc 8d 3c 57 99 58 3d
       0.01948947 0.0136422245 0.017317262 0.05288061
0003f0 0d db ff bc 8d ee 3c 3b 32 9e b3 bc 22 f8 07 bd
       -0.031232381 0.002882871 -0.02192602 -0.033195622

bias f4 [18]
000000 cb 73 78 3b 4d 0f 10 bb 7f 0d 48 bc bf 7c 88 3b
       0.0037910815 -0.0021981776 -0.012210249 0.0041652615
000010 30 3f 29 3c ac b1 3f 3a 07 50 00 3d fc 6a 7c 3c
       0.0103300065 0.0007312547 0.03132632 0.015406366
000020 12 6c 8b bc 67 0d c6 3c 5f cd 9b 3b c4 55 e6 3a
       -0.017019305 0.024176313 0.0047547068 0.0017573168
000030 98 d4 77 3c 79 42 58 bc 39 fb b6 bc 82 2e aa 3c
       0.01512637 -0.013199442 -0.02233659 0.02077413
000040 15 b5 86 3b 0c c7 e4 3c
       0.004110942 0.027926944

weight f4 [1, 3136]
000000 b5 f1 b5 3b 47 45 a2 b9 35 55 0d bc 4d 4d 24 3b
       0.0055524954 -0.00030950663 -0.008626272 0.002507049
000010 56 59 ae 3b af 04 1d bb 0d ed 46 3b c0 c6 af 3a
       0.0053207083 -0.002395909 0.0030353696 0.0013410673
000020 99 eb a6 3a d7 0a 45 3b c3 4c 1a 3a dd 4d 99 3a
       0.0012735008 0.0030066276 0.0005886072 0.0011696179
000030 9a 8b ad ba 91 f7 1c 39 94 65 06 3b 49 88 db ba
       -0.0013240457 0.00014969545 0.0020507323 -0.001674899
000040 e5 2a 19 bb 67 89 a0 3a fd 70 f3 39 f2 24 71 3a
       -0.0023371514 0.001224798 0.00046432755 0.00091989257
000050 74 8a a8 b9 9a c8 38 bb f5 14 c9 ba 57 8d 7e 3b
       -0.00032146613 -0.002819574 -0.0015341329 0.003884157
000060 5c 6b f5 ba 77 1f 46 38 88 b0 a0 b9 47 03 ac b9
       -0.0018724012 4.7236183e-05 -0.00030649104 -0.00032808838
000070 fe 9d 26 3b 55 e1 89 39 f5 a5 2d 3b cf 23 b1 ba
       0.002542376 0.00026298562 0.0026496623 -0.00135147
000080 99 fd 32 3a 2f bc d7 ba 3c d8 a3 3b 5e aa ab 3a
       0.000682795 -0.0016459281 0.0050001424 0.0013097038
000090 26 36 60 3b 35 e6 93 3a 75 bd 05 ba 28 dc 1b ba
       0.0034211962 0.0011283817 -0.00051017787 -0.00059455866
0000a0 97 c6 9a 3b 1e d1 9b 3a 85 7e 78 ba a8 c9 44 b9
       0.004723381 0.0011887883 -0.0009479302 -0.0001876714
0000b0 f2 02 7e bb 3c 5f 61 bb 41 4c 46 bb e0 49 50 bb
       -0.003875908 -0.003438904 -0.0030257853 -0.0031782314
0000c0 cf 2d 10 3b 8d 1e 16 38 e2 b6 49 ba 55 f7 6b bb
       0.002199996 3.579124e-05 -0.0007694793 -0.0036005576
0000d0 8b dd 2c b9 41 2b 84 39 ed fe 45 ba 08 25 00 3b
       -0.0001648573 0.0002520923 -0.00075529405 0.0019553322
0000e0 ca ab 18 bb f4 ed 46 bb 42 a4 94 38 69 74 fc 3a
       -0.0023295754 -0.0030354233 7.087785e-05 0.0019260767
0000f0 e8 84 67 b9 f6 aa 0e bb bd 72 88 3a 23 30 c6 b9
       -0.00022079388 -0.002176938 0.0010410171 -0.00037801368
000100 b6 d3 c4 b8 28 73 9d ba a4 f6 02 ba ed 6a 08 37
       -9.3854425e-05 -0.0012012469 -0.0004995859 8.131127e-06
000110 6a fa a3 b8 4b 53 de b9 f6 92 0f 3a af b2 d9 3a
       -7.819089e-05 -0.00042405198 0.0005476916 0.0016609038
000120 dc 32 64 ba 62 ad d7 3a 8d 8e 0c ba 63 6e ab ba
       -0.00087050884 0.001645487 -0.0005361818 -0.0013079162
000130 24 6d d7 b9 d1 b2 47 b9 11 a2 49 b9 74 fb 11 3a
       -0.00041089312 -0.00019044733 -0.00019229228 0.00055687805
000140 16 d7 1c ba 74 99 1a bb 6a 7a 05 39 42 22 bd ba
       -0.0005982978 -0.002359 0.00012729471 -0.0014429765
000150 6b 87 82 ba 5a 4f 35 ba fa b6 12 bb a9 da 38 3b
       -0.0009958571 -0.00069164264 -0.0022386895 0.0028206503
000160 47 16 2f bb 11 dd 6a ba 6f d0 e7 ba 0f de ee 3a
       -0.002671616 -0.0008959333 -0.001768602 0.0018224138
000170 1e 25 02 3b 30 57 6e bb 8a 39 40 3a e2 33 e4 bb
       0.001985855 -0.0036367886 0.0007332793 -0.0069641927
000180 ce 42 f5 b8 ff a9 ef ba da 96 07 3b 6c 66 05 bb
       -0.00011694954 -0.0018284916 0.002068928 -0.0020355238
000190 97 b7 2d b9 2e 30 8a 3a 35 84 cd 3a a6 f9 17 39
       -0.00016566958 0.0010542923 0.001567966 0.00014493483
0001a0 ad d3 0c ba 20 d0 14 bb bb c8 4d bb 9e e9 24 3b
       -0.00053721183 -0.002270706 -0.0031400162 0.002516366
0001b0 af f5 3a bb c1 5c 73 bb 74 bf bf ba 72 89 d7 39
       -0.0028527786 -0.0037134143 -0.0014629201 0.000411104
0001c0 6e b0 17 bb b4 54 e7 ba 35 c7 13 3b 22 b9 2d 3a
       -0.0023145932 -0.0017649145 0.0022549157 0.0006627013
0001d0 b9 b4 48 ba 22 4e 28 bb b2 38 14 ba 14 b3 ca b9
       -0.00076563243 -0.0025681336 -0.00056542 -0.00038661866
0001e0 93 0c f0 39 8f 98 15 bb 97 2b 2c 3a 1a 8e ac 3a
       0.00045785736 -0.0022826528 0.00065677747 0.0013164908
0001f0 02 cd 9a 3b 28 6e af 3b 3a 7a 53 3b 50 e0 be ba
       0.004724146 0.005353708 0.0032268898 -0.00145627
000200 d4 f2 4a 3a 72 24 9a 3a d5 0a 48 bb 16 ce 35 bb
       0.00077418727 0.0011760129 -0.0030524035 -0.0027741245
000210 92 03 d3 ba ba 8b 59 3a 59 77 bd 3a 94 b3 ad 3b
       -0.0016099086 0.0008298714 0.0014455124 0.0053009484
000220 53 8b 72 bb ad e2 06 3c 0a 7a 9d 3a d2 0b 2e bb
       -0.0037009313 0.008232755 0.001201452 -0.0026557338
000230 19 b3 00 bb 7b f1 a8 3b 47 3a 69 3b 08 e0 79 ba
       -0.0019638 0.00515574 0.0035587715 -0.00095319794
000240 22 8b 04 bc dc 35 fa 39 35 3c a7 bb ba 16 30 3b
       -0.0080898125 0.00047723844 -0.005103613 0.0026869015
000250 c2 bb f7 ba f4 cd 06 bb 77 51 2a 3a c7 70 65 3b
       -0.0018900561 -0.0020569535 0.00064971246 0.0035009847
000260 ae 25 21 3b 88 6d 06 3b 0e e0 a9 b9 5d 27 9e 3a
       0.002458911 0.0020512063 -0.00032401126 0.0012066175
000270 1c be e6 3a 27 fc db b9 ec 73 f2 39 04 b2 5a ba
       0.0017604264 -0.00041958803 0.00046244205 -0.00083425664
000280 95 e4 07 3a 1a 71 11 bb b1 7a 23 b9 ab 05 11 3a
       0.00051839027 -0.0022192658 -0.00015590597 0.00055321556
000290 83 2a 81 3a 1d 72 25 bb 5d 19 3a b9 9e f4 61 39
       0.0009854588 -0.0025245019 -0.00017747791 0.00021548799
0002a0 4e f4 34 3b f5 7e 79 ba da ec 66 3a d4 af 06 39
       0.0027611437 -0.0009517514 0.00088090973 0.00012844737
0002b0 73 57 f1 3a 2c 08 36 3a b4 6a 5c ba 74 5c bd 39
       0.0018412903 0.0006943967 -0.0008408234 0.00036117772
0002c0 92 11 08 ba e4 c9 92 39 e4 72 bd 35 ec 28 03 3b
       -0.00051906065 0.0002799771 1.4115035e-06 0.0020013405
0002d0 40 bf f8 38 06 3e 0a ba 90 86 1c 39 0c 2d d0 3a
       0.000118611846 -0.00052735244 0.00014927448 0.0015882566
0002e0 17 08 34 3b 63 71 55 bb 23 bf ac ba 76 86 26 bb
       0.0027470642 -0.0032568804 -0.0013179522 -0.0025409735
0002f0 e1 de f3 ba 65 e1 6a 39 9c fb e5 3b d1 2e ce 3a
       -0.0018605852 0.00022399945 0.0070185196 0.0015730505
000300 8d d1 80 ba 0c 44 69 3b 2f 37 21 3a 30 fd 0a 3a
       -0.0009828076 0.0035593538 0.00061498856 0.000530201
000310 4c ad 9a b7 df 77 0d 38 19 33 79 ba 3b 6d 1c bb
       -1.8438928e-05 3.372866e-05 -0.00095062103 -0.0023868817
000320 b7 fe 0d 3a 73 09 87 3a 1c 8c 1a bb 0c a4 d1 3a
       0.00054166786 0.0010302499 -0.0023582047 0.0015994324
000330 c7 a0 e2 39 76 bc 6a 3b 1c e7 f3 3a 42 4f f1 3a
       0.00043225868 0.0035817898 0.0018608305 0.0018410461
000340 2e 12 d4 ba b8 cc f8 39 0d fb 12 3b b2 86 9f b9
       -0.0016179734 0.00047454773 0.002242747 -0.000304272
000350 f8 88 a7 ba 00 77 82 39 6f 3a f3 ba ec 68 2f 3b
       -0.0012781909 0.00024884194 -0.0018556843 0.002676542
000360 b6 48 b9 3a c7 44 f8 3a 86 e2 f9 b9 56 d2 c5 b9
       0.001413605 0.0018941396 -0.00047661754 -0.0003773148
000370 c3 08 9b ba 20 21 75 3a bc b1 f1 b8 2f d2 bd 3b
       -0.0011828173 0.00093509443 -0.00011524881 0.005792878
000380 c9 6d b8 3b 69 69 4e 3b ac d2 91 ba 30 99 f7 b9
       0.005628322 0.0031495935 -0.0011125407 -0.00047225645
000390 3c ef 86 b9 2c d3 df ba d0 01 8b 39 58 54 5b bb
       -0.00025736715 -0.0017076484 0.00026513496 -0.003346702
0003a0 02 2c 54 ba 83 81 1d bb 6f c7 62 3b f4 e3 8d ba
       -0.0008093716 -0.0024033494 0.0034603735 -0.0010825382
0003b0 d3 10 72 bb 65 2b d3 bb 95 b8 a7 3b 63 c4 a1 bb
       -0.0036936298 -0.006444382 0.0051184394 -0.004936741
0003c0 a8 e8 11 3b 55 04 95 39 08 99 0a bb b3 89 56 3a
       0.0022263918 0.00028422722 -0.0021148343 0.0008183971
0003d0 1a 5c a0 3b db 4b fb ba 22 c3 c5 39 85 eb 96 ba
       0.004893792 -0.0019172387 0.00037720153 -0.0011514282
0003e0 05 72 f7 ba f3 3a 90 3a 24 a7 c0 39 0e 51 f8 39
       -0.0018878585 0.0011003896 0.00036745623 0.00047362637
0003f0 bd b8 e4 38 55 68 c9 39 eb cf 37 b9 49 f0 d3 3a
       0.000109062974 0.0003841544 -0.00017529695 0.0016169633
