PPO/Pong/FINAL.PongNoFrameskip-v4.MODEL (torch_old, 417862 bytes, 9 tensors)

weight f4 [32, 4, 8, 8]
0	0xbd3e4593	-0.04645307
1	0x3b721320	0.003693767
2	0xbc8a65fe	-0.016894337
3	0xbaedab0c	-0.0018132641
4	0xbcb79822	-0.02241141
5	0xbc6e9534	-0.01456194
6	0xbc26f47c	-0.010190126
7	0x3cfcaad5	0.030843178
8	0xbad1e8bc	-0.0016014795
9	0x3c548d93	0.012973207
10	0x3c514205	0.012772088
11	0xbd49fba3	-0.049312245
12	0xbd8242ef	-0.06360423
13	0x3d132352	0.035922356
14	0x3cac3a43	0.021023875
15	0xbcec39cb	-0.028836152
16	0xbd7dfc9a	-0.062008478
17	0xb91992a2	-0.00014645842
18	0x3d548615	0.051885683
19	0xbd5bb351	-0.053637806
20	0xbd0ce090	-0.034393847
21	0xbd29fdf5	-0.041501958
22	0xb9f8daf8	-0.0004746539
23	0x3ca8ae17	0.020590825
24	0xbd725309	-0.05916122
25	0xbc87ba0f	-0.016568212
26	0xbd6bd63e	-0.057577364
27	0x3d4dbe93	0.050230574
28	0x3cd5833a	0.02606355
29	0x3d244134	0.040101245
30	0xbbac76a5	-0.005263167
31	0x3d45a5e7	0.04825392
32	0x3d12e50d	0.03586297
33	0xbd5d8092	-0.054077692
34	0x3c39714f	0.011318519
35	0xbd6dc411	-0.05804831
36	0x3bdc82bb	0.0067294515
37	0xbcd34ae7	-0.025792552
38	0xbd0318f2	-0.03200621
39	0xbc2d2f01	-0.010570289
40	0x3d4489e2	0.047983058
41	0xbc273b26	-0.010206973
42	0x3d103b5e	0.035212867
43	0xba10b612	-0.00055202947
44	0x3d406a0a	0.046976127
45	0x3b105e72	0.002202895
46	0xbd14a8c4	-0.03629376
47	0x3ca51e73	0.02015612
48	0x3d2897f1	0.041160528
49	0x3d64ad46	0.05582931
50	0xbd19c598	-0.037541956
51	0xbd10c5e6	-0.03534498
52	0x3c8d1cd7	0.017225666
53	0x3c571d4f	0.013129546
54	0x3c021fab	0.007942121
55	0xbd6e8efb	-0.058241826
56	0xbd396516	-0.04526242
57	0xbca88c3d	-0.020574683
58	0x3c8ad08c	0.016945146
59	0x3d3a1b02	0.045435913
60	0xbd0ac77c	-0.03388165
61	0xbd607d9b	-0.054807287
62	0xbbe48251	-0.0069735427
63	0x3d0fac1f	0.035076257
64	0xbcdab363	-0.026696866
65	0x3cd6db43	0.026227599
66	0xbd828e35	-0.0637478
67	0x3d6bcdd3	0.057569336
68	0xbc5d5c85	-0.013510828
69	0x3d612aae	0.054972343
70	0x3cab4302	0.020905975
71	0xbc296e9d	-0.010341314
72	0x3c39bf36	0.011337092
73	0x3d117a08	0.03551677
74	0xbd41327e	-0.047167294
75	0x3c820c03	0.015874868
76	0xbc428bb0	-0.011874124
77	0xba9b904d	-0.0011868567
78	0xbd09679d	-0.03354608
79	0xbcff3077	-0.03115104
80	0x3cc827d1	0.024433048
81	0xbd543307	-0.051806476
82	0x3d5d552a	0.054036297
83	0x3d5ea9e7	0.05436125
84	0xbc707d2e	-0.014678283
85	0xbcae239a	-0.02125721
86	0xbcc7c709	-0.0243869
87	0x3d6b848b	0.05749945
88	0xbd41c7e3	-0.047309767
89	0xbca1484c	-0.019687794
90	0xbd00580c	-0.031333968
91	0x3d50cd9a	0.050977327
92	0xbc878a50	-0.016545445
93	0x3bb1e565	0.0054289573
94	0x3c621cdc	0.013800826
95	0xbc17d2f6	-0.009266606
96	0x3d48c857	0.049019184
97	0x3ce60219	0.028077172
98	0x3d1dcacc	0.03852348
99	0x3d202ac1	0.039103273
100	0x3cea0ce0	0.028570592
101	0xbd1d9cba	-0.038479544
102	0xba97fbe0	-0.001159545
103	0x3d585e88	0.052824527
104	0xbcbb384e	-0.022853997
105	0x3c05b71e	0.008161334
106	0xbd764426	-0.060123585
107	0xbd71dcd5	-0.059048492
108	0x3d2a8a25	0.04163565
109	0xbd536a80	-0.05161524
110	0xbc5ef618	-0.013608478
111	0x3cf5a71d	0.029986912
112	0x3cc0377d	0.023463959
113	0x3cc76b3a	0.024343122
114	0x3d161b63	0.03664721
115	0x3d31523a	0.043291308
116	0xbcf6faeb	-0.030148944
117	0xbc546b29	-0.012965002
118	0x3c3cfe0c	0.011535179
119	0xbd2bfc1e	-0.041988485
120	0x3d0f5fa3	0.035003316
121	0xbc8d5216	-0.017251056
122	0xbd0d41c9	-0.034486566
123	0xbc13d768	-0.009023525
124	0x3d4228bd	0.047402132
125	0x3d386249	0.045015607
126	0x3c8bdf8e	0.017074373
127	0xbcb5a579	-0.02217363
128	0xbd56502b	-0.052322548
129	0xbbd71805	-0.0065641426
130	0x3b6a4188	0.0035744626
131	0x3cc0df2e	0.02354392
132	0xbd08d6d4	-0.033408
133	0x3d2cae30	0.042158306
134	0xbcbb1ca0	-0.022840798
135	0xbd55f0a6	-0.052231453
136	0x3bae728c	0.0053237136
137	0x3d096ff2	0.033554025
138	0xbd4697a7	-0.04848447
139	0x3cc3f5ca	0.023920912
140	0xbc2d7fdc	-0.010589566
141	0xbd82cdd2	-0.06386913
142	0xbbacaa82	-0.0052693496
143	0xbc83cd8c	-0.016089223
144	0xbd6db096	-0.058029734
145	0xbc9ac9b8	-0.018895015
146	0xbd0acd2b	-0.03388707
147	0x3cdbaf8a	0.026817102
148	0x3d585304	0.052813545
149	0x3cb22a9d	0.021748835
150	0x3d14d4e0	0.036335826
151	0xbd3dabc2	-0.04630638
152	0x3d27898f	0.04090267
153	0x3d39e47e	0.045383923
154	0xbd7be9d2	-0.061502285
155	0xbc8acaf9	-0.016942488
156	0xbcdba77b	-0.02681326
157	0x3d3dfcb4	0.046383575
158	0xbd89a351	-0.06720603
159	0xbcde676e	-0.027148928
160	0x3d17bd67	0.037045863
161	0xbc61f6a6	-0.013791716
162	0x3c967c0b	0.018369695
163	0xbce2a2ca	-0.027665514
164	0xbc793e50	-0.01521261
165	0xbcbcca69	-0.023045735
166	0xbd5a707c	-0.05332993
167	0x3d305691	0.043051306
168	0xb98847ee	-0.00025993533
169	0xbd61435b	-0.054995876
170	0xbd2afe40	-0.041746378
171	0xbd4ef8a7	-0.050530102
172	0xbd6b9370	-0.057513654
173	0xbd73bfdb	-0.05950914
174	0xbd542d02	-0.051800735
175	0x3d5e7cfa	0.054318406
176	0x3d202c24	0.039104596
177	0xbd43c34a	-0.047793664
178	0xbd28cbc3	-0.041209947
179	0xbd75e7cb	-0.060035508
180	0x3c3ff6a9	0.011716523
181	0x3d188b0f	0.03724199
182	0x3cb21744	0.02173961
183	0xbd12f9d6	-0.035882793
184	0xbd33e6b1	-0.043921176
185	0xbbf8a20d	-0.0075876773
186	0x3d01ef19	0.031722162
187	0x3cc38256	0.02386586
188	0xbd1040c1	-0.035218004
189	0x3d290f83	0.04127456
190	0xbd538466	-0.051639937
191	0x3ce967ef	0.028491942
192	0x3cdfe0f1	0.02732894
193	0x3d04b04f	0.032394703
194	0x3c8e7319	0.017388867
195	0xbd797fe1	-0.06091297
196	0xbc1066e8	-0.008813597
197	0xbcef9f94	-0.029250897
198	0x3c4e9b9a	0.0126103405
199	0xbd1022d5	-0.03518947
200	0x3c8f3c85	0.017484913
201	0x3c973f21	0.01846272
202	0x3b17d5ee	0.0023168284
203	0xbd01bc3c	-0.031673655
204	0x3d1bcb8e	0.03803592
205	0x3c7ac040	0.015304625
206	0xbc0c7b93	-0.008574384
207	0x3c6a6330	0.014305875
208	0x3d3799ff	0.044824596
209	0x3c0f6da1	0.008754165
210	0xbc023cb3	-0.007949042
211	0x3d118dcc	0.03553562
212	0xbd8432e1	-0.06455017
213	0x3d222802	0.039588936
214	0xbd402c59	-0.046917293
215	0x3cce2bcf	0.025167374
216	0xbd35bb06	-0.044367813
217	0xbbfda57e	-0.0077406755
218	0x3d0846d4	0.033270672
219	0x3cda0def	0.026617972
220	0xbd08bd8f	-0.033383902
221	0x3d35001a	0.04418955
222	0xbcccbc44	-0.024992116
223	0x3d497a6b	0.049189012
224	0x3c567e74	0.013091672
225	0x3d08dc0d	0.03341298
226	0x3cb447b6	0.02200685
227	0x3d25c7fd	0.040473927
228	0xbc1fc778	-0.009752147
229	0x3c9f39b8	0.019436702
230	0xbd5dc64c	-0.05414419
231	0xbce1283b	-0.027485004
232	0xbd42cc8a	-0.047558345
233	0xbd52f8a2	-0.051506646
234	0xbd5ea023	-0.054351937
235	0xbcc67322	-0.024224821
236	0xbd262ff2	-0.040573068
237	0x3cfcab96	0.030843537
238	0xbd8742d8	-0.06604546
239	0x3cbaf368	0.022821143
240	0x3cd9e7c7	0.026599778
241	0x3d3893c8	0.04506281
242	0xbd014464	-0.031559363
243	0xbcf600ad	-0.03002962
244	0x3ccd6c9a	0.0250762
245	0x3c182ef2	0.009288536
246	0xbd3469be	-0.044046156
247	0xbd8e56f0	-0.06950176
248	0xbc2d6dc4	-0.010585252
249	0xbc616909	-0.0137579525
250	0x3cf7a7ea	0.030231435
251	0xbcc11ab0	-0.023572296
252	0x3d0c828d	0.03430419
253	0x3d08f80b	0.033439677
254	0x3d147272	0.036241956
255	0x3c769ac8	0.015051551

bias f4 [32]
0	0x3c2a8fd1	0.010410265
1	0x3ca75f8e	0.020431306
2	0xbd482cb6	-0.048870765
3	0x3d1c8249	0.038210187
4	0x3c3246fb	0.010881181
5	0xbc036008	-0.008018501
6	0x3d08e545	0.033421773
7	0xbd01b4e8	-0.031666666
8	0x3bbf16d0	0.005831577
9	0xbd7528c5	-0.059853334
10	0x3c82415d	0.015900308
11	0xbd186a33	-0.037210654
12	0xbd33dc42	-0.043911226
13	0x3d49d5d7	0.0492762
14	0xbc400d70	-0.011721954
15	0x3d6c1bc8	0.05764368
16	0xbd2a3f31	-0.04156417
17	0x3cfb0f2c	0.030646883
18	0x3d50f2ec	0.05101292
19	0xbd0ca5c1	-0.034337763
20	0x3d65dd2c	0.05611913
21	0x3c149b76	0.009070268
22	0x3abe87b3	0.0014536291
23	0x3d3616e0	0.04445541
24	0xbd26dd5d	-0.040738452
25	0x3d0aa78e	0.0338512
26	0x3d267950	0.040643036
27	0xbc5de2f2	-0.0135428775
28	0xbd76a608	-0.060216933
29	0xbca5b13a	-0.02022611
30	0x3d384468	0.044987112
31	0xbc50968e	-0.012731208

weight f4 [64, 32, 4, 4]
0	0xbc2615bb	-0.010137017
1	0x3b3eaadb	0.0029093537
2	0xbcb1205d	-0.021621877
3	0xbd3184a5	-0.04333939
4	0xbd1dfd8a	-0.03857187
5	0x3d1cdd63	0.03829707
6	0x3d256563	0.040379893
7	0xbd0fac55	-0.035076458
8	0xbcf706cd	-0.03015461
9	0xbd200d53	-0.039075207
10	0x3b09951b	0.0020993415
11	0xbd23daab	-0.04000346
12	0xbd1df252	-0.038561173
13	0x3d0ae8f1	0.033913556
14	0x3c94af3d	0.018149966
15	0xbd2870be	-0.041123144
16	0xbcadfe4a	-0.021239419
17	0xbd09117a	-0.033463933
18	0x3c88a438	0.016679868
19	0x39a635cc	0.0003170207
20	0x3c9c4090	0.019073755
21	0x3cebf01e	0.02880102
22	0xbd14b8cc	-0.03630905
23	0x3d27c3c7	0.040958192
24	0xbd28be7a	-0.041197278
25	0x3cbc0beb	0.022954902
26	0x3c950a97	0.018193526
27	0x3ce7a94f	0.028278975
28	0x3c925c4a	0.017866272
29	0x3cc75934	0.024334528
30	0x3d1bd23b	0.03804229
31	0x3c8c6fd3	0.017143166
32	0xbcfe28a7	-0.031025244
33	0xbcda7452	-0.026666794
34	0x3ca60634	0.02026663
35	0x3cb67b2b	0.022275528
36	0x3ce1dc28	0.027570799
37	0x3c662a74	0.014048208
38	0xbc7aeb29	-0.015314856
39	0xbc931342	-0.017953519
40	0xbc91ffd6	-0.017822187
41	0xba259c2b	-0.00063175213
42	0xbbaba45c	-0.005238099
43	0xbd037869	-0.032097254
44	0x3d21f029	0.039535675
45	0x3d07a58f	0.033116873
46	0x3d09f2e3	0.0336789
47	0xbcc57721	-0.024104657
48	0x3d0501d7	0.032472458
49	0xbc80be28	-0.015715674
50	0x3d0c720f	0.034288462
51	0xbc05fa04	-0.008177284
52	0xbd263d9e	-0.040586106
53	0xbc976ac2	-0.018483523
54	0xbc3711b4	-0.011173654
55	0x3ce541f8	0.027985558
56	0x3d1d72d7	0.038439598
57	0x3d1da33a	0.038485743
58	0x3c2a8520	0.010407716
59	0xbc5529da	-0.0130104665
60	0x3cce0b4e	0.025151875
61	0xbc802f69	-0.015647607
62	0xbc8b7bcc	-0.017026804
63	0xbce51c8d	-0.027967716
64	0xbd1a38bb	-0.03765176
65	0x3bd8a5a8	0.0066115446
66	0x3d3318df	0.04372489
67	0x3ca9e1de	0.020737585
68	0x3b9e32b0	0.0048278198
69	0x3ca7ae7e	0.020468947
70	0xbc8b7a2d	-0.017026031
71	0x3c1b7298	0.0094877705
72	0x3cb8b44a	0.022546906
73	0xbd1a0562	-0.03760279
74	0xbd0ba19e	-0.034089677
75	0xbd31c5d5	-0.043401558
76	0xbc8c0261	-0.017090978
77	0xbbdfcd78	-0.0068299137
78	0xbaa7bd80	-0.0012797564
79	0xbd31d1c3	-0.043412935
80	0xbd448cec	-0.047985956
81	0xbd1e9017	-0.038711634
82	0xbcb43583	-0.021998173
83	0x3c94bd5b	0.018156698
84	0x3d220c4c	0.03956251
85	0x3c0ff811	0.008787171
86	0xbbe85716	-0.0070904596
87	0x3b6ca340	0.0036108047
88	0xbc938ee0	-0.018012464
89	0xbccfda49	-0.025372641
90	0x3ce219f6	0.02760027
91	0x3d4cb9ec	0.049981996
92	0xbb1dfe1c	-0.002410776
93	0xbc84ce12	-0.016211543
94	0xbc721c4f	-0.014777257
95	0xbba35e45	-0.004985603
96	0x3ce521cc	0.027970217
97	0x3d6a2376	0.057162724
98	0xbd9ad975	-0.07561008
99	0xbd489539	-0.048970435
100	0x3db8ed9f	0.090296976
101	0x3d8a117e	0.067416176
102	0xbd0e1098	-0.034683794
103	0xbcefd9e6	-0.029278707
104	0xbbe12b67	-0.006871629
105	0xbb376e96	-0.0027989498
106	0xbca726b5	-0.0204042
107	0x3c65e2fb	0.014031167
108	0xbd50c4f1	-0.050969068
109	0x3d389702	0.045065887
110	0x3d4dfb1f	0.050288316
111	0x3b9018fd	0.00439751
112	0xbce81e41	-0.028334739
113	0x3d008d32	0.031384654
114	0xbca25572	-0.019816134
115	0xbcb095d7	-0.021555824
116	0xbc36248f	-0.011117115
117	0x3d04e97d	0.032449234
118	0xbc8f0e3f	-0.017462848
119	0xbd1de7bc	-0.038551077
120	0xbc767952	-0.015043573
121	0x3c65d41a	0.01402762
122	0xbd2827cc	-0.04105358
123	0xbd34f835	-0.04418202
124	0x3d06691b	0.03281508
125	0x3c99301c	0.018699698
126	0xbce7a254	-0.028275646
127	0xbcea19c6	-0.028576743
128	0x3c67fbc8	0.01415915
129	0x3c1edc34	0.009696055
130	0xbd1a5f41	-0.037688497
131	0x3ca11b3a	0.019666303
132	0xbc34ee64	-0.011043165
133	0x3b2230c0	0.0024748296
134	0xbced08cc	-0.028934859
135	0x3d270f1f	0.040785905
136	0xbc9cf412	-0.01915935
137	0x3c117c0c	0.008879673
138	0xbcac219a	-0.021012116
139	0xbd28a2e1	-0.04117096
140	0xbb6ead30	-0.0036419146
141	0x3d30d635	0.043173034
142	0xbc758986	-0.014986401
143	0xbc0c72ec	-0.008572321
144	0x3b91befa	0.004447815
145	0xbbdca85a	-0.0067339363
146	0xbc83e8cc	-0.016102217
147	0xbc307b72	-0.010771619
148	0xbc063d6c	-0.008193355
149	0x3cfc15e2	0.030772153
150	0x3cb4d2e6	0.02207322
151	0x3d0acef0	0.033888757
152	0xba7da1dc	-0.0009675303
153	0xbb008769	-0.001961196
154	0x3cbeb114	0.023277797
155	0x3c2b6fa2	0.010463627
156	0x3d3180e9	0.04333583
157	0xbc16c7f8	-0.00920295
158	0xbd093d97	-0.033506002
159	0xbcd87d85	-0.02642704
160	0x3d156974	0.03647752
161	0xbc7da818	-0.015481971
162	0x3c62d963	0.013845774
163	0x3b4c0572	0.0031131175
164	0xbb8e9c57	-0.0043521333
165	0x3d0bb131	0.03410453
166	0x3be858af	0.00709065
167	0xbd09cf56	-0.033644997
168	0x3c4ff901	0.0126936445
169	0xbcbd823f	-0.023133395
170	0x3c20edea	0.009822348
171	0x3c5b913b	0.013401325
172	0xbd051d34	-0.032498553
173	0x3d1db8a0	0.03850615
174	0x3c946fbd	0.018119687
175	0xbc5efacd	-0.0136096
176	0x3c1c0a3b	0.0095239235
177	0xbcb97303	-0.02263785
178	0x3ca3b6bb	0.019984594
179	0xbd19c544	-0.037541643
180	0xbc326a69	-0.010889628
181	0xbabd7471	-0.0014454258
182	0x3d1b603b	0.03793357
183	0x3d217127	0.03941455
184	0x3a891766	0.0010459244
185	0xbc9013d9	-0.01758759
186	0x3d2191ca	0.039445676
187	0x3c456c2a	0.012049714
188	0xbca4818c	-0.020081304
189	0xbc90ece6	-0.017691087
190	0x3be407ea	0.0069589512
191	0x3bf77446	0.0075517027
192	0x3c0e4202	0.00868273
193	0xbca4f14e	-0.020134594
194	0xbba7bdba	-0.0051190527
195	0x3cc8bd11	0.024504216
196	0xbcf625d0	-0.030047327
197	0xbc0586b0	-0.008149788
198	0xbc52c57e	-0.012864469
199	0xbcf4d0ef	-0.029884784
200	0x3c2f42fa	0.010697121
201	0xbc95e739	-0.018298732
202	0xbbc0166d	-0.0058620484
203	0x3d0842ba	0.03326676
204	0xbce4ac46	-0.027914178
205	0x3d2d1547	0.04225662
206	0x3cc6219a	0.024185944
207	0x3cd2cd17	0.02573256
208	0xbcd70806	-0.026248943
209	0x3cda396c	0.026638709
210	0x3c241870	0.010015592
211	0x3c329aa7	0.01090113
212	0xbbe43d55	-0.006965319
213	0x3d14d846	0.036339067
214	0x3d2311cf	0.039811905
215	0xbcbd2c8c	-0.02309253
216	0xbb47797c	-0.00304374
217	0xbcc8ab3d	-0.024495715
218	0xb9b4b07e	-0.00034463772
219	0x3d2c9815	0.042137224
220	0xbd0a541d	-0.033771623
221	0xbd178a99	-0.03699741
222	0xbc849f3b	-0.016189208
223	0x3c5c2d93	0.0134386
224	0xbc9ea678	-0.019366488
225	0xbce5d365	-0.028054902
226	0xbcf081e3	-0.02935881
227	0xbd07a2a7	-0.0331141
228	0xbd21e72b	-0.0395271
229	0xbd0c916f	-0.034318384
230	0xbcb830f4	-0.02248428
231	0xbd103134	-0.035203174
232	0x3d02ce11	0.0319348
233	0x3cf6d32f	0.030129997
234	0x3bcf36b1	0.0063236584
235	0x3d17cf0f	0.0370627
236	0x3d0c801c	0.034301862
237	0x3d1a3c11	0.03765494
238	0x3cf10c1a	0.029424716
239	0xbccb5449	-0.024820464
240	0x3c7d5639	0.015462452
241	0x3c161252	0.009159641
242	0x3d03312d	0.03202932
243	0xb97fecaf	-0.00024406867
244	0xbb3003f4	-0.0026857825
245	0xbd0bb2b7	-0.034105983
246	0x3b6c465b	0.0036052677
247	0xbd2aa2a2	-0.041659005
248	0x3c056a90	0.008143082
249	0xbc8d9b08	-0.017285839
250	0xbb14f232	-0.0022727367
251	0x3cbd13f8	0.02308081
252	0x3cbf24a9	0.02333291
253	0xbc668796	-0.014070412
254	0xbca1f0df	-0.019768177
255	0x3cc3f8d5	0.023922363

bias f4 [64]
0	0x3c9b0473	0.01892302
1	0xbcf0566f	-0.02933809
2	0x3c179b37	0.009253315
3	0x3d416a33	0.04722042
4	0x3c1641cd	0.009170962
5	0xbcc041e0	-0.023468912
6	0x3b74d415	0.0037357856
7	0x3cda91a9	0.026680784
8	0x3d02aa97	0.03190097
9	0x3c17a86f	0.009256466
10	0xbc9f93c4	-0.01947964
11	0x3c0f6d1f	0.008754044
12	0x3ab7b493	0.0014015607
13	0x3b698f8b	0.0035638537
14	0x3ca122a3	0.019669836
15	0x3c505d17	0.012717507
16	0xbbbf77be	-0.005843132
17	0x3ca12b82	0.019674066
18	0x3c2383b3	0.00998013
19	0x3d749304	0.059710518
20	0x39fc8e21	0.0004817108
21	0x3d399fc9	0.0453184
22	0xbce16641	-0.027514579
23	0x3c836544	0.016039498
24	0x3d0752e9	0.033038054
25	0x3c947eaf	0.018126814
26	0xbd3aae75	-0.04557653
27	0xbb67ba58	-0.0035358872
28	0x3d0a78a7	0.03380647
29	0x3d00c6fe	0.031439774
30	0x3c389d5c	0.011267986
31	0x3d21a7ac	0.039466545
32	0xbc5cfa97	-0.01348748
33	0xbc9fd6d8	-0.019511625
34	0x3c8d7472	0.01726744
35	0x3c8f65e2	0.017504636
36	0x3d66a5bd	0.056310404
37	0xbc711dd7	-0.014716587
38	0x3c282e95	0.010265012
39	0x3d3aa2f0	0.045565546
40	0xbd1269a2	-0.03574527
41	0x3c15a2cb	0.009133051
42	0xbb8f4af7	-0.00437295
43	0x3c9468a2	0.018116299
44	0xbcd840ae	-0.02639803
45	0x3d491dad	0.049100567
46	0xbbc220f1	-0.005924337
47	0xbc439c4d	-0.0119391205
48	0xbbecb07b	-0.0072231865
49	0x3d66be66	0.05633392
50	0xba450e44	-0.00075170794
51	0x3bfecdbc	0.0077759903
52	0xb9e7cc0d	-0.00044211783
53	0x3d9217cb	0.071334444
54	0x3c4708e7	0.012148119
55	0xbcf3f981	-0.029782059
56	0x3d029530	0.031880558
57	0x3c045d98	0.008078955
58	0xbd226eee	-0.039656572
59	0x3c0959de	0.008383242
60	0x3d251973	0.040307473
61	0xbd448bfd	-0.047985066
62	0xbcaedcd9	-0.021345543
63	0xbcc7b2f2	-0.02437732

weight f4 [64, 64, 3, 3]
0	0x3a166bc8	0.00057381066
1	0xbce7337c	-0.028222792
2	0xbc474cfc	-0.012164351
3	0x3d4047e2	0.046943553
4	0xbd3a31c9	-0.045457635
5	0x3bd133c6	0.0063843457
6	0xbccf4a47	-0.025303973
7	0xbcb72949	-0.022358553
8	0xbaf8e74d	-0.0018989831
9	0xbd48ee20	-0.04905522
10	0x3d033bb9	0.032039378
11	0x3c2522f5	0.010079135
12	0xbbc2bf92	-0.005943247
13	0x3bd729df	0.0065662707
14	0x3cdb61e0	0.026780069
15	0xbd70e6ad	-0.05881374
16	0xbd33334f	-0.043750104
17	0xbcf752e0	-0.030190885
18	0x3cababad	0.020955885
19	0x3d107612	0.03526885
20	0x3ccc57ac	0.024944149
21	0xbcbcd088	-0.023048654
22	0x3ccb5de0	0.024825037
23	0xbc081253	-0.00830515
24	0xbaef19b1	-0.001824191
25	0xbd1b1a32	-0.03786678
26	0xbcd5fd32	-0.02612171
27	0xbc24d2a9	-0.010059991
28	0x3d237d46	0.039914392
29	0x3d15bfb8	0.03655979
30	0x3b00e438	0.001966728
31	0x3be4327d	0.0069640265
32	0xbd203b15	-0.039118845
33	0xbc71dfa8	-0.014762796
34	0xbd417087	-0.047226455
35	0xbc6f0c71	-0.014590369
36	0x3bf76bd3	0.0075506954
37	0xbcb19f31	-0.021682354
38	0xbd0dc1e3	-0.034608733
39	0x3c4286e3	0.01187298
40	0xbd0d7f37	-0.03454515
41	0x3a6200e0	0.0008621346
42	0x3ce7ebbd	0.028310651
43	0x3d04a1e5	0.032380957
44	0xbd0a2a93	-0.03373201
45	0x3cee01c2	0.029053573
46	0xbd12347b	-0.03569458
47	0x3cc35ee6	0.023848962
48	0xbb65af9d	-0.00350473
49	0x3becc4b3	0.007225597
50	0xbcc1c457	-0.023653192
51	0x3a1b5765	0.00059258036
52	0xbc240553	-0.010011035
53	0xbd9f7f90	-0.077880025
54	0xbc5fe92b	-0.013666431
55	0xbd43be02	-0.047788627
56	0x3c3a6346	0.011376208
57	0xbcb1dfb8	-0.021713123
58	0x3cd01721	0.025401654
59	0xbcd45c94	-0.025923051
60	0x3cdf189c	0.027233414
61	0x3d72a67b	0.0592408
62	0x3bdfb4ee	0.0068269884
63	0x3c0213f1	0.007939325
64	0x3d3f7856	0.04674562
65	0x3d81809c	0.063233584
66	0x3d229cc9	0.039700303
67	0x3d80b800	0.06285095
68	0x3d882792	0.066481724
69	0xbd1c7089	-0.03819326
70	0x3d5467aa	0.051856674
71	0xbc174e74	-0.009235013
72	0xbc8bed22	-0.017080847
73	0xbd3adadc	-0.045618877
74	0xbce19c9b	-0.027540496
75	0xbbce03d9	-0.00628708
76	0xbc6cee6f	-0.014461144
77	0x3c30fab8	0.0108019635
78	0xbcb14423	-0.021638935
79	0x3d67e106	0.056611083
80	0x3ba1a515	0.0049330094
81	0x3c681d90	0.0141672045
82	0xbc9893b7	-0.018625123
83	0xbc8bd866	-0.01707096
84	0x3d280cce	0.041027837
85	0xbcade843	-0.021228915
86	0x3d1f910f	0.038956698
87	0x3d9cc08b	0.07653912
88	0xbcbb6e64	-0.022879787
89	0xbcec9f3a	-0.028884519
90	0xbbc16b6f	-0.0059026997
91	0x3abf1df2	0.0014581068
92	0x3c65b0f3	0.014019239
93	0x3d5720ae	0.0525214
94	0x3d42596b	0.047448557
95	0xbd3ff6c9	-0.046866212
96	0xbcf1210e	-0.029434707
97	0x3d31eb51	0.043437306
98	0x3c2dc4f2	0.010606037
99	0xbc16efa8	-0.009212412
100	0x3ba3c13f	0.004997402
101	0x3bff1f92	0.007785746
102	0xbc6520cf	-0.013984873
103	0x3c6f162b	0.014592688
104	0x3c8d557c	0.017252676
105	0x3c9eeb90	0.019399434
106	0x3cf158ee	0.02946135
107	0x3b555f38	0.0032557976
108	0xbc604592	-0.013688462
109	0xbd986ef2	-0.07443036
110	0xbc3e2b68	-0.011607029
111	0xbca923d2	-0.020646963
112	0xbdacc1e0	-0.08435416
113	0xbc659795	-0.014013191
114	0xbcbc3015	-0.022972146
115	0xbc5dd631	-0.013539837
116	0xbbc60eaa	-0.0060442286
117	0x3dd14ffb	0.10220333
118	0x3c8be786	0.017078172
119	0x3d3d8848	0.046272546
120	0x3d6291c4	0.055314794
121	0xbd886b56	-0.06661098
122	0xbd59a9f0	-0.05314058
123	0xba2cf538	-0.000659782
124	0xbd6240e1	-0.055237655
125	0x3c9506ca	0.018191714
126	0x3ca1a6c7	0.019732846
127	0xbc08d6c7	-0.008351988
128	0xbb3c349a	-0.0028717876
129	0xbc1d759b	-0.009610559
130	0xbcedafe9	-0.029014545
131	0x3c24df8a	0.0100630615
132	0xbb8c34d8	-0.0042787604
133	0x3b79baec	0.00381058
134	0xbc35e2dd	-0.011101452
135	0x3c10af76	0.008830896
136	0xbce1f5bc	-0.027582996
137	0x3cf43d06	0.029814254
138	0xbbfd3524	-0.007727282
139	0x3d2bd123	0.041947495
140	0x3c068c3f	0.008212148
141	0x3c97b6cf	0.018519787
142	0x3caac98e	0.020848062
143	0x3b888578	0.0041663013
144	0x3d16af2a	0.036788143
145	0xbcbaa0f2	-0.022781823
146	0xbd5c40e9	-0.05377284
147	0xbd072066	-0.032989882
148	0xbd56c698	-0.052435488
149	0xbc1582ec	-0.0091254525
150	0xbd5bdd4b	-0.05367784
151	0xbd208f9a	-0.03919945
152	0xbd0b2aac	-0.033976242
153	0xbcac3092	-0.021019254
154	0xbc852b58	-0.01625602
155	0x3cb9ef7d	0.022697205
156	0x3c6d253e	0.014474211
157	0xbbcbd9f1	-0.006221049
158	0xbcfc7566	-0.030817699
159	0x3d62df7b	0.05538891
160	0x3c6f1100	0.014591455
161	0x3c1450ef	0.009052499
162	0xbc873057	-0.016502542
163	0x3d65b695	0.056082327
164	0x3d13bc31	0.036068145
165	0xbd34e589	-0.044164214
166	0xbcc98602	-0.024600033
167	0xbc9a9c4f	-0.018873362
168	0x3b06d0aa	0.002057115
169	0xbb07bc03	-0.002071143
170	0xbd255b37	-0.040370192
171	0xbd90bded	-0.070674755
172	0xbcad6bdb	-0.021169594
173	0xbcf8c0e6	-0.030365419
174	0x3b75a046	0.0037479564
175	0x3cd099a3	0.025463885
176	0x3977b391	0.0002362265
177	0x3ca73a32	0.020413492
178	0xbd7304e0	-0.05933082
179	0x3b5a287e	0.0033288295
180	0xbc83d7fb	-0.016094198
181	0x3d399cac	0.04531543
182	0x3d4b2e26	0.049604557
183	0xbcd6604e	-0.026168969
184	0xbb10e87c	-0.0022111228
185	0xbd325e42	-0.043546923
186	0xbd3b700c	-0.045761153
187	0xbb8edd10	-0.004359849
188	0xbd607fba	-0.05480931
189	0xbcb1019f	-0.021607218
190	0xbc896783	-0.016772991
191	0x3d301aba	0.04299424
192	0xbb97b25c	-0.0046294164
193	0xbd6eec95	-0.05833109
194	0xbd1d26ec	-0.038367197
195	0xbcfc46c9	-0.030795472
196	0xba18b183	-0.0005824791
197	0xbd6b93fc	-0.057514176
198	0xbd01dbf1	-0.031703893
199	0xbb30ae1e	-0.002695925
200	0x3cd860f2	0.026413415
201	0xbc878823	-0.016544407
202	0xbc7c3416	-0.015393278
203	0x3bcd9a6c	0.006274512
204	0x3d086caa	0.033306755
205	0x3c363d1c	0.011122968
206	0x3c7dc878	0.01548969
207	0x3cbb1581	0.022837402
208	0xbc3aacbd	-0.011393723
209	0xbca1d5fd	-0.019755358
210	0x3c4517f2	0.012029635
211	0xbca45337	-0.020059211
212	0xbcd50df2	-0.026007626
213	0x3ce2f78b	0.027705928
214	0x3c814246	0.015778672
215	0xbcfdd86a	-0.030986983
216	0xbd063086	-0.03276112
217	0xbcb705e8	-0.022341684
218	0xbcb933cf	-0.022607712
219	0xbb9d54f1	-0.0048013856
220	0xbd88f78b	-0.0668784
221	0xbc22d5be	-0.009938655
222	0x3b88f864	0.004180001
223	0xbbaf0173	-0.005340749
224	0xbc1a700e	-0.00942613
225	0xbd82504b	-0.06362971
226	0xbba955ac	-0.0051676836
227	0xbb642049	-0.0034809283
228	0xbd599a07	-0.053125408
229	0xbaf1ffa4	-0.0018463028
230	0x3c2f582b	0.010702173
231	0x3d6985aa	0.057012238
232	0xbd8fa6c7	-0.07014232
233	0xbd3fed37	-0.046857085
234	0xbb7e668f	-0.0038818454
235	0xbcc67adf	-0.024228511
236	0x3c7fd2e8	0.015614249
237	0x3c9039ff	0.01760578
238	0x3d29744a	0.041370668
239	0xbc978c5e	-0.01849955
240	0x3dbff3f7	0.093727045
241	0x3b1daee3	0.002406054
242	0xb9f2d9b1	-0.0004632003
243	0x3c1baf83	0.0095022945
244	0x3b9c41c1	0.0047685807
245	0x3d0529a1	0.032510404
246	0x3c95a8a1	0.018268885
247	0xbd0e5c18	-0.034755796
248	0xbc732f9c	-0.014842894
249	0xbc484bf7	-0.012225143
250	0xbd14c040	-0.036316156
251	0xbc157b5f	-0.009123652
252	0x3cdba996	0.026814263
253	0xbca67e67	-0.020323945
254	0x3c91942e	0.017770853
255	0x3d22e5ee	0.03977006

bias f4 [64]
0	0xbcda1280	-0.02662015
1	0xbb1e5808	-0.0024161357
2	0x3ca45d53	0.020064032
3	0xbbc9841c	-0.006149782
4	0x3cf07884	0.029354341
5	0xbac02644	-0.0014659842
6	0x3d3fc097	0.046814527
7	0x3d32e064	0.043671027
8	0xbca6accb	-0.020346066
9	0xbd4e0acc	-0.050303265
10	0x3d028b36	0.031871043
11	0xbb2a9e54	-0.0026034312
12	0x3b0f8c47	0.002190368
13	0xbc9b4044	-0.018951543
14	0x3cc24e12	0.023718867
15	0xbd20300e	-0.03910833
16	0x3d37fdf2	0.044919915
17	0xbd3a8763	-0.04553927
18	0x3bf11333	0.007357025
19	0x3c15d4d0	0.009144977
20	0xbba2aebf	-0.004964679
21	0x3c6fc15b	0.014633502
22	0x3c319183	0.010837915
23	0x3d21d8b0	0.03951329
24	0xbc62dd49	-0.013846704
25	0xbafe1ca2	-0.0019387195
26	0xbccf3abb	-0.02529656
27	0x3b804262	0.0039141634
28	0x3d073e89	0.033018623
29	0xbd22ea14	-0.039774016
30	0xba46ca40	-0.0007583238
31	0x3bc46fa4	0.005994754
32	0x3bb00c37	0.00537255
33	0x3d8a9290	0.06766236
34	0x3cb36200	0.021897316
35	0x3bbb42f5	0.005714769
36	0xbd121666	-0.035665892
37	0x3c80ee6b	0.015738687
38	0xbc258278	-0.010101907
39	0xbcd4c112	-0.02597097
40	0xbd5318c9	-0.05153731
41	0xbd1b1452	-0.037861176
42	0x3cc12e92	0.023581777
43	0xbce6cbcb	-0.028173348
44	0xbd1b894e	-0.03797274
45	0xbd2f4212	-0.04278762
46	0xbb40d2aa	-0.002942244
47	0x3c4f6443	0.012658182
48	0xbcc68bd1	-0.024236592
49	0x3cba000c	0.0227051
50	0x3ceba7b1	0.028766485
51	0xbd4fe198	-0.050752252
52	0x3cb47d4c	0.022032402
53	0x3d12c4a9	0.03583208
54	0x3bf8e85f	0.00759606
55	0xbdacdacf	-0.08440172
56	0xbd03ad02	-0.032147415
57	0xbcf3504f	-0.02970138
58	0xbce2268f	-0.027606277
59	0x3d288402	0.041141517
60	0x3c2c6a95	0.010523458
61	0x3d839774	0.06425372
62	0x3ba5a685	0.005055251
63	0xbb097789	-0.002097579

weight f4 [6, 3136]
0	0x3ca00103	0.019531732
1	0x3a745d49	0.0009321762
2	0x3c6aa2f5	0.014321079
3	0x3b8112b7	0.0039389986
4	0xbbd246a0	-0.0064171106
5	0xbb9288af	-0.0044718604
6	0x3cb9f794	0.022701062
7	0x3d559fd7	0.05215439
8	0x3cdc25d4	0.026873507
9	0x3b38c0b3	0.002819103
10	0x3ccda745	0.025104174
11	0x3d24e798	0.040259928
12	0x3c32cfcb	0.0109137995
13	0xbc0126e8	-0.007882811
14	0x3d25dc5a	0.040493347
15	0x3d7029fb	0.058633786
16	0x3c4f0e8a	0.012637744
17	0x3d4fe0c6	0.05075147
18	0x3d663ff4	0.056213334
19	0x3d2bec05	0.041973133
20	0x3d8bd30c	0.06827363
21	0xbb871782	-0.0041226754
22	0xbd0cc5c2	-0.034368284
23	0xbc343e5d	-0.011001197
24	0x3bba3adb	0.0056832856
25	0x3d485d45	0.048917074
26	0x3c0465a1	0.008080871
27	0x3d5598a5	0.052147526
28	0x3cca1cce	0.024671938
29	0xbcbb3c41	-0.02285588
30	0xbc38acc6	-0.011271661
31	0xbbba5b4f	-0.0056871544
32	0x3ba0314c	0.004888689
33	0xbc4d6079	-0.012535208
34	0xbc980511	-0.018557103
35	0x3c95ba6c	0.01827737
36	0xbba23a9e	-0.0049508354
37	0x3c05d4eb	0.008168439
38	0x3bae17aa	0.0053128796
39	0xbce836d8	-0.028346464
40	0x3c090bb7	0.008364609
41	0xbcb7b355	-0.02242438
42	0x3caea225	0.02131755
43	0xbbacbe26	-0.005271691
44	0x3d58170a	0.052756347
45	0xbca7c6d2	-0.020480547
46	0xbbab4af8	-0.005227443
47	0xbb35bf9c	-0.0027732616
48	0x3b30d5aa	0.0026982822
49	0x3b4a9afe	0.0030915136
50	0x3c4a0d9b	0.012332345
51	0xbb977d1d	-0.004623069
52	0x38e3a140	0.00010854239
53	0xbc01504b	-0.0078926785
54	0xbca588e2	-0.020206872
55	0x3c665159	0.014057481
56	0x3b77763d	0.0037759684
57	0x3cac521a	0.021035243
58	0xbcd6aaa5	-0.026204417
59	0x3c3b8dce	0.011447383
60	0x3c82cb7a	0.015966166
61	0x3d3e1a8d	0.04641204
62	0xbbe2d6f3	-0.0069225966
63	0xbb1154de	-0.002217583
64	0x3cb241a0	0.021759808
65	0xbc941054	-0.018074192
66	0x3d7dc017	0.06195077
67	0xbb90e80e	-0.0044221943
68	0x3c4a9273	0.012364018
69	0x3d2856d4	0.04109843
70	0x3d1be261	0.03805769
71	0x3c40d987	0.011770613
72	0xbb95905c	-0.004564328
73	0x3cb3bd9a	0.021940995
74	0x3d31dec9	0.043425355
75	0x3d02d464	0.031940833
76	0x3d1b3b85	0.03789856
77	0x3ccf4b6e	0.025304522
78	0x3cf50948	0.029911652
79	0x3c6a13fb	0.01428699
80	0x3be92054	0.0071144495
81	0x3c3ed811	0.011648194
82	0xbd15393f	-0.036431547
83	0xbc879f41	-0.01655543
84	0x3b12c46b	0.0022394906
85	0x3ce256e4	0.027629323
86	0x3d3184c7	0.043339517
87	0xbd3bf77e	-0.045890324
88	0xbd3e3a3c	-0.046442255
89	0x3cbef32a	0.023309309
90	0xbc071e87	-0.008247024
91	0xbc4a08f2	-0.012331234
92	0x3c13e737	0.009027294
93	0x3bc8475a	0.0061120214
94	0xbd1c5aaa	-0.0381724
95	0x3a14f839	0.000568274
96	0x3cd4092d	0.025883282
97	0x3c24d77a	0.010061139
98	0x3b70ade2	0.0036724736
99	0x3ce8a7ab	0.028400263
100	0x3ce82a84	0.028340586
101	0x3b6a5f93	0.0035762533
102	0xbcd7454b	-0.026278159
103	0x3cb622f0	0.022233456
104	0x3c8e2cba	0.017355312
105	0x3c286ad2	0.010279374
106	0x3a1c127d	0.00059536827
107	0xbbaaf5ca	-0.0052172886
108	0x3d483ecd	0.048888016
109	0x3cb023a4	0.02150137
110	0x3ced5144	0.028969415
111	0x3da7ac48	0.08187157
112	0x3a8e3167	0.0010848463
113	0xbce6d676	-0.028178435
114	0x3c2bff07	0.010497815
115	0x3cafda63	0.02146644
116	0x3cc2b43c	0.023767583
117	0xbd51e143	-0.051240217
118	0x3d5e01b9	0.05420086
119	0xba82d9f6	-0.000998317
120	0xbc71dc79	-0.014762037
121	0xbc9adf9a	-0.01890545
122	0x3ce77558	0.028254196
123	0xbcd6d504	-0.02622462
124	0xbba1c63a	-0.0049369605
125	0x3cc89b15	0.024488011
126	0x3c98b19c	0.018639378
127	0x3c34f90a	0.011045704
128	0xbc8fc69b	-0.017550757
129	0x3c98d4ba	0.018656123
130	0xbbae1dda	-0.005313617
131	0xba67d27e	-0.00088433165
132	0xbc4d6f3d	-0.012538728
133	0x3cc5cc10	0.024145156
134	0x3d5779b1	0.05260629
135	0x3c9503ac	0.018190227
136	0xbc909bde	-0.017652448
137	0xbd31bfab	-0.04339568
138	0x3c5a9c1e	0.013342885
139	0xbcac8cd9	-0.021063255
140	0xbc4a1fa0	-0.012336642
141	0x3c43784a	0.011930535
142	0xbbf5d942	-0.007502706
143	0xbd00958d	-0.031392623
144	0xbd8a9c84	-0.06768134
145	0x3c2643df	0.010148018
146	0x3c96a881	0.018390896
147	0x3d66f425	0.056385178
148	0x3b7481f6	0.0037308908
149	0xbbbe4673	-0.005806738
150	0x3cb41e63	0.021987146
151	0x3da702a7	0.08154803
152	0x3d18504d	0.037185956
153	0x3dcd510d	0.10025225
154	0xbc851433	-0.016244983
155	0x3cb393d2	0.021921072
156	0x3cdd4846	0.027012002
157	0xbcc320b8	-0.023819312
158	0xbbcc2ac9	-0.0062306863
159	0x3d6db041	0.058029417
160	0x3da83f57	0.08215206
161	0xbcc50b61	-0.024053277
162	0xbc964a29	-0.01834591
163	0x3c8cf5b0	0.017206997
164	0x3c2a08b4	0.010378052
165	0x3b270305	0.0025483978
166	0x3c211f75	0.00983416
167	0x3d8c24b6	0.068429396
168	0xbc19ffc5	-0.009399359
169	0xbc03135c	-0.008000221
170	0x3b3a9928	0.0028472636
171	0xbb91143c	-0.004427461
172	0x3d3752ac	0.044756576
173	0x3b37f5df	0.0028070135
174	0x3cffe990	0.031239301
175	0x3cb2c2cd	0.021821404
176	0x3cb3ae10	0.021933585
177	0xbbae8cd9	-0.005326849
178	0x3cb58108	0.022156253
179	0xbd0cd5c7	-0.03438356
180	0xbc3afd67	-0.011412955
181	0xbb93c08e	-0.0045090383
182	0xbb1e22c4	-0.0024129609
183	0x3d00410f	0.031312045
184	0x3cc5d30e	0.02414849
185	0x3ca2c105	0.01986743
186	0x3c9ce2b7	0.019151075
187	0xbccd9b14	-0.025098361
188	0x3a9070d4	0.0011019954
189	0xba733926	-0.000927823
190	0xba4ee31e	-0.00078921195
191	0xbcc3d790	-0.0239065
192	0x3d374b09	0.044749293
193	0x3d579370	0.05263084
194	0x3c3dd7b1	0.011587069
195	0xbca25e04	-0.01982022
196	0xbd081747	-0.033225324
197	0xbc9733a9	-0.01845725
198	0xbbd78471	-0.0065770675
199	0xbc0536af	-0.008130713
200	0xbc98ffbc	-0.018676631
201	0x3c36a148	0.011146851
202	0xbc7c023e	-0.015381394
203	0x3d74562d	0.059652496
204	0x3c4103b9	0.011780673
205	0x3c93f079	0.018059002
206	0x3c3d4e42	0.011554303
207	0xbc88ebb5	-0.016713956
208	0x3c8bc1af	0.017060129
209	0x3c675fea	0.014121989
210	0x3cb295e9	0.021799998
211	0xbdaac380	-0.0833807
212	0x3cd08cce	0.025457766
213	0x3b70a3ab	0.0036718647
214	0xbc68676c	-0.014184814
215	0xbcd2ab66	-0.025716495
216	0xbcd46245	-0.025925765
217	0xbc98775e	-0.018611606
218	0xbcb7713b	-0.02239286
219	0xbb561bf5	-0.0032670472
220	0x3c407741	0.011747182
221	0x3d0e1f3d	0.03469776
222	0xbc63fb5a	-0.013914907
223	0x3d071563	0.03297938
224	0xb9d4939b	-0.00040545766
225	0x3bfa8479	0.0076451865
226	0x3cbf9d2a	0.023390371
227	0xbc0c6557	-0.008569083
228	0xbc5de45c	-0.013543215
229	0xbb8a9e9e	-0.0042303344
230	0xbcf5e2ba	-0.030015338
231	0x3c04bed6	0.008102139
232	0x3cbd3a27	0.023099018
233	0x3a961e08	0.0011453042
234	0x3c2366e8	0.009973265
235	0x3b753e12	0.003742103
236	0xbcced932	-0.025250051
237	0xbcd1fad6	-0.025632303
238	0xbc9a85d1	-0.018862637
239	0x3ae639b0	0.00175648
240	0xbbedc2b0	-0.0072558746
241	0xbd18dbe9	-0.037319098
242	0xbd33d413	-0.04390342
243	0xbb3f1cc4	-0.0029161433
244	0x3b5e1a50	0.0033890195
245	0x3d17e554	0.03708394
246	0x3c274e5a	0.010211552
247	0x3b9c9312	0.0047782743
248	0xba635c3b	-0.0008673106
249	0x3bc0ca87	0.005883518
250	0x3ba90b25	0.0051587992
251	0x3c845482	0.016153578
252	0xbd54582e	-0.051841907
253	0xbca52e43	-0.02016366
254	0x3d272516	0.040806852
255	0x3d27b805	0.04094698

bias f4 [6]
0	0xbb678af0	-0.0035330616
1	0xbd276369	-0.04086629
2	0xbcace8c7	-0.02110709
3	0x3d6e2a8b	0.05814604
4	0xbc3637c6	-0.011121696
5	0xbc82b816	-0.01595692

weight f4 [1, 3136]
0	0x3b4b0f10	0.003098432
1	0xbc01a2f0	-0.0079123825
2	0xbba72a0c	-0.005101448
3	0xbb19d0ee	-0.002347048
4	0xbbf26672	-0.0073974663
5	0xbc0f4083	-0.008743408
6	0x3bfdd0a2	0.0077458182
7	0xbb8ef0ea	-0.0043622153
8	0x3bdb9dfa	0.006702182
9	0xbbb18379	-0.005417284
10	0xbbffe71f	-0.007809534
11	0x3bdce4a3	0.006741123
12	0xbbb15e26	-0.0054128347
13	0xbbbdc17a	-0.0057908865
14	0xbba3eed0	-0.005002834
15	0xbb0ff68c	-0.0021967022
16	0xbb849330	-0.0040458664
17	0x3b89b675	0.004202659
18	0xbbb089d1	-0.0053875227
19	0xba4b54d4	-0.0007756476
20	0xba524a8f	-0.00080219744
21	0xbb8fe868	-0.0043917187
22	0x3bd23f10	0.006416209
23	0x3ac2b761	0.0014855677
24	0xbaebfd70	-0.0018004607
25	0x3b55879d	0.0032582053
26	0x3ac00200	0.0014649034
27	0x3b2efafb	0.002669989
28	0xba01049c	-0.00049216463
29	0xbb237449	-0.0024941138
30	0x39f1a6b1	0.00046091297
31	0xba7d9193	-0.00096728763
32	0x391752d8	0.00014431344
33	0xba640455	-0.0008698155
34	0xbb312f2f	-0.002703618
35	0xbb881c4b	-0.0041537634
36	0xbc1dd4a6	-0.009633219
37	0x3b4fda35	0.0031715755
38	0xbbbd365e	-0.0057743033
39	0x3a11aeca	0.00055573566
40	0xbb7c12a5	-0.0038463261
41	0xbb0a2a83	-0.0021082468
42	0xbb4978ea	-0.0030742236
43	0xbaa6d482	-0.0012728127
44	0xbbde7899	-0.0067892787
45	0xbbc9d0f9	-0.0061589447
46	0xbb8aa19b	-0.0042306907
47	0xbbb16453	-0.005413571
48	0x3ad40726	0.0016176447
49	0xbab2d9c0	-0.0013645217
50	0x3aa2e00c	0.001242639
51	0x3bbfccf1	0.0058532883
52	0x3c7240ed	0.014785987
53	0x3c372a76	0.011179557
54	0x3b5e6e26	0.0033940165
55	0xbc4cb187	-0.012493498
56	0x3bdd7ea7	0.006759483
57	0xbb33095e	-0.0027318816
58	0xbb1754af	-0.0023091247
59	0xb9a17dda	-0.0003080208
60	0x3b12cdb4	0.002240044
61	0x3b6fdcf0	0.0036600195
62	0x3aa50d1a	0.0012592406
63	0x3b4d1121	0.0031290727
64	0xbbd25bd9	-0.0064196405
65	0x3bd11815	0.0063810446
66	0x3bf5d926	0.0075026928
67	0xbada63b3	-0.0016661793
68	0x3ada16ab	0.0016638836
69	0x3b13b935	0.0022540812
70	0xbb5930ec	-0.0033140732
71	0x3bf49438	0.007463958
72	0x3b56bb17	0.0032765323
73	0x3a2ad092	0.0006516065
74	0x3bb780f2	0.0056000883
75	0x3ae6a86e	0.0017597803
76	0x3ac27d3e	0.001483835
77	0x3b4420e6	0.0029926836
78	0x3b715a4d	0.0036827505
79	0x3b59b7b7	0.0033221075
80	0x3ac24fb9	0.0014824785
81	0x3be91bdf	0.007113918
82	0x3abbeda3	0.0014337789
83	0x3b26af76	0.0025434173
84	0x3c088ee1	0.008334846
85	0x3bf0fcfa	0.007354376
86	0xbb863d49	-0.004096661
87	0x3ba54b55	0.0050443807
88	0x3bcd29eb	0.0062611005
89	0xbafff6e7	-0.0019528539
90	0x3b26d415	0.0025456
91	0x3c33a73f	0.010965168
92	0x3ba53860	0.005042121
93	0xbc077a80	-0.008268952
94	0xbb9fec45	-0.0048804604
95	0x3c3770c6	0.011196321
96	0xb92c9088	-0.0001645704
97	0x3c3b48c5	0.011430924
98	0x3b17a15d	0.0023136951
99	0xbb19f1ed	-0.0023490146
100	0xbc5c702f	-0.013454481
101	0xb9c10848	-0.00036818
102	0x3bae8157	0.005325477
103	0x3c2b0321	0.010437758
104	0xbb5c96f8	-0.003365932
105	0x3b062508	0.002046885
106	0x3c1cf2ae	0.009579344
107	0x3aded098	0.0016999422
108	0xbb2ed223	-0.0026675544
109	0xbb5077c2	-0.0031809662
110	0xbc2025b4	-0.009774614
111	0xbc02e4e3	-0.007989141
112	0xbaf59372	-0.0018735959
113	0x3b52cf42	0.0032166992
114	0xbb285a41	-0.002568856
115	0x3b735ecd	0.0037135363
116	0xbbd93f7b	-0.006629882
117	0x39ce2a8a	0.00039323076
118	0xbbcd877a	-0.0062722536
119	0x3b5a9ad9	0.0033356457
120	0x3a80db45	0.0009830972
121	0x3b674e4c	0.0035294471
122	0xba8241c4	-0.0009937813
123	0xbb23c522	-0.0024989326
124	0xbaec3c6f	-0.0018023382
125	0xbb816b14	-0.0039495323
126	0xbb491b35	-0.0030686383
127	0xbc077fe9	-0.008270242
128	0xbb8e9a72	-0.0043519074
129	0x3b9d15ed	0.0047938735
130	0xbb2578f7	-0.0025249103
131	0xbaa2d751	-0.0012423788
132	0x3b0ca93d	0.0021463179
133	0x3b10bebc	0.0022086343
134	0x3b7bf321	0.0038444477
135	0xbb61bd10	-0.0034444965
136	0xb9c63eda	-0.0003781233
137	0xba46da67	-0.0007585645
138	0x3b834ffa	0.0040073367
139	0xbbb6d79b	-0.0055799014
140	0xbbb1841e	-0.005417361
141	0x3a5bb01c	0.00083804294
142	0xbb94ecb4	-0.004544819
143	0xbb0ee7af	-0.0021805575
144	0x3ba5d962	0.0050613144
145	0x3b62ae4d	0.0034588755
146	0xbbe12936	-0.006871368
147	0xbb6eab1c	-0.0036417907
148	0x3bf776c4	0.0075519998
149	0x3aaf64e6	0.001338151
150	0x3c5a6ae3	0.013331148
151	0x3b855902	0.0040694484
152	0x3a9a88a3	0.0011789988
153	0xbc5a923f	-0.013340532
154	0x3b2a2cc4	0.0025966624
155	0x3bcbeae7	0.006223071
156	0xbb884a1c	-0.004159225
157	0x3c10f350	0.008847073
158	0x3abfcffb	0.0014634127
159	0xbaaf833c	-0.0013390551
160	0x3b7cd118	0.0038576778
161	0x3a2e3d1b	0.00066466787
162	0x3ab9e718	0.0014183251
163	0xbbc71a57	-0.006076138
164	0x3b857fe4	0.0040740836
165	0xbb4e9d55	-0.0031526883
166	0xbb111f5c	-0.0022143936
167	0xbbbc0634	-0.005738044
168	0x3b5e46d4	0.0033916729
169	0x3c2539a8	0.010084547
170	0x3abe7d91	0.0014533271
171	0x3b0b2e1a	0.0021237195
172	0x3b91fa11	0.004454859
173	0x3ba17288	0.0049269833
174	0xb99f4d94	-0.00030384643
175	0x3b94394b	0.0045234314
176	0xba8baf06	-0.001065702
177	0x3b9c6f8d	0.00477404
178	0xbb01883b	-0.0019765038
179	0x3a8ec629	0.0010892797
180	0x3b9f0111	0.004852422
181	0xbb332fcc	-0.0027341722
182	0x3a30ec09	0.0006749039
183	0xbb263832	-0.0025363085
184	0x3b31b454	0.002711554
185	0x395d25c3	0.0002109027
186	0xbba39b6a	-0.004992892
187	0xbb7d99f0	-0.003869649
188	0xb9ec7813	-0.0004510289
189	0xbb33528a	-0.002736243
190	0xbb1611c8	-0.0022898782
191	0x3b6e37ab	0.0036349099
192	0xbb903c0d	-0.00440169
193	0xbbaaaf71	-0.0052089025
194	0xbb4cda55	-0.0031258066
195	0x3bb398ca	0.0054808604
196	0x3c25b981	0.010115028
197	0x3c9e5da9	0.01933177
198	0xbc01f01a	-0.00793078
199	0xbc209f37	-0.009803585
200	0x3c6388c6	0.01388759
201	0x3b283051	0.0025663564
202	0xbbb29b0e	-0.005450613
203	0xbbc8c785	-0.0061273
204	0xb8c148fa	-9.21655e-05
205	0xbb40ad7d	-0.0029400282
206	0xbb082285	-0.0020772528
207	0x3b7bc598	0.0038417336
208	0x3b5af7f3	0.003341195
209	0x3bd3fbd8	0.006469231
210	0x3c10e7f2	0.008844363
211	0x3c5e7b04	0.013579134
212	0x3b11826a	0.0022202977
213	0xbab9547b	-0.0014139557
214	0xbce7308b	-0.02822139
215	0xbc25f574	-0.010129321
216	0xbc404279	-0.011734598
217	0x3baabe45	0.00521067
218	0xbc102f13	-0.008800286
219	0xbbb045c1	-0.005379409
220	0xbab6683c	-0.0013916562
221	0x3bba869d	0.0056923167
222	0xbb946ea8	-0.004529793
223	0xb9f69960	-0.0004703505
224	0x3b0aa3b2	0.00211547
225	0x3c059757	0.008153758
226	0xbc46f8bb	-0.012144263
227	0xbca7b0c1	-0.020470025
228	0x3b9299a4	0.004473882
229	0x39ae0dea	0.00033198233
230	0xbb5b882a	-0.0033497908
231	0x3a490cbb	0.00076694385
232	0x3967e65b	0.00022115691
233	0xbb660da7	-0.0035103352
234	0xbac96733	-0.0015365839
235	0xbc1e85de	-0.009675471
236	0xb965c29a	-0.00021911637
237	0x3b3349ee	0.0027357298
238	0x3bcfc829	0.0063409996
239	0x3bddddb0	0.006770812
240	0xbbdcc174	-0.0067369286
241	0xbc00910a	-0.00784708
242	0xbbed887d	-0.0072489367
243	0xbba6c677	-0.005089577
244	0xbb60ee58	-0.0034321751
245	0x3c28df02	0.010307075
246	0x3bcae1c2	0.006191463
247	0x3b82668b	0.003979509
248	0xbb0bfe51	-0.0021361301
249	0x3b9eedde	0.0048501333
250	0x3c0055f1	0.00783299
251	0xbb9b31ec	-0.0047361758
252	0xbad927d3	-0.0016567655
253	0xbb0dc476	-0.0021631992
254	0x3b044348	0.0020181704
255	0xb9eb2f0e	-0.0004485775
