PPO/SpaceInvaders/FINAL.SpaceInvadersNoFrameskip-v4.MODEL (torch_old, 417860 bytes, 9 tensors)

weight f4 [32, 4, 8, 8]
00000000: 029e 2d3d b53b 7b3d 9ce2 6f3c d415 1e3d
00000010: 82c0 5a3c ab79 03bd 93d5 893d fb0f 94bd
00000020: 3114 54bd d9f7 22bd cc60 25bd 2151 47bd
00000030: 3912 32bd 2a85 a63d f166 273d 25af 16bd
00000040: f240 6ebd 77cf 6cbb 9df3 22ba 8c41 05bd
00000050: 7242 1f3d 5162 22bd 1b9c 303d cf7e c6bb
00000060: b163 8e3c 6f7b 4dbd 526f 0dbd b460 143d
00000070: e1ff 80bd e1d6 573c a7fa 403c 5783 b43d
00000080: ef23 383d 44ec 37bd ac09 39bd 9573 06bd
00000090: cc8d 1b3d 32e5 7a3d 223d cbbc d843 6c3d
000000a0: ead5 553c 57a3 f83c eb4a ef3c 5aa0 193d
000000b0: 0e31 e63c cd45 a93c bb9c 0fbd 88b1 a1bc
000000c0: 4edb 2d3d dcce e43b 6d97 a2bd 7d31 53bc
000000d0: a39f 193d 2ab6 2b3d 192b 90bd 345a 20bd
000000e0: 18e5 2cbc b472 62bd c068 8fbd 9d96 e3bc
000000f0: a7f4 423d 6cdf 123d 0e76 69bb df8a 33ba
00000100: adba 15ba f19d eb3b 522c ffbb c620 e3bc
00000110: 0762 8bbd 1d0e 4d3d 8bb9 3bbd 2710 61bc
00000120: 7f47 19bb 0d19 94bc ba00 77bd 1228 01bd
00000130: 9fe8 87bd e7f1 1fbd 4764 833c 1ee8 e1bb
00000140: 0357 8bbd b895 9ebd a524 953d 793a aabd
00000150: 0d72 bd3b 00eb 553b cf3c 873d afc8 fbbc
00000160: 7727 8fbd d68b 95bd 220e dfbc 7dba 2e3c
00000170: 765b abbc d5f0 0bbd 775d 3a3d d82b 5fbc
00000180: 364d 0fbd abc0 51bd 84bc 493d f83b 97bc
00000190: 613d 7abd 0de9 253d d5e4 8b3b 30f6 f2bc
000001a0: 4e1e 863d d1d4 65bd 733e 403d f3e2 1b3d
000001b0: df15 8dbd 49d3 e23c c62b fe3c df5f ddbc
000001c0: d215 963c 46ec 59bd 6449 9dbd 2214 983c
000001d0: 26b6 7bbd 1b36 253d 2910 14bc 8c83 78ba
000001e0: 67ff c43c 5a84 233d 650f 84bb 1cfd bfb9
000001f0: be65 d93c bff7 5f3c f79d 84bd 2576 ffba
00000200: 1b1d e33c ca9b 8ebc dc2d d23c 8df4 e33c
00000210: a6d0 003d 5cd1 3c3d 4451 ce3c f229 053d
00000220: 2889 92bd b222 293d c23f 10bc 83bc 003d
00000230: 43a2 57bd cb4f b33c b6f2 803d a315 6f3d
00000240: 4892 783c d89c 43bd d28e b33c 405c 89bc
00000250: 8e7c 53bd ea9f 1dbd 08a5 1ebd e952 473d
00000260: da62 89bd 706b 83bc 8c63 bf3c 05b6 49bd
00000270: 4cd7 0e3b 93a4 81bc 6f70 7abd 9dcb c93c
00000280: 0273 493d 2b83 0fbc edb2 bc3c 4028 f43c
00000290: eedf 88bd 42a6 22bc c998 493d fde7 b73c
000002a0: e896 713d fb96 03bd be57 643d a069 3e3d
000002b0: 5888 2dbd bd6b ae3b 7491 38ba 7cd6 14bd
000002c0: 9840 a73d 0fe7 843c 6301 e0bc 3dd0 5c3d
000002d0: d4aa e8bc 507a 473c bf20 ae3c 1b60 103c
000002e0: 9679 ca3c d69b 1fbd f9ba 44bd 7d19 f23c
000002f0: d8f6 4dbc 14c5 99bc e5a6 72bd f82f 8e3b
00000300: cfa8 7fbd 4518 5d3d 185a d93b aed5 67bc
00000310: 9df5 80bd 5903 b33d 81d2 16bd 1385 8e3c
00000320: b145 2abd 2910 a4bc 5d35 74bd d051 c63a
00000330: c3aa 1ebc e780 473d d4cd 10bd b58e e53c
00000340: f213 50bd d2c4 d7bd b692 a8bd 5f69 493d
00000350: 8d60 cb3c 27cc 653d c473 0fbb bc0b ff3c
00000360: 9643 71bc 341b 0ebd 73d9 b8bb 20b6 b33c
00000370: f14c 3cbc 3b7c 63bc 0e9e 913b 7068 803c
00000380: 97ab 1bbd 766c cdbc f65e 7d3d ba3b 39bd
00000390: 7ac8 6ebd c84e 44bc 1c1f 723d 94b2 173c
000003a0: a972 213d 4d77 293d ffb8 7f3d 305f b3bc
000003b0: 1b43 37bd d368 033a 236d 10bc a1d7 d03c
000003c0: ad89 3c3c f989 bf3a 5830 1ebd a7c7 3abd
000003d0: 6348 e8bc e504 8cba 4525 36bc f292 1b3d
000003e0: 7efe 4a3d f972 42bd c2c9 57bd da19 ae3a
000003f0: d768 be3c 739a 793d 0053 23bc 5a6a bcbc
0.042387016 0.061336238 0.01464143 0.038595036 0.0133515615 -0.032098453 0.06730189 -0.072296105
-0.05177707 -0.039787147 -0.040375516 -0.048661355 -0.04347441 0.08130868 0.040869657 -0.036788125
-0.058167405 -0.00361344 -0.0006216111 -0.032533213 0.038881727 -0.039644543 0.043117624 -0.006057597
0.017381521 -0.050166544 -0.03452999 0.036225036 -0.06298805 0.01317379 0.01177851 0.088141136
0.044956144 -0.044903055 -0.04517524 -0.03282507 0.037977025 0.061253734 -0.024809424 0.05768189
0.013051489 0.030351324 0.029210528 0.03750644 0.028099563 0.020663166 -0.03506158 -0.019737974
0.042445473 0.0069826674 -0.079390384 -0.012890217 0.037505757 0.041921772 -0.0703947 -0.039148524
-0.010552667 -0.05528517 -0.07002401 -0.027781779 0.0475966 0.035857603 -0.0035623345 -0.00068490015
-0.0005711716 0.007190459 -0.007787266 -0.027725589 -0.068058066 0.050062288 -0.045831244 -0.013736761
-0.0023388562 -0.018078351 -0.060303427 -0.031532355 -0.06636166 -0.039049055 0.016039027 -0.0068941256
-0.068037055 -0.077434 0.0728238 -0.08311934 0.005781418 0.0032641292 0.06603395 -0.030735342
-0.06989949 -0.07302062 -0.027228419 0.010664579 -0.020917635 -0.034165222 0.04549929 -0.013621293
-0.034985743 -0.051209133 0.049252048 -0.018461213 -0.06109369 0.040505458 0.0042692223 -0.029658407
0.06548749 -0.05611116 0.046934556 0.038058233 -0.06888937 0.02768864 0.031026732 -0.027023254
0.018320952 -0.053203844 -0.07680014 0.018564288 -0.061453007 0.040334802 -0.009037056 -0.0009480051
0.024047567 0.039921142 -0.0040301555 -0.0003661894 0.026537772 0.013669907 -0.06475442 -0.0019490166
0.02772384 -0.01740827 0.025656633 0.027826572 0.031448983 0.0460981 0.025185235 0.032510705
-0.07155067 0.041292854 -0.008804264 0.03142978 -0.05264498 0.021888634 0.062962934 0.058370244
0.015171595 -0.047757 0.021918688 -0.016767621 -0.051632456 -0.038482584 -0.038731605 0.048663054
-0.067083076 -0.016042441 0.023362897 -0.049245853 0.0021795807 -0.015825545 -0.06114238 0.024633223
0.049181946 -0.0087593 0.023034537 0.029804349 -0.06683336 -0.009927334 0.049217973 0.022449488
0.058981806 -0.032126408 0.05574774 0.04648745 -0.042366356 0.005322902 -0.0007040717 -0.03633736
0.08166617 0.016223459 -0.027344411 0.05390953 -0.02840177 0.012175158 0.021255849 0.008811976
0.02471618 -0.038966976 -0.048029874 0.02955317 -0.012571059 -0.018770732 -0.059241194 0.0043392144
-0.062416848 0.053978223 0.0066330545 -0.014150066 -0.06296847 0.08740873 -0.036821846 0.01739744
-0.04157037 -0.020027237 -0.059621204 0.0015130583 -0.009684267 0.048706915 -0.035352543 0.02802215
-0.05080027 -0.10535587 -0.08231108 0.049172755 0.024826312 0.056102898 -0.002188907 0.031133525
-0.014725586 -0.03469391 -0.0056411563 0.02193743 -0.011492954 -0.013884599 0.0044438904 0.0156748
-0.038005438 -0.025076132 0.06185814 -0.045222975 -0.058296658 -0.011981674 0.0591117 0.009258885
0.03941599 0.04137354 0.062432285 -0.021895975 -0.04474173 0.00050128734 -0.008815083 0.025493445
0.011507434 0.0014613263 -0.038620323 -0.04560056 -0.02835483 -0.0010682611 -0.011117284 0.037981935
0.04955911 -0.047472928 -0.052682646 0.0013282851 0.02324335 0.06093831 -0.009968519 -0.022999931

bias f4 [32]
00000000: b89f a73b d8c8 11bd 70a4 84bd 0849 d83c
00000010: 7fc4 2e3d b0dc 9dbd cdd7 cc3b 2b6e ae3d
00000020: 50c9 62bc 296d 6ebd 5b15 37bd 9485 11bc
00000030: 5fba f33c 0eb0 8b3b b744 56bd 147f b53c
00000040: 0d28 4bbd b580 cfbc fd15 053b cc56 053d
00000050: f036 8cbd 332a 2f3d 80a5 b9bb 4463 83bd
00000060: 64e7 bdbc ef63 04bd 6fec f53c 93a1 0abc
00000070: 89e4 2bbd e75e eabc 9e72 2cbd db80 16bd
0.0051154755 -0.03559193 -0.064766765 0.026402012 0.042667862 -0.077081084 0.0062513114 0.085171066
-0.013841942 -0.058209572 -0.0446981 -0.008881945 0.029751955 0.0042629307 -0.052311625 0.022155322
-0.049598742 -0.025329927 0.0020307295 0.03255348 -0.06846416 0.042764854 -0.005665481 -0.06415418
-0.023181625 -0.032321867 0.030019967 -0.008461374 -0.041965995 -0.028609706 -0.042101495 -0.03674398

weight f4 [64, 32, 4, 4]
00000000: b6bf 47bd bdf1 623d e58b 3d3b 5829 6a3c
00000010: 8ceb 74bd 35ea 5bbd 4e96 6a3c 1c93 263c
00000020: 54e1 743b a6bc 883d 526f 98bc bb79 e73c
00000030: af6f ca3c 9a12 973d 34b8 663d c2a5 d23c
00000040: acee ddbb 36a3 923c 27a9 b63b eb12 6b3c
00000050: b653 ad3b fd48 e4ba e319 10bd e947 2cbc
00000060: 1426 26bd e9d4 dd3c dda1 69bb bcbc b03b
00000070: 2399 4f3d 0904 1f3d 7881 72bc 0512 87bd
00000080: 2104 b0bb 84b6 8dbc 2438 cabc 47b1 3a3c
00000090: d688 8ebc 2274 07bd 28e0 1abd ce66 f0bc
000000a0: 0b6c e8bc 39ed 8b3c 973d cfbc 0bad 003d
000000b0: a28e 033d bfcc 333c 860b bd3c 20de 80bc
000000c0: 2c17 74bc 57e6 e6bc f075 18bc c824 84bd
000000d0: a002 e53c decb 11bd 5745 0a3d 3da0 2fbd
000000e0: b7e9 84bb 2d49 9c3c 4f67 a03c 7d1f 403c
000000f0: 0a6e dabc 8ac9 2fbc 047e c13c 3637 d0bc
00000100: 1389 85bc b8f1 2cbc 5916 ccbb d03c 183d
00000110: ff1b 6f3d cad6 6bbd e735 543d defb 203d
00000120: e7e4 90bd 336d bc3b bdee ce3c 2dc8 6fbc
00000130: d0df 92bc 5692 b9bc 2af4 b43c a14e 683c
00000140: 6553 83bc b66e 3f3c 7598 583c c854 813c
00000150: f706 593d 9c3c f13b 67af 04bc 0c04 f43c
00000160: 1521 f8ba a74c d2ba 9228 913c 35a3 313c
00000170: 8a4d 833b d2bb 0cbb 5ee3 333d a60f 073c
00000180: 4f3b 973c b078 bf3c c57b 93bb b178 3b3c
00000190: 6819 e33c 1519 c83b 925d 2bbc 3032 ae3d
000001a0: 7209 4ebd 3b34 dfbc 6cfb f439 9f05 99bc
000001b0: a36b 01bd f0eb a23d faae f23c 5a5b 62ba
000001c0: a661 393d caab 4dbd 1608 79bc 48ae 233c
000001d0: 3e65 a03c 7f8b 11bd bb90 093d 354c 43bd
000001e0: cb94 713c 272e 39bd 2ec3 7f3b 2c62 0d3c
000001f0: 8432 c8bb 6704 f4bc e4fe d1bc a646 f5bc
00000200: b0a3 9cbd 2936 873c febf 353d 5725 0ebd
00000210: 1539 003d 29ff fe3b f891 8ebd 50cd da3c
00000220: 9c31 f2bc ab96 40bd f9a4 7c3d 2c7a 0d3d
00000230: 7e3a ae3b 1dab f63c 6c84 a4bd 5627 b0bc
00000240: 077b f5bc 8167 dc3c 59c7 633b 18cc 073c
00000250: 295b e5bb aa3d 55bb b60a 7abd dabf 07bd
00000260: a712 bf3c accc 52bc 68cc 56bd 4e8f ea3c
00000270: 4e61 513d 1dab 373c 5885 893c dc5a bcbb
00000280: 1d8a 2a3b 95ee 363d 96ff 80bd fbeb ed39
00000290: f011 84bb 20c7 65ba 1477 f43c 0d94 9ebc
000002a0: d6b5 f53c 67fe 1bbd a848 2c3d 1f6c 73bd
000002b0: af67 333d 7459 39bd 601f 653c 0d56 60bc
000002c0: 0535 8abb 38d0 6e3d ce0e fbbc 0a76 6e3c
000002d0: dc39 c9bc 8b3c b23d e375 81bd ebf6 733d
000002e0: fc51 ae3c 7cfc 423c 3b04 8f3b 442b 2b3d
000002f0: 8d99 073d a18f c9bc e200 963c 6403 2cbd
00000300: 6b70 e53c bf39 beb8 1408 b13c 68c4 22bd
00000310: 20c4 f2bc 9806 563d b373 b7bb cc43 4c3d
00000320: 6a85 343d d9ed 52bd 5b68 c33b 96b4 86bd
00000330: 7ca6 c73c 074a 6f3c c6b1 9e3d 3297 36bd
00000340: cc8e 133b 6806 90bd 0e1e a63c 7f3b 173b
00000350: 1a66 d63c 6b6f 43bd e0f5 103d cf89 d13b
00000360: a46f e9bc 1796 8cbd c23b 0fbd 51cf 17bd
00000370: 0e93 efbc bd20 343d ef46 243d a899 593c
00000380: 48a9 f7bc b07e 6b3d fa15 d03c 1ac1 083d
00000390: d2bd 0b3c ceae cabc 273e 60bc 505c 3e3d
000003a0: 76b6 83bd b818 bfbb d627 49bd e384 6aba
000003b0: 235a 94bc bb3f 833c 5250 713c 7da0 fdba
000003c0: 97d5 2a3d 3db3 793d 5dff 82bd 09e3 f4bc
000003d0: c7bd 8ebc f487 3d3d 82b6 463c 6447 2d3d
000003e0: ff53 083d a27b 8bbd 3818 48bd 92ab fc3c
000003f0: 1ceb 123c da41 adbc a4e7 2d3d d9bc ca3b
-0.048766814 0.05540632 0.0028922495 0.014292084 -0.059794948 -0.053690154 0.014318062 0.01016691
0.0037365751 0.06676607 -0.01860777 0.028256288 0.024711458 0.07376595 0.056328014 0.025713805
-0.0067728367 0.01790009 0.0055743637 0.014347772 0.00528952 -0.0017416772 -0.035180937 -0.010515192
-0.040563658 0.027079063 -0.0035649457 0.0053935926 0.050683152 0.038822208 -0.014801376 -0.06595234
-0.005371586 -0.017298944 -0.024684973 0.011394805 -0.017399233 -0.033069737 -0.03781143 -0.029345896
-0.028371831 0.01708089 -0.025297923 0.031415027 0.032118447 0.010974108 0.023076784 -0.015730917
-0.014898103 -0.028186006 -0.009305462 -0.06452328 0.027955353 -0.035594814 0.033757534 -0.042877425
-0.0040561813 0.019077862 0.019580511 0.011726257 -0.026663799 -0.010729203 0.02361966 -0.025416952
-0.016300714 -0.010555677 -0.00622825 0.03716737 0.05837631 -0.057577886 0.051809218 0.0393027
-0.0707491 0.0057503222 0.025260324 -0.014635128 -0.017928988 -0.022652786 0.022089083 0.014178903
-0.016030977 0.01168411 0.013219942 0.015787497 0.052985158 0.0073619615 -0.00809846 0.029787086
-0.0018930758 -0.0016044573 0.01771954 0.010842134 0.004007046 -0.0021474254 0.043918006 0.008243477
0.018460898 0.023372978 -0.0045008385 0.011442349 0.027722076 0.0061065056 -0.010459321 0.08505666
-0.050301977 -0.027246585 0.0004672663 -0.018679438 -0.03159679 0.07955158 0.029624451 -0.0008634828
0.04525914 -0.05021266 -0.015199682 0.009990282 0.019579526 -0.035533424 0.03358529 -0.0476801
0.014744948 -0.04521003 0.0039026248 0.008629363 -0.0061095376 -0.029787255 -0.025634237 -0.029940914
-0.076484084 0.016505318 0.04437255 -0.03470358 0.031304438 0.0077818823 -0.06961435 0.026709229
-0.029564671 -0.04701869 0.061680768 0.03454034 0.0053170314 0.03011089 -0.0803307 -0.021503132
-0.02996589 0.026904823 0.0034756272 0.008288406 -0.0069993925 -0.0032537975 -0.06104537 -0.03314195
0.023324324 -0.01286618 -0.05244103 0.028632786 0.051118188 0.01121023 0.016787216 -0.005748136
0.0026022263 0.044661123 -0.06298749 0.00045379982 -0.0040304586 -0.00087653287 0.029841937 -0.019357705
0.029993933 -0.038084414 0.042061478 -0.059429284 0.043800052 -0.045251325 0.013984531 -0.013692391
-0.004217746 0.05830404 -0.030646708 0.01455451 -0.024563722 0.08702954 -0.06321313 0.05956165
0.021279328 0.011901017 0.004364518 0.04178931 0.03310542 -0.02460462 0.018310968 -0.04199542
0.028007707 -9.070662e-05 0.021610297 -0.03973809 -0.029634535 0.052252382 -0.005598509 0.049869344
0.044072546 -0.05149636 0.005963368 -0.06577413 0.024371378 0.014605052 0.07748751 -0.044577785
0.0022515533 -0.07032472 0.020278003 0.0023076234 0.026171733 -0.04771368 0.035390735 0.006394602
-0.028495617 -0.06864565 -0.0349691 -0.037062947 -0.029244926 0.043976534 0.04010671 0.013281263
-0.030232087 0.057493865 0.025401104 0.03338728 0.008529143 -0.024741556 -0.013686693 0.046474755
-0.06431286 -0.005831804 -0.049110256 -0.0008946193 -0.018109387 0.0160216 0.0147286225 -0.0019350197
0.0417076 0.06096195 -0.06396363 -0.029893415 -0.017424477 0.046272233 0.012128474 0.04230441
0.03328323 -0.068106905 -0.04885122 0.03084353 0.008967187 -0.021149565 0.042457238 0.006187063

bias f4 [64]
00000000: f0c7 bdbb 8783 88bb 3028 ac3c d121 24bd
00000010: ec9c d43c 864d 943c c015 90bc 1251 e1bc
00000020: 9fd4 72bc 2f06 00bd 9b07 1e3c ce90 293c
00000030: f35e 023d 2655 88bc 60f5 4e3c 89fd b23c
00000040: 075c bebc 24f1 10bd 5b5c 1d3c b4e0 69bc
00000050: bea4 493b a4fd b43b 460f c3ba 7439 283c
00000060: e050 1dbc ab99 8cbb 9aff 47bd 8adc 0fbd
00000070: 6e16 37bd d03e 003d b8f8 8abd e7e8 c9bc
00000080: 9e36 1e3d 57b5 bf3a 19d0 963b b40d 86bc
00000090: 8364 de3c e83f 00bd 8706 a43d 8730 03bd
000000a0: 6065 0b3d 8de6 413a 2ebe ba3c 8c52 88bc
000000b0: e08b c4bc f515 d8bc c821 0ebd 5dd8 ba3b
000000c0: 171f c03c 2f80 f5bc d9e4 6fbc aaf7 5abd
000000d0: 453e 1abc 6988 cc3c 5ab1 a53b 59a5 403d
000000e0: 07a7 c7bc 70a6 93bc 9638 3fbd f796 0dbd
000000f0: 9528 463c 5697 14bc 5bcc 583b aaac d83c
-0.0057916567 -0.00416607 0.021015257 -0.040071312 0.025953732 0.018103372 -0.017588496 -0.027504478
-0.014821201 -0.031255897 0.009645368 0.0103494655 0.031828832 -0.016642164 0.012631744 0.02184941
-0.023237241 -0.03538622 0.009604539 -0.014274765 0.003076836 0.0055234004 -0.0014881871 0.010267604
-0.009601802 -0.0042907796 -0.048827745 -0.03512243 -0.044699125 0.031309903 -0.067857206 -0.02464719
0.038626306 0.0014626187 0.004602444 -0.016363956 0.027147537 -0.031310946 0.080090575 -0.0320287
0.034032226 0.00073967205 0.022795763 -0.016640924 -0.023992479 -0.026377657 -0.034700185 0.005702062
0.023452325 -0.02996835 -0.014641964 -0.053458847 -0.00941426 0.02496739 0.0050565423 0.047032688
-0.024371637 -0.0180237 -0.046684824 -0.0345678 0.012094636 -0.009069284 0.003308079 0.02644952

weight f4 [64, 64, 3, 3]
00000000: 21ac a73a 3ba2 25bb 7b07 0bbd e5d9 173d
00000010: 0c04 1d3c 4f7f de3c 9e49 d3bc 67e3 d8bb
00000020: c565 77bc 4176 053c cba3 8b3c 4e16 2f3c
00000030: f8f9 c53c db0b 20bd 8ee1 0e3d f052 a6bc
00000040: 3ce8 84bd c711 f5bc ecf1 bcbc 775a 9abb
00000050: a2e2 1dbd d493 08bd 695a d9bc 4d3f 24bd
00000060: 71d8 2fbd 244a 96bd e5ca f13c e38b 78bd
00000070: f22b 243c ba5a f83c ba1c 1e3c 94e4 05bd
00000080: 0caa 82bb 22aa 82bd 9eb9 0bbc 80f5 b73c
00000090: 1705 433c f736 313b dc0f 3abd 6039 803c
000000a0: 8725 3d3c 7f27 633d 9008 b93c 01e5 ddbc
000000b0: 4b23 c7bc ca81 2cbd 0991 b83c c5c4 8abb
000000c0: c34e eb3c cb7b 873d 8091 f5bc 391f b939
000000d0: 8be0 d53c 419f eebc 00d6 85bd 4745 3d3d
000000e0: 93f1 873d cc86 02bd 2916 db3b 5593 9fbd
000000f0: 6d4c d9bc cc9f 6b3d 891b 433c e8dd b5bb
00000100: 0623 3dbd 688c 59bb 246d 12bd 8a33 03bd
00000110: aca6 36bc c5d9 f6bc d7b6 0fbd 6db1 193d
00000120: 55fc 89bd c652 b4bc e621 3fbc 40ec 78bc
00000130: b0e5 58bd 7738 943c 6dd9 3a3d ea6d c1bc
00000140: e3c2 19bc f02f 063d 3603 0abd 5831 983c
00000150: 391d 6cbd f892 29bd 31c3 caba 9371 dbbb
00000160: 0483 76bd b64c 5dbd b837 0a3d 6afb 8a3c
00000170: d9d4 aa3c 7867 bdbc 3153 ce3b 0dca 4e3d
00000180: 7844 8f3b 42d9 84bd ebff 17bd 09ac 4a3d
00000190: 242b 57bd e336 cd3c 437a 0abd 2d40 24bd
000001a0: 5742 03bc f9f3 17bc f5c0 07bd fc48 4b3c
000001b0: 4c15 013d 6a65 a3bc 96cc bd3b 4869 79bc
000001c0: fdba 103d fac9 0e3d 05e4 a4bc 22e9 6b3d
000001d0: 5dc2 1abd dd21 47bd dcde 3ebd 2a06 e1bc
000001e0: 0dad 1ebd 6e53 69bd 1ec9 ec3c 5247 77bd
000001f0: d644 9e3c 69ef 0e3d b47d 30bd 8a93 4fbd
00000200: 8b54 b4bd 5cdf a7bc 5e39 28bd 422c 3abb
00000210: 0483 dabb 3d18 05bd 48df 663c 3b22 853c
00000220: 00ae d23c a8a6 32bc 04f3 5c3a 23ba bcba
00000230: 72e4 c23b 144d 81bd fa34 9c3c 980b bc3c
00000240: 0db6 2c3d 06f8 81bd f42a 82bc 7557 2a3c
00000250: e8db 23bd b46b 673c adfc cc3c dc67 c73c
00000260: 712b 09bb b8d7 213b 590f 14bd 523a 4a3d
00000270: 3c3b cc3b 9435 2a3c b352 a13b 1972 d3bc
00000280: f5fd f6bc 818b 11bc dd7f c8bb ff6c a73c
00000290: 17c8 93bb 1424 d93c 9aa4 b73c 6a39 c83c
000002a0: 42f4 973c 3168 9dbb d21e a3bc 61e6 a2bc
000002b0: 803a 1dbd a951 8bbd 8c79 8e3c 5a6f df3a
000002c0: 3251 eabc f323 523c ec00 b2bd 1edf fc3a
000002d0: 3e95 5ebc 18ca 2d3d b772 123b 2cda 34bd
000002e0: fecb f03b e4f4 2cbd 525f 3a3b afaa 4cbc
000002f0: 0b25 4dbd 4b61 57bc 40b0 25bc 3818 fd3c
00000300: dbb1 613c b4c0 0f3c 9a30 86bc 7a18 bb3c
00000310: 6ad3 90bd e6f0 b43c 6cd6 2d3c 2dc3 70bd
00000320: 2a68 89bd 6021 81bd dd44 f5bc b8f7 d4bc
00000330: bf5c 1b3b bbc2 8ebc 60b3 a1bc 04aa 05ba
00000340: bb37 65bc a6b1 4bbd 2c66 dd3b 8d0a 413d
00000350: bf42 083d 69d5 503d 89ed 3a3d 189b e63b
00000360: 214e 233d 2570 1b3d 4142 3ebc 0630 13bc
00000370: 3dcc 803d eeea 653c 8277 9ebc 2256 09bd
00000380: dcad 34bd 69ba a33b 3b6a 12bd 8e1f 57bb
00000390: 12c7 13bc 4140 2f3b 67aa 8a3c 9936 82bd
000003a0: 525c 07bc 8589 00bc 57ec 113c c68c a1bb
000003b0: 1c2f 26bd b0e9 bc3c 225c e7bc 34d9 143d
000003c0: d04a 32bc 9149 82bd ff50 56bc c3ef 8c3c
000003d0: 2826 00bd 5426 9b3b 2faf 0cbc 5263 1f3d
000003e0: 4443 97bc 9c5d 5e3d 3c1a b1bd 2937 97bd
000003f0: 39ba 283d 0774 23bc a995 2cbd f998 ac3c
0.0012792387 -0.00252737 -0.03394268 0.037073035 0.009583484 0.027160315 -0.02579194 -0.0066189053
-0.015099947 0.00814587 0.017045876 0.01068647 0.024167046 -0.039073806 0.034883074 -0.02030322
-0.06489608 -0.029915703 -0.023064576 -0.0047104913 -0.038546212 -0.033344105 -0.026532369 -0.04009943
-0.042931024 -0.0733836 0.029515693 -0.06068028 0.010020243 0.0303167 0.009650404 -0.032688692
-0.0039875563 -0.063801065 -0.008528141 0.02245593 0.011903069 0.0027040818 -0.04542528 0.015652359
0.011544592 0.05545759 0.02258709 -0.027086737 -0.024308821 -0.042115964 0.022530096 -0.0042348825
0.02872408 0.066154085 -0.029976606 0.00035309212 0.026108047 -0.029128673 -0.06534958 0.046208646
0.066378735 -0.031866834 0.0066859913 -0.07791773 -0.0265257 0.05752544 0.01190842 -0.005550135
-0.04617598 -0.003319526 -0.035748616 -0.032031573 -0.011148136 -0.030133137 -0.03508648 0.037522722
-0.06737582 -0.022012126 -0.011665797 -0.015193045 -0.052953422 0.01809333 0.04561751 -0.023611981
-0.0093848435 0.03276056 -0.03369447 0.018578216 -0.057645056 -0.041399926 -0.0015469549 -0.0066968887
-0.06018354 -0.054028235 0.033744544 0.016965587 0.020853447 -0.023120627 0.0062965383 0.05048566
0.004372176 -0.06486751 -0.037109297 0.04948047 -0.052531376 0.025050586 -0.033808004 -0.040100265
-0.008011422 -0.009274476 -0.033143003 0.012407538 0.03151445 -0.019945819 0.005792211 -0.015222855
0.035334576 0.03486059 -0.02012826 0.05759538 -0.037783016 -0.04861628 -0.046599254 -0.02746876
-0.038739253 -0.05696433 0.028904494 -0.06037075 0.019319933 0.034896288 -0.04308863 -0.050677814
-0.08805188 -0.020492248 -0.041070335 -0.0028407727 -0.0066684503 -0.03249382 0.01409132 0.016251674
0.025717735 -0.010903992 0.0008428546 -0.0014398735 0.005947643 -0.063135296 0.01906823 0.022954747
0.042165805 -0.06346135 -0.015889622 0.010396828 -0.04000464 0.0141247995 0.025022829 0.024341516
-0.0020930434 0.0024695229 -0.03614745 0.049372025 0.006232647 0.010388751 0.0049231886 -0.025811242
-0.030150393 -0.008883358 -0.006118758 0.020437716 -0.0045099366 0.026506461 0.022417355 0.02444144
0.018549088 -0.0048036803 -0.019912157 -0.019885244 -0.038385868 -0.06802685 0.017391942 0.0017046735
-0.02860317 0.012825954 -0.08691582 0.0019292568 -0.013585387 0.04242906 0.0022346207 -0.044153377
0.0073485365 -0.042225733 0.0028438163 -0.012491866 -0.050084155 -0.013145755 -0.010112822 0.030895337
0.013775314 0.008773971 -0.016380597 0.02283882 -0.07071574 0.022087526 0.010610204 -0.058779884
-0.06709321 -0.06305194 -0.029940063 -0.025997028 0.0023706404 -0.01742684 -0.019738853 -0.00050988817
-0.013990338 -0.049729966 0.0067565646 0.047129203 0.03326678 0.050984774 0.045636687 0.0070375316
0.03986943 0.037948746 -0.011612476 -0.008983618 0.06288955 0.014033062 -0.019344095 -0.03352941
-0.044111118 0.004996587 -0.03574584 -0.0032825205 -0.00901963 0.002674118 0.016926957 -0.0635807
-0.008261757 -0.007845287 0.0089064455 -0.0049301116 -0.04057227 0.02306065 -0.028242175 0.036339954
-0.0108820945 -0.06361688 -0.013080834 0.017204171 -0.03128639 0.0047347937 -0.008586689 0.03891308
-0.018464692 0.05428849 -0.08647582 -0.07383568 0.04119322 -0.009976394 -0.042134915 0.021069037

bias f4 [64]
00000000: 3149 293d 644a 3d3c d236 273d 6d79 cd3a
00000010: b7bb f8bc 6bef a6bc 0c54 993d 7c74 d53a
00000020: 2236 d2bc 19c2 353d e424 a6ba 70d4 3c3d
00000030: 1e32 3d3d c253 853d 9474 613d 6771 d5bc
00000040: 5ed0 c1bc 4925 643d fd52 92bc 661c 963d
00000050: 7630 d5b9 a0b0 9c3d fa1b 213d 240e 423d
00000060: 3111 3d3d 2128 bebc 9a62 0d3d 1696 16bc
00000070: ffff b4bc 6363 b63d 6af4 b63c 3132 863d
00000080: 93a5 853b cd62 10bc 7443 8a3d 0905 9b3c
00000090: 13e0 3f3b e212 283d 0d9e bf39 5cec 843d
000000a0: 92bc 65bc 959a 41ba 6198 343c 5be7 87bc
000000b0: c9c7 be3c a141 433d 4178 fd3b 9d1d 523d
000000c0: ac72 8d3d 3004 5ebc 9882 15ba b92f 123c
000000d0: 9f2e 7abc 27db ae3c dfa2 ae3d fb69 56ba
000000e0: 2366 693d a1df a0bc 011f 4d3c ef82 b13c
000000f0: 8214 383d f05c 043d 9426 073b dd49 0b3d
0.041329566 0.011553381 0.040823765 0.0015676446 -0.030362947 -0.020377835 0.07486734 0.0016285325
-0.025660578 0.04437456 -0.0012675789 0.046101034 0.046190374 0.06510116 0.05504282 -0.026055051
-0.023658928 0.05569962 -0.017861838 0.07329635 -0.00040662632 0.07650876 0.03933332 0.047376767
0.046158973 -0.023212494 0.034517862 -0.009191057 -0.022094725 0.08905675 0.022333343 0.06552542
0.004078576 -0.008812618 0.06751147 0.0189233 0.0029277846 0.041033633 0.00036548116 0.064903945
-0.014022009 -0.00073854 0.011022658 -0.016589811 0.023288624 0.04767001 0.0077352826 0.051297773
0.069066375 -0.013550803 -0.0005703359 0.008922511 -0.015269904 0.021344734 0.08527159 -0.00081792445
0.05698217 -0.019637885 0.012519599 0.02166888 0.044941433 0.032315195 0.002062236 0.03400599

weight f4 [6, 3136]
00000000: 88c7 413d 8c6b 98bc b5ac df3c 6a8f 663c
00000010: a11d e23c b3c8 e8bc 6271 65bc a71d afbc
00000020: 6a32 da3b d70b 90bb efe5 9ebc cb55 0f3c
00000030: bfa6 b03c 6cf8 0bbd faeb 8fba 868b 0fbc
00000040: 9c91 84bb 4f7a 4f3b b1a2 113d bf53 523c
00000050: fa84 47bd 8cb2 2c3d c56d 90bd 8888 273d
00000060: 59db 15bd a44b 42bb dd59 a6bc 4d85 49bc
00000070: 7c3a 1d3c c410 983b 4307 8d3c c215 7e3c
00000080: 3edc baba e703 303b 95b4 733d 4564 4c3c
00000090: bcb2 e8bb 4f8d d3bc d295 103d 9de3 acbc
000000a0: 0eec 373c 9969 e0bc 9c30 1e3c 03da 17bc
000000b0: 9f85 13bc 5969 833d b146 263c 88c9 eb3c
000000c0: 9c98 213b ac48 433d 773f 7abc 77be 0abc
000000d0: 70c0 923c 00a9 983c 2ebd 8c3c a2d3 343c
000000e0: f8ff a93b 724d 5cbc 9a4e f13b 2d32 04bc
000000f0: 8362 38bc d5bb 543b b7c7 c83c 8ded 603a
00000100: 9d84 3b3c cde4 cebc f76f 383b b011 b6bb
00000110: 2a77 e13c e691 a5bc f78b 0a3d db08 b63c
00000120: ee17 a53c 61c6 863b eb89 b93c 7adb 023d
00000130: c99b ea3c 271c a93c d57f 263d 2e7b 333d
00000140: fc13 1a3d ed90 2dbd 9164 16bd 4947 92bb
00000150: 31b6 0bbd 9828 0e3d c14c 043d 6d0d 35bc
00000160: 819d 223c e65c a5bc 1055 e439 b022 96bb
00000170: 15e9 cd3c 1c56 cc39 7bca 53bc 0a7c aebb
00000180: b117 a63c 87a3 cb3b f9a9 8e3c 48ba a73c
00000190: 1b9c 693d d08e db3b 16c9 b43b 487c 273d
000001a0: 6589 a63c ffbd 1f3d 5716 913d b25b 90bb
000001b0: 3b59 1ebd 8d8c a23b 889b 073d a1b2 9dbc
000001c0: 341c 6dba 0dc5 ddbc c2d8 dabc fce4 813c
000001d0: de6f eebb f197 b33c ea26 babc 4103 153c
000001e0: 8210 22bd af38 71bc dbb3 043d f6bc 1cbb
000001f0: 6b7a d2bc 9aaa 8bbb 9ee2 c3bc 5128 f93c
00000200: 8316 f63b 290b 7cbd 627e b1bc 969d 0cbd
00000210: 5e2b abbc 1304 413b b00e f53c d129 60bc
00000220: 07e4 083a fc3b aa3b 5b1c e43c 64e0 aabc
00000230: ade7 da3b ebb2 04bd c671 73bc ba63 603c
00000240: ce32 ae3c ec84 0b3b 3021 36bc 860b 9dbc
00000250: d726 af3c db3c 1cbc eb83 773b 7b14 00bd
00000260: bbd8 f1bc 2d53 5a3d b243 133c b894 033d
00000270: c30c f13c bf5d 9f3b 77ad d03b 94bc a23c
00000280: 110e 58bd 2903 0b3d ef85 1fbb 045c e43c
00000290: 2214 80bb 82e7 663c 0949 e7bb a09e d8bc
000002a0: a19d 86bc c13c c5ba bcf9 87bc 9160 3f3d
000002b0: 8cac 9f3c c99a 38bc 4e68 b9bc 5a96 7c3c
000002c0: b166 b63b 4be1 2d3c e13a 2fbc 863f 1c3d
000002d0: 9201 9abc dc48 9e3a 150a 8bbc 80c8 c43c
000002e0: 5462 543c 50fa 223d 310e a33c bb4b 643d
000002f0: 4340 33bc 6e8f 8a3b b791 233c 79e6 35b9
00000300: e195 003c 447b f63c d464 db3c 7fec 0abc
00000310: c7ec 58bd a4df 17bc 9cb3 49ba cc84 a2bc
00000320: 578c b5bc 8740 bfbb 9103 3b3c b830 7fbd
00000330: c810 3fbc 9b72 d2bc bd06 a8bc 1f99 a9bc
00000340: dd45 92bc 530d 053d 2f7c 9dba ca9a 3d3c
00000350: a374 0a3d 6a06 16bc ef47 843b acb5 b13c
00000360: 61ae 553a 8094 0dbc 5b96 03bd 1ac9 13bb
00000370: afee 2abd bdb2 14bc b4a9 a33c d5b6 123d
00000380: efb8 eb3c f38c b53c e6c1 a13c 6d7c a9bc
00000390: f66b b2bc 9d93 493d 1207 d1bc 6de6 dd3b
000003a0: 5633 a23b c6d1 90ba 9fec 3dbd cc6a dbbb
000003b0: 76f8 6e3c 9991 5b3c 6fca 3a3d 7a95 ec3c
000003c0: 9d47 513c 3904 383c 0348 62bd 15eb 18bc
000003d0: 07e1 7cbc b77a 2ab9 f00d c1bc aead 85bc
000003e0: 4c7e 9a39 33cd 0e3d a29e d53c f143 e33b
000003f0: af7f 233c 3423 b2bc 7bd1 003d a63f ebbb
0.04730943 -0.01860597 0.027304033 0.0140722785 0.027602019 -0.028416013 -0.014004083 -0.021376444
0.006658842 -0.0043959427 -0.01939675 0.008748482 0.021563886 -0.03417246 -0.0010980361 -0.008761292
-0.0040456783 0.0031658595 0.035555545 0.012837349 -0.0487108 0.042162463 -0.07052187 0.04090169
-0.03658614 -0.0029647136 -0.020306522 -0.012299848 0.009596463 0.0046406705 0.017215377 0.015508117
-0.0014256311 0.0026857795 0.05949839 0.012475078 -0.007101385 -0.025824217 0.03529913 -0.021104628
0.011225713 -0.027394103 0.009655144 -0.009268287 -0.009004026 0.06416578 0.01014869 0.028782621
0.0024657613 0.047676727 -0.01527392 -0.008468262 0.017914027 0.018635273 0.017180052 0.011036785
0.0051879846 -0.013446199 0.0073641064 -0.008068603 -0.011253956 0.003246059 0.024509294 0.00085803197
0.011445192 -0.025255585 0.0028142908 -0.0055563077 0.027522642 -0.020211171 0.033824887 0.02222102
0.020153012 0.004113004 0.022648772 0.03194759 0.028638737 0.020643307 0.040649254 0.043818645
0.037616715 -0.04237454 -0.036717 -0.0044640643 -0.0341093 0.034706682 0.03229976 -0.011050564
0.009925247 -0.020185899 0.00043550925 -0.004581772 0.025135556 0.0003897407 -0.012926693 -0.005324845
0.020274969 0.0062145623 0.017415034 0.020474568 0.05703364 0.006700374 0.0055171354 0.04089001
0.020329187 0.038999554 0.07084339 -0.004405462 -0.038659316 0.0049606026 0.03310731 -0.019250216
-0.0009045035 -0.0270715 -0.026714686 0.015856259 -0.007276519 0.021923037 -0.022723634 0.009095014
-0.039566524 -0.014722987 0.032398086 -0.002391634 -0.025693139 -0.0042622807 -0.02391177 0.030414732
0.007510008 -0.06153408 -0.02166671 -0.034329973 -0.020894703 0.0029451891 0.02991423 -0.013681845
0.0005221967 0.005195139 0.027845552 -0.02085895 0.00668045 -0.032397192 -0.014858669 0.013695652
0.02126446 0.0021288944 -0.011116311 -0.019170534 0.021380825 -0.009535993 0.0037767838 -0.03126953
-0.02952229 0.05330198 0.008988308 0.03212425 0.02942503 0.0048634703 0.006368335 0.019865312
-0.05274779 0.03393856 -0.0024341305 0.027875908 -0.00390865 0.014093282 -0.007058267 -0.026442826
-0.016432585 -0.0015048013 -0.016598575 0.046722952 0.019491456 -0.011267372 -0.022632744 0.015416706
0.005566441 0.010612796 -0.01069519 0.03814652 -0.018799577 0.0012076157 -0.01697258 0.024021387
0.012962896 0.039789498 0.019904228 0.055736285 -0.010940614 0.004228524 0.009983472 -0.00017347363
0.007848234 0.030088075 0.026781477 -0.008479237 -0.052960183 -0.009269629 -0.00076943054 -0.019838713
-0.022161646 -0.0058365497 0.0114144245 -0.06230232 -0.011661716 -0.025689414 -0.020511026 -0.020702897
-0.017855579 0.03248341 -0.0012015159 0.011572549 0.03380264 -0.009156803 0.0040368955 0.021693073
0.00081512897 -0.008641362 -0.032125812 -0.0022550286 -0.041731533 -0.009075818 0.019978382 0.035818893
0.028774707 0.022161936 0.019745778 -0.020689214 -0.021779995 0.04921304 -0.025516067 0.0067718537
0.0049499674 -0.0011048845 -0.046368238 -0.006696081 0.014585605 0.013401412 0.045603212 0.02887987
0.012773422 0.0112314755 -0.055244457 -0.009333392 -0.01543451 -0.00016258178 -0.023566216 -0.016318168
0.00029467267 0.034863662 0.026076619 0.0069355895 0.009979173 -0.021745302 0.031449776 -0.0071792183

bias f4 [6]
00000000: 6fd7 0dbc 7713 9c3b 81f1 8a3c 0bd3 96bb
00000010: 4d5e 003c 6974 753c
-0.00865732 0.0047630626 0.016960861 -0.004602795 0.007834983 0.014981368

weight f4 [1, 3136]
00000000: 324c 8bb6 fc48 b43c 041c 4c3c 76d2 463b
00000010: 3b5f 9139 c25d 323c d175 99bc b615 ba3b
00000020: 9421 0fb9 0ef5 053b cca9 a43b f75a c43a
00000030: ece5 003b 9341 6d3b 088c 053b d757 e13a
00000040: 3c0b c13b ee94 1c39 5992 e73b 4b41 d839
00000050: d171 8a3c 936c 0db9 2b8f f137 b7c1 93bb
00000060: 92a7 c03b 40a7 483b 8c68 ae39 4a2f 23ba
00000070: 3814 2cbb 46e3 5cba b24e b139 05ae 9e3a
00000080: 3be4 2f3b e9c6 c73b c4f3 ef3b a463 49bb
00000090: 939a dd3a 2f0e 7e3a d318 beb8 16c2 bf3a
000000a0: a4be d33a 2095 063c c2a6 d73b 0481 193b
000000b0: 27e7 d23b 45b1 bf3a f582 9a3b 3421 1b3b
000000c0: 37e5 8d3b 2e1e f93b 9276 1d3c e394 2f3c
000000d0: d6cc 5f3c 50f9 b2bb 0621 a83b 0d3a 5b3b
000000e0: d301 463c 2f3b 993c 449e 2a3a 63b3 04bb
000000f0: b9ec 4b3c d2ba 68bb ea84 5d3c 5bc4 a9bb
00000100: 65fa c7bb f5e8 9d3b 870b 20bc 0a5d b63a
00000110: 1b6e 123b 0683 bc3b 9eed dd3b 7008 cebb
00000120: b791 a13b c9f6 393b 4186 f2bb 6e0a 3eba
00000130: c04b 24bc 3913 533a 49ae 083c be60 013b
00000140: 3c58 933b 1af1 fb3b aef5 b73b 59da cd3a
00000150: a1ff f0bb 956a 293a a2f8 d8ba ad6e 4cbb
00000160: 51b9 c43b 1247 2abb 4b87 dbba 1363 39bc
00000170: 827f 2c3c 460e 983c 4f7e 22bc a2c8 593c
00000180: cda5 003b 893d 973c 4ce7 f83a 055f bfb9
00000190: cc53 0f3b 700e 783b 261c 60bb 230d c23b
000001a0: ffd9 7bba db78 f1b7 af58 703b e240 08bb
000001b0: aec8 86b9 6d01 823a 8c7f 06ba ef83 8d3b
000001c0: d3a3 1b3b 3cc0 16bb c972 f7ba dffc 3bbb
000001d0: 4428 853b 9404 62bb afa7 74bb f077 88bb
000001e0: 7275 bf3a 9a7e 163b 0b2e edb9 44fb dcb9
000001f0: d51e bfba 9bd1 07bb 4321 6abb 300d 47bb
00000200: 5086 cdb9 7cc2 243b 850b fbba 4b72 3fbb
00000210: e643 d7b9 e70c 453b 2bb8 ae3b 36af bcba
00000220: 1f36 d539 95d4 b63b 482f 8d3b b2c8 963b
00000230: 78e9 5fbc 06ce 9f3b d328 8c3a d8da 0c3c
00000240: 9a6a 0a3c a554 f33b ef02 143c 11e4 a93b
00000250: 5776 30bb 9292 c73a 9eee 28bc fdc5 efbb
00000260: b7eb 02bc d0e0 2a3b 2317 0dbb 78a7 7a3b
00000270: e31c b83b 4976 d03b 614c 41b9 5d3f e139
00000280: a7b1 6b3b da67 d0ba 7c40 1fba dee2 69bb
00000290: 25d6 423a f27c 88bb ee6a 8eba dbf6 ae3a
000002a0: c32b c4bb c6dc 03bc aeea 1fbc fca1 00bc
000002b0: f35e e6ba 71a9 dc3a fd08 113b 33be 85bb
000002c0: 1509 baba 3cdb 63ba acdc 9b3b 4309 b93a
000002d0: 06c9 8eba b466 093b 86ad 7cbb 20d6 6a3b
000002e0: 8d9c 31ba 5249 b93a 4e10 37ba 62f0 15ba
000002f0: 1dbf c3b7 7c79 c4bb 1fa8 173c 2eed 253c
00000300: ae1f 853c 8231 e53b bf44 b83b f30b 4d3b
00000310: 0d9b ab36 a13e de39 301f 7d3c cc5a 07bc
00000320: 7506 923b 1923 b6bc d630 ccbb c4ce 633b
00000330: fee7 b2bb 7dc8 b13b 65d5 f7ba 7fcb e039
00000340: 519a 16b9 84e7 9c38 f425 f43b 9051 883a
00000350: 969f 103b b5db f5b9 4758 773a 50b3 8b3b
00000360: 8b9e 4bb9 44b6 823b 2c0c 143c 014d d6b8
00000370: b191 d23b 459e ad3a 3050 c8bb 6c66 25ba
00000380: 4eb0 2eba dd5c da3a c003 f239 a4fa 323b
00000390: b7e6 cebb 8bb2 6c3b f7da c23b c5a9 533b
000003a0: 9d15 853b e160 2f3b 6cb0 bfbb e484 a639
000003b0: e5c4 a3ba 952c b6bb 63be c53b 0da9 723b
000003c0: 964e 4fbb 43bd b5bb 8adb fbbb cefa 303c
000003d0: 87df 2b3c 3870 3e3a ae6a 7f3b 6097 573c
000003e0: f788 c93b ba49 3a3c 2248 503c b713 5ebb
000003f0: 4a9e 2c3b e848 adbb d19e 0cbc da63 a53a
-4.151393e-06 0.022007458 0.012457851 0.0030337847 0.00027727507 0.010886611 -0.018732937 0.0056788577
-0.00013650052 0.0020440253 0.005025124 0.0014980723 0.0019668294 0.0036202415 0.0020377655 0.0017192316
0.005891232 0.000149328 0.0070670065 0.00041247378 0.016899975 -0.00013487255 2.8796107e-05 -0.0045091766
0.005879351 0.0030617267 0.0003326576 -0.0006225003 -0.0026257169 -0.00084262004 0.00033818703 0.0012106305
0.0026838917 0.00609671 0.0073227603 -0.0030729556 0.0016907029 0.00096914446 -9.06453e-05 0.0014629986
0.0016154838 0.008214265 0.0065811584 0.0023422847 0.006436247 0.0014624974 0.0047153183 0.0023670914
0.004330303 0.0076024747 0.009610789 0.01071665 0.013659677 -0.0054618493 0.00513089 0.003345135
0.012085396 0.018704979 0.0006508569 -0.0020248524 0.012446576 -0.0035511744 0.013520459 -0.005180878
-0.0061028474 0.0048190304 -0.009768373 0.0013913226 0.002234346 0.005752924 0.006772711 -0.006287627
0.0049307006 0.0028375855 -0.007401258 -0.0007249479 -0.010027826 0.00080518756 0.008342334 0.00197415
0.0044966023 0.0076886537 0.005614004 0.0015705331 -0.007354692 0.00064627203 -0.001655359 -0.0031193898
0.0060035367 -0.0025982303 -0.0016748694 -0.011315125 0.010528447 0.018561494 -0.00991781 0.0132924635
0.0019630075 0.01846196 0.001898983 -0.00036501154 0.0021870015 0.0037850402 -0.0034196465 0.005921976
-0.0009607374 -2.8785716e-05 0.0036673953 -0.0020790626 -0.0002570799 0.0009918638 -0.00051307003 0.004318706
0.002374877 -0.0023002764 -0.0018878813 -0.0028684658 0.004063638 -0.0034487592 -0.0037331393 -0.0041646883
0.0014607145 0.0022963644 -0.00045238467 -0.00042148877 -0.0014581332 -0.00207243 -0.0035725392 -0.003037285
-0.00039200718 0.0025140336 -0.0019153213 -0.002921241 -0.00041058584 0.0030067505 0.005332013 -0.0014395479
0.0004066685 0.005579541 0.004308615 0.0046015615 -0.013666503 0.004876855 0.0010693319 0.008597098
0.008448267 0.007425862 0.009033903 0.0051846583 -0.0026926005 0.0015226176 -0.010310797 -0.007317303
-0.007990769 0.002607394 -0.0021528683 0.0038246792 0.005618678 0.006361757 -0.00018434368 0.00042962554
0.0035964043 -0.0015900091 -0.00060749776 -0.0035688202 0.0007432423 -0.0041652853 -0.0010865608 0.0013348715
-0.005986662 -0.008048242 -0.009760542 -0.00785112 -0.0017575904 0.0016835165 0.0022130602 -0.0040815114
-0.001419338 -0.0008692031 0.0047565307 0.001411714 -0.001089365 0.0020965757 -0.0038555576 0.0035833195
-0.0006775342 0.0014136231 -0.00069833256 -0.0005719719 -2.3334806e-05 -0.0059959274 0.009256392 0.010127349
0.016250458 0.006994427 0.0056234295 0.003128764 5.1142474e-06 0.00042389802 0.01544933 -0.008261394
0.004456336 -0.022233533 -0.0062314076 0.0034760693 -0.0054597845 0.0054255114 -0.0018908201 0.00042876226
-0.00014362602 7.481783e-05 0.0074508134 0.0010400284 0.0022067777 -0.00046893736 0.00094354566 0.004263319
-0.0001941865 0.003989013 0.009036105 -0.00010218658 0.006426059 0.001324602 -0.0061130747 -0.00063095125
-0.00066638447 0.0016659755 0.0004616063 0.0027310038 -0.0063141244 0.0036117162 0.005946513 0.0032297235
0.0040614144 0.0026760625 -0.0058498885 0.00031760999 -0.0012494592 -0.005559514 0.0060346588 0.0037027032
-0.0031632534 -0.0055462434 -0.007686083 0.010801984 0.010490305 0.00072646467 0.0038973498 0.013158649
0.0061503607 0.011370117 0.01271251 -0.0033886263 0.0026339465 -0.005288232 -0.008582787 0.0012618259
