ICM/BankHeist/FINAL.BankHeistNoFrameskip-v4.MODEL (torch_old, 568440 bytes, 9 tensors)

weight f4 [32, 4, 8, 8]
000000 ef 24 ae 3c d0 8a ee bc 52 41 67 3d 56 e5 4f bd
       0.021257846 -0.029118925 0.05645878 -0.05075582
000010 b6 c2 87 3d f0 0e c8 3d d2 b7 99 bb e8 a3 5c 3d
       0.06628935 0.09768474 -0.0046911025 0.05386725
000020 21 69 0b bd ab 81 86 bd d0 f5 d8 3c 8c 09 12 bd
       -0.034035806 -0.06567701 0.0264844 -0.035653636
000030 6b 1f ec bd 17 a2 a9 bd 8e e2 ff bd 86 e9 a5 3d
       -0.1152943 -0.08282869 -0.12494384 0.08101182
000040 97 c9 68 bd f5 06 82 bd b8 78 d9 bd 35 8e 1f bb
       -0.056832876 -0.06348983 -0.106187284 -0.0024346237
000050 4d e0 13 be d1 05 be 3d b8 3a 0e 3e 10 6a 6c bd
       -0.14441033 0.09278453 0.13889587 -0.057718337
000060 f1 0a 0b 3d 43 7f ba 3c 60 b8 cf 3d fa 9a 20 be
       0.03394598 0.022765761 0.101425886 -0.15684119
000070 1c 7a b7 3d 50 04 08 3c 9b 45 b0 bc a5 52 cc bd
       0.089588374 0.008301809 -0.021517565 -0.09976701
000080 36 2c d3 3d ec 8e 01 3e ad 2c ee bb 96 e4 2b bd
       0.10311167 0.12652177 -0.0072685094 -0.041966043
000090 5d a7 f5 bd 85 a9 0a 3c 99 74 29 bd c6 5e 51 bd
       -0.11994813 0.008463268 -0.04137096 -0.051115774
0000a0 ed ae f4 bd 1f 64 f5 3d 85 a8 0e be e8 13 95 3d
       -0.11947427 0.11981987 -0.13931473 0.072791874
0000b0 4c d8 02 bc 4b 05 b6 3d 45 9c cc bd 51 cd 08 3e
       -0.0079861395 0.08887728 -0.099907435 0.13359572
0000c0 a6 0d df 3d 9e 11 b1 bd 6b cd 0a 3d df 2e 0f 3e
       0.10891275 -0.08645938 0.033887308 0.13982724
0000d0 c7 f2 e9 3c 1b 00 12 be 20 ea 0e 3e 5c 99 ae bd
       0.028558148 -0.14257853 0.13956499 -0.08525345
0000e0 91 78 a8 bd 16 fd d0 bd 35 dd a7 bd e2 33 8c bd
       -0.08226121 -0.10204522 -0.08196489 -0.06845833
0000f0 da 39 ee 3c ff 81 9e 3d 78 c1 63 bd 6a 51 06 3d
       0.02908032 0.077396385 -0.055604428 0.032792486
000100 c8 d2 9e 3d fa ba e6 bd ae 60 e0 bc cb 65 0c 3e
       0.07755047 -0.11266132 -0.02738985 0.13710706
000110 3b 50 59 3c 4a 2c 2e bc 5d 9d d2 3d 00 aa 72 3d
       0.013263757 -0.0106306765 0.10283921 0.059244156
000120 ab af c2 3d 91 af ef 3d 32 19 04 3e dc e6 49 3d
       0.09506162 0.117034085 0.12900236 0.04929243
000130 6b 75 64 bd 17 66 56 3c 4f 90 df bc 2d 19 d0 3d
       -0.05577604 0.013085864 -0.027290491 0.10161052
000140 84 b7 12 3e ec 9f 12 3e c7 25 21 3c 49 1d b9 bd
       0.14327818 0.14318818 0.009835667 -0.09038789
000150 04 cf 1c be 55 e7 5d bc ff de 12 3d 21 c4 b3 bd
       -0.15313345 -0.013543923 0.035857197 -0.08777643
000160 ec fa e9 bd a2 46 b6 bd 4a af 45 bd e7 ff 6e 3d
       -0.11424813 -0.08900191 -0.04826287 0.058349516
000170 20 9e 58 3d 0e 4a 38 3d 51 5d 09 be d9 78 00 3d
       0.052885175 0.0449925 -0.13414504 0.03136525
000180 1f cc d5 3d e0 d7 1d be 93 dc 9e bc 80 a4 97 3d
       0.10439324 -0.15414381 -0.019392287 0.07404423
000190 d2 44 84 bc 7f f8 e0 3d e0 47 f7 bd 83 53 09 3e
       -0.016146097 0.10984897 -0.12074256 0.13410763
0001a0 45 15 b2 3d 6d 86 18 3e ae 3e 91 bd 36 2d c7 3d
       0.08695463 0.1489503 -0.07092033 0.0972542
0001b0 a8 50 82 bd 72 ff a1 3d 31 5b cd bc 34 5f b4 3d
       -0.0636304 0.079100505 -0.025067898 0.08807221
0001c0 91 66 f5 3d 70 c7 06 be 26 79 2c 3c bf fe f6 bd
       0.119824536 -0.13162017 0.010526931 -0.12060308
0001d0 38 26 b6 bc 18 82 11 be 4e 60 bd bd c6 58 db 3c
       -0.022235021 -0.14209783 -0.09246884 0.026775729
0001e0 df a1 cf bc a7 65 ea bd bd 17 8f 3d 95 6d ac 3c
       -0.02534574 -0.1144517 0.069869496 0.021048347
0001f0 ce 43 cb bd 7a fa 19 be 75 92 e9 3d a0 2a e7 3d
       -0.09925042 -0.15036955 0.114048876 0.11287427
000200 67 59 ff 3d 24 0d d0 bd da 10 11 3d 7f bf a1 bd
       0.12468224 -0.101587564 0.03541646 -0.07897853
000210 e1 5a e0 bb a5 ff 99 3d 76 04 53 bd 8b b3 9c 3d
       -0.006846771 0.075194634 -0.051517926 0.076514326
000220 5d 52 e6 3d 61 27 b8 bd c5 6a 19 3e 6f df c5 3d
       0.11246178 -0.08991886 0.14982136 0.09661757
000230 78 20 ab 3b 53 27 c4 bc 8e 78 eb 3d 9d a2 0f 3d
       0.0052223764 -0.023944532 0.11497603 0.03506719
000240 0a 13 c5 3d 45 20 e1 3d 99 21 b7 3d 9d 85 aa bd
       0.09622772 0.10992483 0.08941955 -0.08326266
000250 91 e9 2c bd 17 5a 14 3e 74 ee 09 be aa 55 2e bd
       -0.042214934 0.14487492 -0.13469869 -0.042562164
000260 bd 8f 55 bb 10 4c 50 3d 4d 68 e6 3d 73 2b 1a bd
       -0.0032586895 0.05085379 0.112503625 -0.037639093
000270 cf 65 ad 3d f2 29 ce 3d e7 1b d8 3d a5 15 4b 3b
       0.08466684 0.10066594 0.10552197 0.0030988243
000280 67 57 88 3d ba 6c fd 3c 2c bd 02 3e 6d 66 2e 3d
       0.06657296 0.030935634 0.12767476 0.04257815
000290 39 d2 08 be 9f 5e ea bc 60 2c 27 3d 68 b7 d0 bd
       -0.13361444 -0.028609572 0.040813804 -0.10191232
0002a0 b8 02 9a bc f5 5f 9f bd 57 73 b2 bd f1 fe 10 be
       -0.018800125 -0.07781974 -0.087134056 -0.14159752
0002b0 a7 b9 a4 3d 45 99 05 3e 8a 4e d2 3d 7f 48 66 bd
       0.08043223 0.13046749 0.102688864 -0.05622148
0002c0 c5 92 a9 bc 19 21 f0 bd d0 97 17 3c 85 e4 68 3d
       -0.020699868 -0.11725063 0.0092525035 0.05685856
0002d0 2c 6b c6 3d 24 8c 6b 3c 0d 88 91 3c bd cb 64 bd
       0.0968841 0.014376674 0.01776507 -0.055858362
0002e0 e6 16 17 be 71 ba 43 bd b1 56 1d 3d 8d fc 08 be
       -0.14754829 -0.047785226 0.038412753 -0.1337759
0002f0 e6 22 a0 3d f4 6f f2 bd 23 fc 08 3c 77 93 dc 3d
       0.07819156 -0.118377596 0.008360895 0.10770314
000300 a4 fc b8 3d 05 44 11 be 9b 46 71 3c 05 dd 63 bd
       0.090325624 -0.14186104 0.014726306 -0.055630703
000310 4d 4d 01 bc 9e 2a 5b 3d 2f f5 06 bc ac 06 e8 bd
       -0.007891965 0.05350744 -0.008237167 -0.113293976
000320 62 91 e2 3c 5a ae 5b bd 54 78 f5 bb 7a 3a 80 3c
       0.027657215 -0.05363307 -0.007491151 0.015652884
000330 7c 4f 6e 3d d6 46 40 3d 49 89 18 be 6b 35 0e 3d
       0.05818127 0.046942554 -0.1489612 0.034718912
000340 c2 5d 19 3e 49 57 2f bd b7 7c 57 bd 85 e2 05 be
       0.14977172 -0.04280785 -0.05260917 -0.13074692
000350 a9 7e 92 3d c2 97 f9 3d c1 ab 08 be a9 06 6e bd
       0.07153065 0.12187149 -0.13346769 -0.05811182
000360 84 14 ab bd 59 c7 ef bc 18 bd f1 bd 64 48 16 3e
       -0.083535224 -0.029269861 -0.11803645 0.14676052
000370 a8 d3 0f be 74 d4 08 bd 52 30 1e bd 66 25 d6 bd
       -0.14045584 -0.033405736 -0.0386203 -0.10456352
000380 e7 fb e2 bc 6b 62 e3 bd b3 7a 65 bb 3e 8f b5 bc
       -0.027708007 -0.11102756 -0.0035015761 -0.02216303
000390 9f 90 10 be 68 e7 16 3e 40 5f a5 3c f0 df bd bd
       -0.14117669 0.14736712 0.02018702 -0.09271228
0003a0 0b a7 19 3e d7 9f 17 3e 1a 58 fa 3d 20 cd 07 bd
       0.15005128 0.14807068 0.12223835 -0.033154607
0003b0 5f b5 8a 3c 98 b0 56 3d cd 70 be 3d 95 3f e9 3c
       0.016932188 0.052414507 0.09298859 0.028472701
0003c0 ea 6a 81 3c 86 55 02 3e e3 92 21 bd 58 73 0d be
       0.01579805 0.12727937 -0.039446723 -0.13813531
0003d0 ad bf ed 3d 71 a9 38 3d d4 8a f0 bb ec 51 7e bd
       0.11608825 0.045083467 -0.0073407684 -0.062089846
0003e0 0d 9d 19 be 01 ba 0a 3d 87 e9 6f bc 52 a3 bf 3d
       -0.15001316 0.033868793 -0.01464308 0.09357323
0003f0 76 82 1b 3e 04 20 1a bd 12 de c8 bc b1 59 09 3e
       0.15186486 -0.03762819 -0.024519954 0.13413121

bias f4 [32]
000000 e3 2d 11 3c 4f 77 7e 3b 55 6a 14 3c a3 21 6d 3b
       0.008861038 0.0038828438 0.009058555 0.003618338
000010 9a ee 56 3b 43 1f 34 3c 4f 20 60 3b 8f ea 59 3c
       0.0032796026 0.0109937815 0.0034198945 0.013300552
000020 f9 f5 c5 3b 61 02 b6 3b 48 96 be 3b 12 f1 ee 3a
       0.006041285 0.005554483 0.0058162548 0.0018229804
000030 d4 4e e8 3b 62 61 0b 3c 7f 9a 4c 3c e1 2a 3b 3c
       0.007089475 0.008507105 0.012488007 0.011423797
000040 5c 7a 65 3c 22 fe 3f 3c ae 83 8f 3b 36 9b 50 3c
       0.0140062235 0.011718305 0.004379711 0.012732318
000050 13 ae 35 3c ca 31 03 3c 5a cd da 3a ac 6d 63 3c
       0.011088866 0.008007476 0.001669328 0.013881128
000060 dd ae 3e 3b d1 79 c3 3b 74 bb 2b 3b 4c 76 fb 3b
       0.0029095926 0.0059654494 0.002620426 0.007674014
000070 21 75 fe 39 ad 5f 15 3c 50 cb b5 3b 69 af bc 3b
       0.00048533923 0.009117049 0.0055479184 0.005758215

weight f4 [64, 32, 4, 4]
000000 a2 6a 64 bd 79 0e a3 bd 67 7d 9c bd 04 c2 65 bc
       -0.055765755 -0.07961745 -0.07641106 -0.014023308
000010 9c c4 1b 3d d9 36 fc bb 8a 00 c1 3d 97 85 eb 3c
       0.0380293 -0.007696968 0.09423931 0.028750224
000020 4e 59 ca 3b bd 02 3b bd e1 9d ba 3d a9 ab ba bd
       0.0061751967 -0.04565691 0.09112144 -0.09114773
000030 3f 49 5c bd 31 52 df 3c 89 af a9 bd 46 46 3f 3d
       -0.05378079 0.027260872 -0.08285434 0.046697877
000040 0e 36 12 3d 49 5f d2 bd ee 81 bd bc bd 73 9f bc
       0.03569608 -0.102720805 -0.023133244 -0.019464368
000050 5f d3 db bd 44 04 6c 3d 6e 62 92 3d a7 c2 3a 3d
       -0.10733675 0.057621256 0.0714768 0.04559579
000060 3f 93 c5 bd 4e 2a 7a bd 45 13 26 3c 27 95 ac 3c
       -0.096472256 -0.0610755 0.01013643 0.021067215
000070 ff 2b bc bd d4 4c ba bd 60 80 66 bc 83 f4 a0 3d
       -0.09188079 -0.09096685 -0.014068693 0.07859137
000080 de e8 5d 3d 0c e2 58 3c 2d 0f 1c bd 13 cc 36 bc
       0.054177158 0.0132374875 -0.03810041 -0.0111570535
000090 aa af 4c 3d eb 39 12 bd 38 d8 09 bd 9e db 41 3a
       0.049972214 -0.035699766 -0.033653468 0.0007395091
0000a0 15 10 cf 3d 55 71 a7 bd 14 d2 8f 3c b7 a6 de bd
       0.10110489 -0.08175913 0.017556228 -0.10871642
0000b0 44 f1 a1 3d 4e a4 d4 bd 62 3f a6 bd f0 0d 35 3d
       0.07907346 -0.10382901 -0.08117558 0.044202745
0000c0 d8 e3 ab bd dc 2b d4 3d 20 91 de bc 68 68 74 bd
       -0.08393067 0.10359928 -0.02716881 -0.059669882
0000d0 bb 8c 6a 3d 3c 86 3c bd 1d 95 51 3b 9b ce e7 3d
       0.057263117 -0.046026453 0.0031979748 0.11318704
0000e0 cb 8a 94 bc 9e c6 26 3d 7c dd 4f 3c 24 4d e5 bb
       -0.018132588 0.04071676 0.012687083 -0.0069977213
0000f0 b9 80 85 bd d9 b0 c2 bc 90 95 d3 3d 98 2c 89 bd
       -0.065186925 -0.023765968 0.10331261 -0.06697959
000100 ad 83 b8 bd 9f 74 b8 ba 7a 6e ef 3b 1c 8d 57 3d
       -0.0900949 -0.0014072842 0.007306871 0.052624807
000110 a5 4b b9 3d 5f 8a bb bd 8d e5 dd bd 07 30 72 bb
       0.09047631 -0.091572516 -0.10834799 -0.0036954896
000120 1d 1e 38 3c 31 3f 22 3d c3 9e c9 bd 75 ce 3f bd
       0.011237648 0.039611045 -0.098447345 -0.046827752
000130 88 dd 0a bd 7d f2 c0 bc c4 8a ee 3b 24 55 41 bc
       -0.033902675 -0.023553127 0.0072797257 -0.011800084
000140 62 6d 8d bc 64 f2 b3 bd fc d3 d0 bd f5 2b ad bd
       -0.017264072 -0.08786467 -0.10196683 -0.0845565
000150 99 68 b1 bd 1c 11 83 3d 84 9b 5d 3d 09 61 91 bd
       -0.086625285 0.06399748 0.05410339 -0.07098586
000160 07 ae 8a 3d 33 23 9b 3d 2d a8 8c 3d fa 68 c1 bc
       0.06771474 0.07575073 0.068680145 -0.023609627
000170 36 53 cb bd 93 74 a2 bc d9 08 dc 3c 6e 6e 4f bc
       -0.099279806 -0.019830978 0.026859688 -0.012660606
000180 d0 a3 3f bd a6 39 de bd 70 bd af bd 05 a3 97 3c
       -0.046787083 -0.10850839 -0.08581054 0.018510351
000190 9f f2 d2 3d bb 53 1d bd 7f 29 a0 3b 5c ff b3 3d
       0.103001826 -0.03840993 0.004887759 0.0878894
0001a0 6c db 92 3c 5b 82 62 3d b1 6f c4 bd bf e4 29 bd
       0.017926894 0.055300098 -0.09591616 -0.041477915
0001b0 d6 4e 23 bd fc ef e1 bd ad fc 94 3c 69 18 d3 bd
       -0.039870106 -0.110321015 0.018186891 -0.1030739
0001c0 43 21 cf bc c2 b5 2f bd 70 b2 c9 3d 9f cf 69 3d
       -0.025284415 -0.042897947 0.098484874 0.05708277
0001d0 bb 94 9f 3d de ad bb 3d eb e6 60 bd 83 c0 85 3d
       0.0779204 0.09164022 -0.05490772 0.06530859
0001e0 da 51 0f 3d 7d 30 8a 3c e2 15 2e 3c c6 bd cc 3c
       0.03499017 0.016868824 0.010625334 0.024992835
0001f0 d0 2e 7b bc ae 78 53 3d 75 66 ce bd 69 64 7f 3d
       -0.015330985 0.05162876 -0.10078136 0.062351618
000200 2b 96 d3 3d 0e c8 c1 bd 15 9d 22 ba 91 bc d1 3d
       0.10331377 -0.094619855 -0.00062032166 0.10241044
000210 49 d8 54 3d 69 de 01 bc 5a a0 82 bd 3b d6 5e 3c
       0.051964078 -0.007926562 -0.06378241 0.013600881
000220 76 5b b8 3d 08 ff 80 3d 6b 2a 93 bd 7a 77 f4 bc
       0.0900182 0.06298643 -0.07185825 -0.029842127
000230 95 41 c1 bd 70 be b3 3c b4 7f 7c 3d b1 11 5a 3d
       -0.09436337 0.021941394 0.061645225 0.053239528
000240 b0 ff 11 3d cb 0a c8 bd 8c 96 a2 3b ba 61 77 bc
       0.035644233 -0.097676836 0.0049617942 -0.015098983
000250 3a 1f 3c bd cd d9 cf 3d ff 70 c0 bd 78 01 96 3d
       -0.045928217 0.10148964 -0.09396552 0.07324499
000260 41 70 67 bb 06 e7 70 bb d7 12 95 bd 3c 62 d8 3d
       -0.0035314711 -0.0036758794 -0.07278984 0.10565612
000270 80 22 b4 3d bc da 59 bd fa 6d cc bd fa 81 cb 3d
       0.08795643 -0.053187117 -0.09981914 0.099369004
000280 96 a6 58 3d b3 39 92 bc 2e ed c0 3d ab 77 f0 3c
       0.052893244 -0.017849779 0.094202384 0.029353937
000290 36 af 53 3d e7 89 60 3d 83 fa 09 3d a4 ae 67 3c
       0.051680766 0.054819014 0.033686172 0.014140759
0002a0 6a 97 b0 bd 53 29 5e 3d ac eb 37 3c 2a b7 55 3d
       -0.0862263 0.05423863 0.011225622 0.052176632
0002b0 3f f6 7c bd 31 a8 9a bd b3 ed 90 3d f6 01 c0 3d
       -0.061758276 -0.07551611 0.070765875 0.09375374
0002c0 91 11 5d 3d b3 36 97 bc bb 8e cc bd e4 9e 24 bd
       0.05397183 -0.0184587 -0.09988161 -0.040190592
0002d0 6e 37 a8 bd 8f d9 bf bd c8 33 8e 3d 62 24 60 bd
       -0.082136974 -0.09367668 0.0694347 -0.054722197
0002e0 27 f7 b8 3d 10 db 0a bd f4 da 51 3c 72 2a 2f bc
       0.090315156 -0.03390032 0.01280855 -0.010691272
0002f0 71 22 a3 3d 22 db 07 bd 37 aa f5 bc 6b a9 03 bd
       0.079655536 -0.033167966 -0.029988391 -0.03214399
000300 c7 63 b1 3d 33 6a c1 bd b5 78 59 bb 84 f8 ac bd
       0.08661609 -0.09444084 -0.003318352 -0.08445838
000310 60 5e 9d bd e9 b4 ae 3d 77 9e 83 3a 03 ba d2 3d
       -0.07684016 0.085305996 0.0010041733 0.10289385
000320 19 69 e4 bd 19 a4 cc 3d e4 21 d7 bc 5d 93 3b bd
       -0.11152858 0.09992237 -0.026261277 -0.045794833
000330 c7 ff a1 3d 02 6d 19 3d 6b 17 fd 3c 38 bb bf bc
       0.07910114 0.037457474 0.030894956 -0.023404703
000340 1a 43 52 bd 2b a3 fa bc 9c 8b 66 3b 61 36 81 bd
       -0.051333524 -0.030595383 0.0035178429 -0.063092
000350 63 01 85 3c 8a 0b 17 3d 22 57 2c 3d e3 60 02 3d
       0.016236013 0.03687624 0.042075284 0.03183068
000360 64 eb 99 bd ae 6c 9b 3b 79 76 4f 3d 91 66 a6 3b
       -0.075156 0.0047431802 0.050650094 0.005078145
000370 a8 5d 39 3c d3 27 db bc e8 35 71 bd 8c f5 99 bc
       0.011313833 -0.026752388 -0.0588893 -0.018793844
000380 d1 8d d0 3c 35 15 32 bd 2b 57 ed bc 6c ff a0 bd
       0.025458248 -0.043477256 -0.028972229 -0.07861218
000390 8e d0 b8 bd 38 43 b8 3c e7 ce d3 3b 21 9b 64 bc
       -0.09024154 0.02249299 0.0064638737 -0.013953001
0003a0 33 14 cd 3d 65 54 59 bd 33 56 9f bd 02 86 a4 3d
       0.10013618 -0.053059 -0.07780113 0.080333725
0003b0 8e b0 5d ba c5 84 a2 3d ca f6 b5 bd 67 65 9c 3d
       -0.00084567897 0.0793548 -0.08884962 0.076365285
0003c0 1b 58 d9 bb cd 25 ab bc 5a b4 d2 bd ef c9 a4 bc
       -0.0066328174 -0.020892048 -0.102883056 -0.02011582
0003d0 48 4f b5 bd 00 9c 5e bd 9e fd ae bd f3 67 53 3c
       -0.08853012 -0.054347992 -0.085444674 0.012903201
0003e0 f8 d5 7e bd a7 c5 20 3d b1 73 d8 3d 7c 9f 7f bd
       -0.062215775 0.039250996 0.105689414 -0.062407956
0003f0 4a d7 b8 bd d2 0a e6 bd f3 70 68 bc af 77 19 3d
       -0.09025438 -0.112325326 -0.014187085 0.037467655

bias f4 [64]
000000 e1 af 71 3b 95 b6 3b 3c e4 fd eb 3b 7d b1 1f 3c
       0.0036878514 0.011457105 0.007201897 0.009746906
000010 6a b1 00 3c 47 fd 15 3c 20 3a e3 3b 2d 60 76 3c
       0.007854799 0.009154624 0.0069344193 0.0150375785
000020 87 40 18 3c cb 7e d1 3b e8 32 c5 3b 5b c5 ef 3b
       0.009292728 0.0063932887 0.0060180314 0.007317228
000030 8a 8b 60 ba 3d 30 d1 3b 17 f5 a7 3b 4c f0 e2 3b
       -0.0008565715 0.0063839243 0.0051256525 0.0069256183
000040 c1 e7 51 3c 46 8f 81 3b 63 fe 14 3c fb a7 85 3b
       0.012811602 0.003953847 0.009093854 0.0040788627
000050 ed d8 e9 3b 17 01 36 3b bf d2 05 3c 6e 84 b0 3a
       0.0071364553 0.0027771646 0.008167922 0.0013467201
000060 26 58 56 3c 69 fc ec 3b d8 2a 11 3c be 67 b5 3b
       0.01308254 0.007232238 0.008860312 0.0055360487
000070 8d 51 ca 3b 34 0c 4d 3c ec 0a 14 3c c0 1a 06 3c
       0.0061742724 0.0125151165 0.009035807 0.008185089
000080 28 1d 54 3c 1a 37 cc 3b 33 cb 34 3c 85 d5 1a 3c
       0.0129464045 0.0062321546 0.011034775 0.009450321
000090 36 a4 40 3c 72 70 ca 3b 68 ec b0 3b cb cd 6a 3b
       0.011757901 0.0061779553 0.0053992756 0.0035828229
0000a0 c0 d6 ac 3b f3 d6 18 3c 78 65 fa 3b 3c 0e 18 3c
       0.0052746236 0.009328592 0.0076414905 0.0092807375
0000b0 83 12 3c 3b 35 b5 55 3c d5 f5 3c 3c 22 3b a0 3b
       0.0028697557 0.013043691 0.01153322 0.0048898617
0000c0 ac 9a 77 3b 29 d3 dd 3a 47 e2 f4 3b 5b 8c 1e 3c
       0.00377814 0.0016923893 0.0074732634 0.009677018
0000d0 af 30 f6 3b 00 2a 19 3c d1 11 29 3b ad 1f bc 3b
       0.0075131278 0.0093483925 0.0025797973 0.0057410807
0000e0 84 44 3b 3c 06 55 45 3c 6e ab ff 3b df 85 27 3c
       0.01142991 0.012044197 0.0078024184 0.010224788
0000f0 a4 f6 fb 3b 9f 7f 4a 3b 63 dc c8 3b 06 c6 76 3b
       0.007689314 0.0030898822 0.006129788 0.0037654652

weight f4 [64, 64, 3, 3]
000000 ec 67 9b 3d e5 b8 c6 3c 72 1c 1f bd 60 dc e1 bd
       0.07588181 0.024258086 -0.038845487 -0.11028361
000010 39 69 62 3c 5d e8 55 bc 72 2d 54 bd 51 56 cd 3b
       0.013819032 -0.013055888 -0.051801153 0.0062663932
000020 66 b8 bf bd 1f 93 bd bd 57 f4 52 bd 14 f2 74 3c
       -0.09361343 -0.09256577 -0.051502552 0.014950294
000030 7b b9 e0 3c d5 67 1a 3c 8f 20 5b 3c de 97 68 bc
       0.027432194 0.00942417 0.013374462 -0.014196364
000040 10 9e b0 3d 40 45 b4 3d d5 d1 29 bd 42 a1 32 bd
       0.08623898 0.08802271 -0.041459877 -0.04361082
000050 8a 7b 84 bd e4 a1 cf bc 66 c8 65 bd b6 d2 0a 3d
       -0.06468876 -0.02534575 -0.056099318 0.033892356
000060 7a b5 32 bd 48 a4 c4 bd 0d 55 75 bc dc 9a 82 3c
       -0.0436301 -0.09601647 -0.014973891 0.015942983
000070 29 b3 a3 3d 61 62 7d 3c 53 ea cb 3d 00 76 a2 3d
       0.079931565 0.01546535 0.09956803 0.07932663
000080 8a 74 4f bd 23 ca a8 3b 52 fb 9f 3d d2 16 2d bd
       -0.05064825 0.0051510497 0.078116074 -0.04225809
000090 44 e1 74 3d 1d f6 b6 3d 36 ed 7f bc ed a2 a6 3d
       0.059785143 0.08933661 -0.01562052 0.081365444
0000a0 dd 6b c7 bc 2a ee ae 3d fe c7 98 3d 60 7c bd bd
       -0.024343425 0.0854152 0.074600205 -0.09252238
0000b0 65 7a 9a bd b5 5c 27 bd 1c 40 56 3d 44 17 51 3d
       -0.07542876 -0.040859897 0.052307233 0.05104758
0000c0 a6 36 9c bd 97 75 cb bb 46 39 65 bd 01 3d de 3d
       -0.07627611 -0.006209086 -0.055962823 0.10851479
0000d0 8a e6 59 bd 79 63 b3 bb c4 86 62 bd fd f7 41 bc
       -0.053198375 -0.0054745045 -0.055304304 -0.01183891
0000e0 3e 3b aa bd 9b 12 81 3d 28 76 82 3d b7 d2 c6 bb
       -0.08312081 0.06302377 0.06370193 -0.0060675996
0000f0 64 35 b1 3d 9a 91 a1 3d ca fa 8f bc 12 5a ff bc
       0.086527616 0.078890994 -0.01757564 -0.031170879
000100 c0 32 be bd be ff 88 3d 35 d6 a5 3d c6 10 55 bd
       -0.092870235 0.06689404 0.080974974 -0.05201795
000110 5b 11 81 3d 45 fc 35 bc 85 37 62 bd 36 d3 1f bd
       0.063021384 -0.011107509 -0.05522873 -0.039019786
000120 78 94 77 3c 5b 63 95 3d a1 a1 6e 3d a2 7b a5 3c
       0.015111081 0.07294341 0.05825961 0.020200554
000130 5d f3 5c bd 79 a1 be bc a1 6a a0 bd d9 6f 87 bc
       -0.053943027 -0.023270356 -0.07832838 -0.016532825
000140 75 0f 00 bd 59 9b a3 3d 7c e3 ba 3d 41 69 ca 3c
       -0.03126474 0.079886146 0.091254205 0.024708392
000150 93 c0 ac 3d fc 1a 39 bd 4c d7 97 bb c0 83 a6 3c
       0.08435168 -0.04519175 -0.0046338197 0.020326495
000160 e7 16 83 bc 62 a9 bd bd 9f 6d 6f 3c 26 24 46 3d
       -0.016002132 -0.09260823 0.014613538 0.048374318
000170 bb 09 80 bd 6f dd 88 bd 96 66 03 3d 6a f1 28 3d
       -0.06251856 -0.0668286 0.032080255 0.041245855
000180 14 d5 9d bd 42 d1 b3 3d c5 bd 13 3d 24 1c 8b 3d
       -0.07706657 0.08780147 0.03606965 0.06792477
000190 5a bb c7 3c 9b 96 7e bd e8 76 99 bd fc 6d 8b bc
       0.024381328 -0.062155347 -0.07493383 -0.017020218
0001a0 97 9b af 3d bc 23 a4 bd 87 77 84 bd be dd d0 bb
       0.08574598 -0.08014628 -0.064681105 -0.00637409
0001b0 84 97 8d 3d 66 34 22 bb 97 94 b0 3c 08 e1 01 bc
       0.06913665 -0.002475047 0.021555228 -0.007927187
0001c0 57 41 b0 3d d2 8c 38 bd c0 54 9b 3d ca af 93 bd
       0.086062126 -0.04505617 0.07584524 -0.072112635
0001d0 65 3d 13 bc cc e8 0c bd 31 38 33 3a c4 41 aa bc
       -0.008986806 -0.0344017 0.0006836681 -0.020783313
0001e0 d1 a4 5d 3c 6f 4a a2 bc 17 fc 94 bd ec 68 8c bc
       0.013528065 -0.019810883 -0.07274645 -0.017139874
0001f0 35 7b 1a bd 44 f5 ae bc cd 2d 84 3c af ef aa 3d
       -0.037715156 -0.021357186 0.01613512 0.08346497
000200 f4 5c fd bb 84 41 2b bc 5a 58 51 bd 5e f2 a6 bd
       -0.007732028 -0.010452632 -0.05110965 -0.081516966
000210 31 3c c6 bd 7b a1 a1 bd 6c 2d be bd c6 d4 9a bd
       -0.09679449 -0.07892128 -0.09286007 -0.075601146
000220 46 69 0f 3d fa a0 cc bd 5e 6a ba 3d fd 5e a6 bd
       0.035012506 -0.09991641 0.09102319 -0.08123586
000230 08 86 cd bd be 58 97 bc 51 63 55 bd a8 0b 79 bd
       -0.1003533 -0.018474933 -0.05209667 -0.060802132
000240 80 41 80 3d 90 f8 76 3d 03 11 4f bd f7 64 8c 3d
       0.06262493 0.06029564 -0.050553333 0.06855195
000250 ec 1c 9b 3d 7b 4a ea 3c e1 cd 00 3d ba 45 39 3d
       0.07573876 0.028599968 0.03144634 0.045232512
000260 0d ab a7 3d c1 27 ac bd 70 3f dd bb c9 d0 ca bd
       0.08186922 -0.0840602 -0.006751947 -0.09903104
000270 fe c0 e8 bc ec b3 ac bd e9 2f 25 bd 18 0d 66 bd
       -0.028412338 -0.08432755 -0.040328894 -0.05616483
000280 ec 2a 8c 3d a7 bd a7 bc 37 8a 7e bc eb 17 93 3c
       0.06844124 -0.020476175 -0.015535883 0.01795574
000290 e6 91 e8 3c a3 42 bc bd c6 3c 80 3d 96 f0 83 3d
       0.028389882 -0.091923974 0.062615916 0.064423725
0002a0 32 d6 12 bd df 64 e3 3d 84 bd 84 bd e6 ba 99 3d
       -0.035848804 0.11103224 -0.0648146 0.07506351
0002b0 77 e4 9b bc 8f f9 8f 3d 57 ca b7 bc fa b1 da 3b
       -0.019029839 0.070300214 -0.02243535 0.0066740485
0002c0 88 f4 04 bc b7 3f a2 bc 0c 49 3b bc ea dd c8 3d
       -0.008114941 -0.019805772 -0.01143099 0.09807952
0002d0 74 cc 94 3d ae 30 9a bb 4e 51 10 3d 5e d3 10 bd
       0.07265559 -0.00470551 0.03523379 -0.035357825
0002e0 7c 6b be bc a3 6c fb 3c a1 e4 50 3c 5e 62 9e 3d
       -0.023244612 0.03069145 0.012749822 0.07733606
0002f0 1f cb c9 3d 58 29 af 3d 9d 75 46 bc 1c aa 49 bd
       0.098531954 0.085528076 -0.012113002 -0.049234495
000300 ad 8b b9 3d f6 57 62 3d 90 4b 81 bd 9e b2 72 3d
       0.09059844 0.055259667 -0.063132405 0.059252374
000310 8b a1 55 3d 68 a6 a1 bd 28 db 8f bc dc 6b b3 bc
       0.052156013 -0.078930676 -0.017560557 -0.021902017
000320 06 3e ae bc 32 80 30 bc ba a2 2a 3d 6f 36 a1 bd
       -0.02126981 -0.010772752 0.041659094 -0.078717105
000330 42 ba b3 bc 54 df 40 bd 36 08 ef 3c b1 bc 36 3d
       -0.0219394 -0.047087982 0.02917872 0.044613544
000340 ea 28 05 3c 36 0b a5 bc 75 89 c0 3d fa 50 57 bc
       0.00812743 -0.020146947 0.09401218 -0.013141865
000350 fa 98 19 3d a8 0f d3 bd f4 18 86 bd cd 0f b3 3d
       0.037499405 -0.103057206 -0.06547728 0.08743248
000360 64 44 ee bb 86 af c5 bd ac 5f 2a 3d 36 41 79 3d
       -0.0072713364 -0.09652619 0.041595146 0.060853206
000370 34 c4 03 3d 96 ed 73 bc 90 54 25 3d b4 03 a0 3d
       0.032169536 -0.014888188 0.04036385 0.07813206
000380 61 03 08 bd c8 1d 81 bd fe cb 89 bd b7 fc 93 3a
       -0.033206347 -0.063045084 -0.067283615 0.0011290525
000390 bc 54 37 bd ff 0a ba bd e2 da 1e 3d d7 10 6b 3c
       -0.044758543 -0.090841286 0.03878296 0.014347277
0003a0 48 6a c0 3d bd 56 30 bd 0d bd c1 bd 02 3b 76 bd
       0.093952715 -0.04305147 -0.09459887 -0.060114868
0003b0 ee 9b 51 bd 00 87 9e bd c8 79 d2 3d cb 61 3f 3c
       -0.051174097 -0.07740593 0.10277134 0.0116810305
0003c0 86 9b 4b bc 0b 07 72 bd ab 5b 2c bd 88 1d 77 bd
       -0.012427216 -0.059088748 -0.04207961 -0.060330898
0003d0 47 b6 37 3d ab 45 2f 3d 62 f2 83 bd 48 70 5f 3d
       0.044851568 0.04279105 -0.06442715 0.05455044
0003e0 91 bd 7a 3c 61 da a9 bd 67 06 5c 3c d6 34 0c 3d
       0.015303985 -0.082936056 0.013429261 0.034230076
0003f0 05 e7 17 bd a4 86 7d bd 3f fb cd bd 94 8d ca bd
       -0.03708555 -0.06189598 -0.10057687 -0.09890285

bias f4 [64]
000000 85 08 34 3c a9 22 53 3c 7f a7 37 3c 24 47 16 3c
       0.010988359 0.012886682 0.011209368 0.009172235
000010 81 60 ce 3b 76 23 86 3b 49 48 3a 3c e6 e4 bd 3b
       0.0062981253 0.0040935827 0.011369773 0.005795109
000020 a5 6a 9c 3c 87 d9 5b 3c cb f2 03 3c f1 0f 3c 3c
       0.01909382 0.013418562 0.008053492 0.01147841
000030 18 05 f0 3b dd 45 28 3c 3d d7 7b 3b 75 43 ed 3a
       0.007324826 0.010270563 0.0038427853 0.0018101769
000040 c8 38 eb 3b d8 d2 20 3c da 34 c0 3b cf dd ee 3b
       0.0071783997 0.009815894 0.0058656754 0.0072896252
000050 d3 5d 53 3b c9 49 2b 3c 8a d2 1a 3c 86 3d a1 3b
       0.0032251969 0.0104546035 0.0094496105 0.0049206642
000060 2e 1c 2d 3c 69 9e a0 3b 78 49 2c 3b b1 d3 92 3b
       0.010565801 0.0049016965 0.0026288908 0.004480802
000070 d9 f8 f6 3b 92 34 c0 3b 1c 5c b9 3b 67 2c 48 3c
       0.007536989 0.005865642 0.0056567322 0.012217618
000080 9e c0 81 3b 57 af 46 3b c8 06 f9 3b aa a4 30 3c
       0.0039597293 0.0030316913 0.0075996853 0.0107814465
000090 36 27 f6 3b 27 f5 06 3c 2a 93 ff 3b 5f 33 7c 3c
       0.0075119985 0.00823716 0.0077995257 0.015393107
0000a0 2c 9f dc 3b 3f 1d a9 3b 53 99 f6 3b 57 a8 2f 3c
       0.006732842 0.005160957 0.007525602 0.010721288
0000b0 f8 4e fd 3b 17 8a 04 3c 1f d4 f5 3b 34 d8 e7 3b
       0.007730361 0.008089564 0.0075020934 0.007075334
0000c0 17 96 b0 3a 89 47 3e 3b b7 f5 1e 3c 33 ed 3f 3c
       0.0013472465 0.0029034337 0.009702138 0.011714268
0000d0 8e d8 13 3c 89 36 23 3c 64 b2 8c 3c 0e 46 76 3b
       0.009023799 0.009961733 0.017174907 0.0037578377
0000e0 3b 63 35 3c 80 82 3c 3c fd db 8e 3b 8b 4f 29 3c
       0.011071022 0.011505723 0.0043597207 0.010333906
0000f0 30 a5 12 3c 88 ee 13 3b ca ea 00 3c 31 ef d0 3b
       0.008950517 0.0022572596 0.007868478 0.00637617

weight f4 [18, 3136]
000000 b8 59 19 3d 9b 1e 3b b9 a6 2b ba 3c 82 61 29 3d
       0.037439078 -0.00017845111 0.022725891 0.041352756
000010 f4 f4 1c bb 95 11 7b 3c 15 7c 91 3c 65 96 04 3d
       -0.0023949714 0.015324016 0.017759362 0.03236999
000020 1b ea 38 bc 73 01 0c bc eb 55 93 ba 30 01 a3 3c
       -0.011286284 -0.008545267 -0.0011240816 0.019898027
000030 fe b7 38 bd 9e 8d b9 bb c8 c5 97 bb 86 cc d7 bb
       -0.045097344 -0.005662634 -0.0046317317 -0.0065856604
000040 10 e2 9c 3c 9f ce c7 3b 82 3a 2f 3d 4f 7f 0f 3d
       0.019150764 0.006097629 0.042780407 0.03503352
000050 f5 50 66 3b f4 ee 19 bb cf 10 15 bd 5c 34 0d 3c
       0.003514347 -0.0023488374 -0.036392983 0.0086184405
000060 9c b8 f0 3c 5c 68 8c bb 17 f4 68 bc 63 da 8b 3c
       0.029384904 -0.0042849015 -0.014218352 0.017071908
000070 23 02 0f bd 30 8a 08 3d 67 4e 1b bd 49 7a 19 bd
       -0.034914147 0.03333491 -0.037916567 -0.037470136
000080 88 c9 35 3d 59 e1 8d 3c bd ed 25 3c d8 2e e2 bb
       0.04438165 0.017319368 0.010127482 -0.006902557
000090 bb 54 70 bc 05 2c 03 3d 82 36 2a bd dd cd 97 3c
       -0.014668639 0.032024402 -0.04155589 0.01853078
0000a0 52 75 34 bc db fc 37 3a 0d e8 20 bd 3a 92 36 3c
       -0.0110142995 0.00070185744 -0.0392838 0.011143262
0000b0 e8 55 0b ba 7c 00 01 bd c0 99 c7 3c df 56 0a 3d
       -0.000531523 -0.031494603 0.024365306 0.033774253
0000c0 71 62 1b bd f2 7b 87 3c 36 d8 02 3d df f1 3a 3b
       -0.037935678 0.016538594 0.031944476 0.0028525514
0000d0 bc 28 46 bd bc 81 bb 3c 27 6d bd bc de 84 d3 3c
       -0.04837869 0.02288901 -0.023123337 0.025820192
0000e0 09 0c 63 bc 33 c0 1c bc 0b 8d 0d 3d 98 ac 2a 3c
       -0.01385785 -0.009567308 0.034558337 0.010417126
0000f0 2c 80 86 bc 98 bd 84 bc b4 4a d7 3c 37 4e 2b 3d
       -0.016418539 -0.016203687 0.026280738 0.04182264
000100 ce c7 00 3d 5f 61 ad 3c d1 58 14 3d c0 c2 8b bc
       0.03144055 0.021164594 0.036217514 -0.017060637
000110 8a 98 87 3b ae d9 12 bd fa 84 48 bc d1 04 2c 3d
       0.004138057 -0.035852127 -0.012238735 0.04199678
000120 ea f8 83 bc bb be f0 ba 02 6a d2 3b de ed f0 3c
       -0.016109902 -0.0018367389 0.0064213285 0.029410299
000130 1d b9 f0 bb bf 3c 6e bc ac 3d 2f bd 17 b2 d8 3c
       -0.007346286 -0.01454085 -0.042783424 0.026452107
000140 52 6c bf 3c 3f be 2b bd 3d 1c 23 bc 71 c8 a0 3b
       0.02336708 -0.04192948 -0.009955463 0.004906707
000150 41 12 ef bb ad 2b 24 3d 52 dc a7 3c 2b e9 ea 3c
       -0.007295877 0.040080715 0.0204908 0.028675636
000160 e3 da c1 3c 33 da b2 3c 37 e8 ae bc b5 92 23 3d
       0.023663944 0.021832561 -0.021350963 0.039934833
000170 a1 ba 5d 3c bb 48 9a bc 9e 6a 6e bc 12 f6 f6 bc
       0.013533265 -0.018833509 -0.014551787 -0.030146632
000180 56 12 8e bc 32 48 ac 3c 49 c7 02 bc 1b f9 b6 3c
       -0.017342728 0.02103052 -0.007982084 0.02233558
000190 4c a5 19 bd 5d 0e eb 3a e0 ca 29 bd 6e d2 b5 3c
       -0.037511155 0.0017933358 -0.041453242 0.022195067
0001a0 34 e0 2c 3d 51 bc 14 3d 6e cd 80 bc 93 05 cb bc
       0.042206004 0.036312405 -0.015722957 -0.024782931
0001b0 4d 9e 05 3d d1 0c 22 bd dd 19 46 bc 42 6b 8c bc
       0.03262167 -0.039563004 -0.012091127 -0.017140988
0001c0 82 d7 b1 bc eb 6c dd 3b 54 10 0d 3d 92 b0 dd 3b
       -0.021709207 0.006757369 0.0344394 0.0067654336
0001d0 68 86 cf bc 98 21 32 bd cd 06 0d bd 25 c1 10 bd
       -0.025332645 -0.04348907 -0.034430314 -0.035340447
0001e0 f6 de ba 3b 3a 1f 85 3c 43 96 cd 3c 5c 35 03 bd
       0.0057028485 0.016250242 0.025096064 -0.03203331
0001f0 92 2f 3f bc e8 64 9b bb f5 bc 13 bd 4a b8 30 3a
       -0.0116690565 -0.0047422536 -0.036068875 0.00067413284
000200 20 4b 25 bd 6e a6 10 bd 81 c3 42 bd 7f 66 09 bc
       -0.040354848 -0.03531497 -0.04754973 -0.008386253
000210 4a 93 8f 3c b0 a0 72 3a 0d 3e 83 3c 17 b1 9b 3c
       0.017526288 0.00092555117 0.016020799 0.019005341
000220 66 03 83 3c d6 61 5e bb 33 4c 15 bd f3 9b bf 3c
       0.015992831 -0.0033932826 -0.036449622 0.023389792
000230 74 0f 5f 3b ef d7 15 bd 00 79 c1 bb be f6 bc b9
       0.003403631 -0.036582883 -0.005904317 -0.00036041992
000240 d6 56 00 3d fb d5 dc bc 97 7b d8 bc 3f fa 01 bd
       0.031332813 -0.026957503 -0.02642612 -0.031732794
000250 61 0f 63 bc 0b ec b2 3c e8 00 12 3d c6 77 7b bc
       -0.013858647 0.02184107 0.035645396 -0.01534838
000260 b6 e1 e7 3b 8c aa 11 bd af 77 52 bc 45 74 ba bc
       0.0070764674 -0.035563037 -0.012845918 -0.02276052
000270 41 61 79 3c a6 75 15 bd bf 3c d2 bc 75 17 f3 3b
       0.015220941 -0.03648915 -0.025663732 0.007418568
000280 05 09 38 bd 79 c5 82 3c fc a2 0d 3b 00 4d 14 3d
       -0.044930477 0.015963303 0.002161204 0.036206245
000290 97 7b 94 3c 12 f8 e5 3a 47 f4 34 3c b1 f3 13 bc
       0.018125338 0.0017545244 0.011044568 -0.0090302685
0002a0 d1 05 0f bd c5 d9 ec bc 3d a3 9d bc 5b 2f 43 3c
       -0.034917656 -0.028912434 -0.019242877 0.011913146
0002b0 48 50 00 bd 27 44 4e bc 53 b4 b5 bc fb 25 2f bc
       -0.031326562 -0.012589491 -0.022180712 -0.010690208
0002c0 71 de be bc b1 97 34 bc dc 1f 1a 3b 84 05 93 bb
       -0.023299428 -0.011022494 0.0023517525 -0.0044867415
0002d0 f4 c5 3e bb a3 20 0f 3d b9 84 a5 3c b4 6a 2e 3d
       -0.0029109688 0.034943234 0.020204889 0.04258223
0002e0 ab 23 42 3b b2 d7 39 bd 0a 5e 00 bd e4 b2 30 3d
       0.002962331 -0.04537172 -0.031339683 0.043139353
0002f0 aa d7 c7 bb a9 ef 1f bc 62 15 05 3c 55 6d 7a bc
       -0.006098707 -0.009761729 0.008122774 -0.015284856
000300 59 62 e0 3b 5c c8 14 bd f4 68 0e 3d 66 c5 b8 ba
       0.0068476615 -0.03632389 0.03476806 -0.0014096915
000310 e6 8f e8 3c 39 d5 a5 3b ae 78 c0 bc 56 41 a4 3c
       0.028388929 0.0050608185 -0.023495045 0.020050686
000320 74 0a a1 bc db 1e 0d 3d 4a 23 7d 3b f5 c0 5b 3a
       -0.019658305 0.034453254 0.003862577 0.000838294
000330 72 dd 1f bd fc 4a 6c 3b da 5b 0f bd fb 24 05 3d
       -0.039029546 0.0036055436 -0.034999706 0.03250597
000340 1d 60 82 bc f8 b4 ac bc 14 6a f5 bc cb ce 9a ba
       -0.015914971 -0.021082386 -0.029957809 -0.0011810897
000350 9d bf f3 3c cb 1c e2 bc 63 78 1d bd c5 5a ef bc
       0.029754454 -0.02760162 -0.038444888 -0.029218087
000360 b0 7e 8d 3b 42 ce a1 bc 9d 3d 10 bc ed 69 1f bd
       0.004318081 -0.019751672 -0.008803752 -0.038919378
000370 41 82 28 3d 6d ee 16 3d f4 fe 81 b9 f4 43 15 3d
       0.041139845 0.036848474 -0.00024794752 0.03644176
000380 99 01 22 3c 63 3a 19 bd ee 54 02 bd e6 f0 12 3d
       0.009888076 -0.037409198 -0.031819277 0.03587427
000390 a6 59 62 3b 15 02 8e 3c 2a fd df 3b 33 98 23 bd
       0.0034538298 0.017334977 0.0068355994 -0.03994007
0003a0 d1 78 18 3d 1e bf 2c 3c 90 49 18 bd 8e dd 62 bc
       0.037224595 0.010543613 -0.03717953 -0.013846768
0003b0 3f 5e cb 3c 69 b3 bd 3c 30 8d df bc 55 c9 9b 3c
       0.024825213 0.023156838 -0.027289003 0.019016901
0003c0 6d 54 6a 3c f8 4c 14 3d 89 bf 93 3c d4 74 3b 3b
       0.014302355 0.036206216 0.018035667 0.002860357
0003d0 8f 62 d4 bc 76 da a2 bc 7a 96 1e bc 4a cf 95 3c
       -0.025925903 -0.01987956 -0.009679431 0.01828732
0003e0 f2 57 cc 39 c3 26 b5 3c c4 23 23 3d 21 fd 80 bc
       0.00038975436 0.02211321 0.03982903 -0.015745701
0003f0 14 90 a6 bc d8 b4 1d 3d 53 c6 28 3c d1 ab 92 3c
       -0.020332374 0.038502544 0.01030119 0.017904194

bias f4 [18]
000000 87 d1 10 3c 9a 1f 39 3c 2e b2 35 3c 58 f8 4b 3c
       0.008839018 0.011299038 0.011089845 0.0124493465
000010 f1 f8 35 3c bc 8d 2d 3c d9 ba f8 3b bd 6e 22 3c
       0.011106716 0.010592874 0.0075906334 0.009914097
000020 28 8e 48 3c bf 3c 20 3c 4d 94 1d 3c 94 55 2a 3c
       0.012240924 0.009780108 0.009617877 0.01039638
000030 1b 61 66 3c e0 7b 41 3c e9 02 03 3c b2 23 79 3c
       0.014061238 0.011809319 0.007996299 0.015206264
000040 75 04 40 3c 00 e2 26 3c
       0.011719813 0.010185719

weight f4 [1, 3136]
000000 cd c2 fb bc 08 db 5e bc 9e 68 16 3d 57 ed bb 3c
       -0.030732537 -0.013602026 0.036720864 0.02294032
000010 dc dc 33 3c 88 e0 01 bd 6f c2 f2 3c 58 9b f1 3b
       0.01097795 -0.03170827 0.029633729 0.0073732547
000020 63 a4 43 3c aa 9f 9b 3b ac 26 b2 bc aa f1 bf bc
       0.011941048 0.004749258 -0.021746956 -0.023430664
000030 9d 93 e7 3c ca 29 2d 3c f0 e2 84 3b 78 cc 77 3c
       0.02826863 0.010569045 0.0040553734 0.015124433
000040 86 30 9b 3c 56 2e 0d bd fc 95 68 3c 79 bd 84 3c
       0.018944036 -0.034468018 0.014195915 0.016203629
000050 62 79 b5 bc 41 ad 45 39 83 24 cb bc cc 66 37 bd
       -0.022152606 0.00018851926 -0.024797684 -0.04477577
000060 c0 9d 60 3c ee 36 ce 3c 6d 28 ce 3c d5 59 15 bc
       0.0137094855 0.025172677 0.02516576 -0.009115656
000070 91 dc 4b bc 25 b5 23 bd 13 bf 17 bd 85 4d 1b bd
       -0.012442724 -0.039967675 -0.037047457 -0.037915725
000080 f4 11 e6 bc c7 06 7d 3c 13 47 8a bc 19 ae a9 3c
       -0.028084733 0.01544351 -0.016879594 0.020712899
000090 a6 9c 58 3c 86 dd 3a 3b 75 70 ce bc 38 da 3f bc
       0.013220942 0.0028513386 -0.025200108 -0.011709742
0000a0 63 41 b4 bb ef cb 03 3d 09 b1 11 3d da 97 ff bc
       -0.0055009588 0.032176908 0.035569225 -0.031200338
0000b0 3b 47 f5 3b 76 c7 94 3b 12 81 c4 3a 95 2c dd 3c
       0.007485298 0.004540379 0.0014992079 0.026998797
0000c0 82 a9 23 bd 4c 13 8d bc 38 ed 2d 3c 2a a6 38 bd
       -0.039956577 -0.017221116 0.010615639 -0.04508034
0000d0 9e 48 e1 3c b0 b4 4b bb 75 8f b6 bc 35 a5 f8 bc
       0.027500447 -0.003108304 -0.022285203 -0.030352214
0000e0 1e e2 9c bc 4c a3 6c bc a8 fa 60 bc 0b 87 78 ba
       -0.01915079 -0.01444323 -0.013731636 -0.0009480572
0000f0 3b 8b 09 3d 14 d7 d3 bc 8e d0 c9 bb d8 ed c2 3c
       0.033580046 -0.025859393 -0.006158895 0.023795053
000100 11 b4 ae 3b a7 2c d6 3c 19 25 14 3d e3 b3 eb 3c
       0.005331524 0.026144339 0.03616819 0.0287723
000110 a2 ab 14 3d de a9 6d bb f1 2f 25 bc e4 d2 0c bd
       0.036296494 -0.0036264579 -0.010082231 -0.03438081
000120 0a ff 71 bb 48 17 a4 bc 6e f6 22 bd 3f 48 14 3b
       -0.0036925697 -0.020030633 -0.039785795 0.002262607
000130 53 81 8d bb 67 62 f7 bb 7e b1 d6 3c 5c 8a 9e bc
       -0.004318395 -0.0075495723 0.026207682 -0.019353084
000140 5c 7b 51 ba 2e cd 38 bc 5e 22 06 bd fa f8 7b 3a
       -0.0007991099 -0.011279387 -0.03274762 0.00096119905
000150 4c 04 91 3c 0a dd 09 bd 30 a4 7a bc 53 03 22 bc
       0.017702244 -0.033658065 -0.015297934 -0.009888488
000160 e9 5b a1 3b 3e 3a f7 bc 3d 48 ec 3c 67 5c a5 bc
       0.0049242866 -0.03017914 0.02884304 -0.020185662
000170 8e 2c 24 3c c1 ec 96 bc 63 12 a0 bc 82 72 81 3c
       0.010020388 -0.01842344 -0.019540017 0.015801672
000180 31 d1 cc 3b 0e 68 8d bc c7 94 03 3c db 45 1b 3c
       0.0062505235 -0.017261531 0.008031077 0.009477104
000190 fb 0e e5 3c ce d9 9a bc 56 36 fe bc 3e b1 06 bd
       0.027961245 -0.018902685 -0.031031769 -0.032883875
0001a0 f2 ab 21 3c c3 c0 d7 3c 33 5a 97 3c 1d 9b e0 bc
       0.009867655 0.026337033 0.018475628 -0.027417714
0001b0 12 e4 05 bd d2 81 d3 3c 93 ae 1b bc e9 fc 70 bc
       -0.032688208 0.02581874 -0.009502071 -0.014708736
0001c0 f0 36 42 3d 67 d6 ed 3b c1 48 82 3b b2 9b ac bb
       0.047415674 0.0072582248 0.003975958 -0.0052675838
0001d0 20 d8 3e 3c cc 9b 0d bd bb f9 fd bb 1a e7 a3 3c
       0.011648208 -0.034572408 -0.0077507175 0.020007659
0001e0 cc 12 4d bc 05 06 0b 3d 48 11 a5 3b 9d 63 1e bd
       -0.012516689 0.033941288 0.0050374605 -0.038669217
0001f0 a3 21 23 bd 23 0f 4e 3c c5 e6 16 3b 99 eb ac 3c
       -0.039827 0.012576851 0.0023025733 0.021108435
000200 19 0a 67 bc 3d ab 17 3d 77 a7 0a bd ed b0 70 bc
       -0.014101529 0.03702854 -0.033851113 -0.01469062
000210 58 6c 9f 3c 58 6d 1e bd dc fd 0e bc 4f e4 a3 bc
       0.019460842 -0.038678497 -0.008727517 -0.020006327
000220 e7 45 19 3d 2a 1c 2d bb d2 8e bd 3c e5 5b fa 3b
       0.03742018 -0.0026414492 0.023139391 0.007640349
000230 0e 12 e5 3c da ee 45 bb 4f 90 06 bc ee 42 da 3c
       0.02796271 -0.003020218 -0.008213117 0.026643243
000240 44 53 04 3d 28 63 ce bc 28 cb ab 3c a1 a8 1d bd
       0.03230597 -0.025193766 0.020970896 -0.038490895
000250 81 c7 21 bd 5a 3f 6b 3d 79 09 67 3b 65 f7 8c 3c
       -0.039496902 0.057433464 0.003525345 0.01720781
000260 e4 2b 12 bd 90 fa 1d 3d 2a 7a 88 3b c9 8a d6 3b
       -0.03568639 0.038569033 0.0041649537 0.006547306
000270 a0 3e da 3c bf 12 f1 bc 3c 1a 46 bc 39 77 01 3d
       0.02664119 -0.029427884 -0.012091216 0.03160784
000280 5b b9 c2 bb c0 9b 97 3c ac e2 bb 3c 90 9a 1d bc
       -0.0059425062 0.018506885 0.022935234 -0.00961937
000290 55 c4 cc bc e9 00 31 3d 9b 31 50 bc 92 b5 20 bd
       -0.024995962 0.04321376 -0.012707139 -0.03923566
0002a0 d1 27 4f bc 6c ea 83 bc 31 74 45 bb 0d 95 9f bb
       -0.01264377 -0.016102992 -0.003012907 -0.004870063
0002b0 40 ce ea bc 3b 05 52 3c a3 80 06 bd 02 27 d8 3c
       -0.0286628 0.01281863 -0.03283752 0.026385788
0002c0 e6 a3 ef bc e7 e7 e8 3b d4 06 0d 3d 6d 0c 0d 3d
       -0.029252958 0.007107723 0.03443034 0.03443568
0002d0 cd 21 da bc 96 49 a0 3c b7 62 89 ba 7e 4f c7 3c
       -0.026627446 0.019566339 -0.001048169 0.024329897
0002e0 02 6d a8 bb 01 ee 04 bd 3a 52 f8 3c 6b 20 0d bd
       -0.005139948 -0.03245354 0.030312646 -0.034454744
0002f0 de ea 29 3d d4 f2 c5 3c f6 4e 8d 3c bf d3 97 bc
       0.041483752 0.024163641 0.017249566 -0.018533586
000300 1b 13 b9 3c eb 3a 13 bd 63 58 9f bc c9 f6 07 bd
       0.022592118 -0.03594486 -0.019451326 -0.033194337
000310 b8 93 b0 bc 62 c2 1a 3d c1 05 2c 3c c3 89 14 3d
       -0.021554813 0.037783034 0.010499419 0.036264192
000320 49 3a ff bc 60 5e 9f bc ca e5 36 3d 47 d1 c6 3b
       -0.031155722 -0.019454181 0.044652738 0.0060674283
000330 9a c8 99 bb f2 78 14 bd 03 11 86 bc 25 f3 c4 bb
       -0.004693103 -0.036248155 -0.016365534 -0.0060104304
000340 dd 4b 02 3d 81 c9 00 3d 0c b4 25 bd b9 c7 28 bd
       0.03181063 0.03144217 -0.04045491 -0.041206095
000350 16 0e 1e 3d 54 16 80 ba 11 c3 dd 3c 46 47 77 3c
       0.038587652 -0.0009772279 0.027070554 0.0150926765
000360 48 9d 66 bb 2a d6 0c 3d ca c2 b7 3c 25 61 04 bd
       -0.0035188962 0.03438393 0.02243175 -0.032319207
000370 38 ab 3d 3c f4 6a 2b 3c d6 dd 4a bc 63 a3 94 bc
       0.011576466 0.010462511 -0.012381991 -0.018144315
000380 b3 79 b6 bc c4 b4 d8 3c b1 4c 60 bc c5 ee a3 bc
       -0.022274828 0.026453383 -0.01369016 -0.020011315
000390 95 64 aa bc f7 0b 08 3d 2a 24 8c 3c c6 8c ba 3c
       -0.020799914 0.033214536 0.017107088 0.022772204
0003a0 44 56 35 bd 24 11 7d 3c 48 e7 fc 3b d8 a6 15 bd
       -0.044271722 0.015445981 0.0077180006 -0.036536068
0003b0 30 3a 97 bc 40 5e 17 bc 25 8b 06 3d 9b 6e 7b 3c
       -0.018460363 -0.00923878 0.032847542 0.015346195
0003c0 e2 a4 e0 3c ec 62 c2 3c bc 2a 4e 3c f1 7d 04 3d
       0.027422372 0.02372881 0.012583431 0.03234667
0003d0 88 66 f4 3c 73 8a de bb 27 65 0a 3c 23 11 0d bd
       0.029834047 -0.006791407 0.008446968 -0.03444017
0003e0 3b 78 aa bc bf dc 8f 37 12 f1 03 3d 12 59 d7 3b
       -0.020809283 1.7149721e-05 0.032212324 0.0065718973
0003f0 9c 3f 08 bd 3e db 59 ba 71 88 0d 3d f8 27 11 3d
       -0.033263788 -0.00083105627 0.03455395 0.035438508
