ICM/SpaceInvaders/FINAL.SpaceInvadersNoFrameskip-v4.MODEL (torch_old, 417860 bytes, 9 tensors)

weight f4 [32, 4, 8, 8]
00000000: 3cf5 0d3d dce9 b3bd f7f8 af3d 51fb 073e
00000010: 6e82 123e f777 b53d 227f cf3d 09ec 24bb
00000020: 79da b73d 9d3a 593c 1549 23be b7dd fabd
00000030: c6b1 033e ffb0 84bd 072c 0cbe 1a8a d73d
00000040: 35b4 03be 1475 06be b502 bbbc 5c92 f33c
00000050: 3e53 943c 44ac a8bd 6074 9ebd 672b 003e
00000060: c40d a13c b2a2 3bbc ca00 00bd 3dd9 04be
00000070: acfc 94bd a41b 8c3d 3b46 b8bc e765 813c
00000080: c000 2abd b671 45bd 4a1e bdbd 448a 1d3d
00000090: b386 3cbd 40db b1bd 400c e5bc 6bfb 4abd
000000a0: 07ab 673d 11da 853c 776d 5a3c d62c 7f3d
000000b0: 80ff d53d b19c 4a3c 7bac 1ebe f01d f3bd
000000c0: 4155 79bd 9bc6 11be f995 e13d be35 fd3d
000000d0: 8edc 973d e497 013d 1714 a33b 5856 02be
000000e0: 6242 753d 8f28 f33d bf34 903d f088 e0bd
000000f0: 4ea2 b6bd 865f d53d a552 093e d9d1 c7bd
00000100: e8c1 b83d b3c3 0fbe 3edc c03b f73e cabd
00000110: f8a8 02be 8b6a 70bd 37b6 563d 1921 0ebe
00000120: 23a8 72bd 5567 123d ecf0 20bd 8cac febd
00000130: 0189 f5bd 0dee 103e 9135 62bd d5c9 0ebe
00000140: 6075 8dbc 870a d73c 3c2a cbbd b3d2 0c3e
00000150: af26 e73d dd6f d3bd f146 a93d 9269 e2bc
00000160: b8dd 0a3e 65ef 52bd 1b94 d93c 6810 fd3d
00000170: 8d97 733d b27d b63d 163a 82bd 84e7 10be
00000180: ba8f c13d 9268 cd3d faaf ca3d 4e29 82bd
00000190: d5f7 6a3d ea43 fb3d 1c42 c1bd 864a fb3b
000001a0: 1421 2b3d a7e6 9dbd df81 3ebd a7d7 96bd
000001b0: de25 e0bd f044 d8bd a32a 073e c0c0 0a3e
000001c0: a3d2 a43d 1f6a c53d 9dcc 9a3d 5fa5 0dbe
000001d0: b239 a0bd 3e8d 08be c35b f5bc c335 e73b
000001e0: 2765 ef3d a125 c93c 4bd5 23bd 02bf 87bd
000001f0: c0ac 0c3e c118 633d 95a0 0d3e d1ec 17be
00000200: 148d ebbc e46c af3c a7ae 873d cd22 163e
00000210: a571 813d 5aef 8d3d 5c37 cbbb 8bcc a53c
00000220: 2bb4 023d 16d9 14be e59e faba 4e14 c33c
00000230: c2c7 013e 5541 87bb 0e58 78ba 7088 87bd
00000240: 1f16 0ebe 0ecd b33d 9f3b 90bb d94b 3e3d
00000250: 3696 0fbe 2a42 c43d cda8 50bd e716 c43c
00000260: b6ad ba3d 7aa6 3d3d 4ae1 90bd 60a8 d5bd
00000270: 6cf7 f9bd 202e 81bd 47b2 623d 95e5 6bbd
00000280: 30c4 0b3d 246b 5ebd a96b 4f3d ea23 d2bc
00000290: b7eb fd3d 410f 8bbd 685e 913b cbb8 11be
000002a0: f2ac 85bd 554e 8abd 6b7f 093e 2d0b c83c
000002b0: 1c46 693d 505c ad3d 2391 993d 5c87 f8bc
000002c0: 8318 23be 3ae0 8d3d c4fa ae3d a224 16bc
000002d0: 6f92 c63d b41b 0dbe d3dc e63d 49cd 06be
000002e0: 0019 0c3b e877 0cbe 6db5 0f3d ceab a03d
000002f0: 5753 97bc 3704 edbc 4310 c3bd 5b0f 033e
00000300: f358 bf3d 897f 09be dd5b 19be 078b f43d
00000310: a5f1 e3bc 69c6 b2bd 5e2d 40bd faca 853d
00000320: c4cc 74bd 5ae9 ba3c 8c2e cd3d 7042 ca3b
00000330: 9905 53bd d854 c7bd 48c0 de3d 82e4 8dbd
00000340: d4e5 e43d cad8 46bc c3ad d8bc 5cd0 ddbd
00000350: 33cc b6bc 62ea 06be f755 9f38 537a 163e
00000360: 7307 ab3c 802f 7b3d 9dd0 063e f471 053e
00000370: b3aa a0bd 88e7 263d c7f9 b0bd 5f83 263d
00000380: 9099 fcbc c799 d6bd 9281 7f3d 89d0 b13d
00000390: ebfe 013e 0a09 10be 5c24 143e 32bb ed3d
000003a0: 7f55 14be d570 143e a987 0a3e 8918 95bd
000003b0: cb54 49bd 7567 f5bd 2b63 e53c 3eca a83d
000003c0: dc9b 7e3d e613 6b3d bb03 a8bd a852 9c3d
000003d0: bafa 77bd a7f3 ba3b 149c e5bd b7ce 413e
000003e0: 8800 8cba d5da 06be 952b 5ebd 3621 a73d
000003f0: 292f 1cbe 9546 8ebc 865c f7bd 2fb3 2a3e
0.0346577 -0.087848395 0.08592408 0.13279463 0.14307567 0.08860772 0.101316705 -0.0025165102
0.08977217 0.013258603 -0.15945847 -0.1224932 0.12860784 -0.06479072 -0.1368867 0.10524388
-0.12861712 -0.131306 -0.02282844 0.029732876 0.0181061 -0.08235982 -0.077370405 0.12516557
0.019659884 -0.011452364 -0.031250753 -0.12973495 -0.07274756 0.068412095 -0.022494426 0.015795661
-0.04150462 -0.048204146 -0.09234293 0.03846194 -0.046026897 -0.08684397 -0.027959943 -0.049556177
0.05655959 0.016339334 0.0133317625 0.06229862 0.104491234 0.01236646 -0.15495484 -0.118709445
-0.06087232 -0.14235918 0.11014933 0.12363766 0.07415114 0.031638995 0.00497676 -0.1272825
0.05987776 0.1187297 0.070413105 -0.10963619 -0.08917676 0.1041861 0.13410433 -0.09756822
0.0902136 -0.14039497 0.00588563 -0.09875291 -0.12759769 -0.058695357 0.052419867 -0.13879813
-0.05924238 0.035743076 -0.03929226 -0.124352545 -0.11989022 0.14153309 -0.055226866 -0.1394418
-0.017267883 0.026250137 -0.09920165 0.1375225 0.11286675 -0.103240706 0.08265484 -0.02763823
0.13561141 -0.051497836 0.02655988 0.12356645 0.059470702 0.08910693 -0.06358735 -0.14150816
0.09451242 0.10029711 0.09896846 -0.063555345 0.057365257 0.12268813 -0.094364375 0.007668796
0.041779593 -0.07710009 -0.046510573 -0.07365351 -0.109447226 -0.10560024 0.13199858 0.13550091
0.08047988 0.096393816 0.07558558 -0.13832615 -0.078235045 -0.1333513 -0.029950982 0.0070559694
0.11689215 0.024554076 -0.039998334 -0.06628229 0.13737774 0.05544353 0.13830788 -0.14836432
-0.028753795 0.021414228 0.06625109 0.14661713 0.06320504 0.06930418 -0.0062016677 0.020239135
0.031910103 -0.14535937 -0.0019120841 0.023813393 0.12673858 -0.004127661 -0.00094735704 -0.0661782
-0.13875626 0.087793455 -0.0044016386 0.046459053 -0.14022145 0.09582932 -0.05094223 0.023936702
0.09115164 0.046301343 -0.070742205 -0.104325056 -0.12205395 -0.06307626 0.0553458 -0.057591993
0.034122646 -0.054301396 0.050639782 -0.02565189 0.12398475 -0.06790019 0.004436303 -0.14230649
-0.06527127 -0.06753222 0.13427512 0.024419392 0.056951627 0.08464873 0.07498386 -0.030337982
-0.15927319 0.069275334 0.085439235 -0.009164007 0.09695899 -0.13780099 0.112725876 -0.13164248
0.0021377206 -0.13717616 0.03508513 0.07845269 -0.018472357 -0.028932674 -0.09524586 0.12798826
0.093431376 -0.13427557 -0.1497645 0.1194058 -0.027825186 -0.0872925 -0.046918266 0.06532855
-0.059765592 0.022816349 0.10018644 0.0061724707 -0.05151901 -0.097329795 0.108765185 -0.0692835
0.11176649 -0.0121366475 -0.026450044 -0.10830757 -0.022314167 -0.13175347 7.597723e-05 0.146951
0.020877576 0.061324596 0.13165517 0.13031751 -0.07845058 0.04074815 -0.08641391 0.04065263
-0.030834943 -0.104785495 0.062379427 0.08682353 0.126949 -0.14065948 0.14466995 0.1160797
-0.14485739 0.14496167 0.13528313 -0.0728007 -0.04915313 -0.119826235 0.028001389 0.082417
0.062160358 0.057392024 -0.082038365 0.07632953 -0.060541846 0.005705315 -0.1121141 0.18926512
-0.0010681311 -0.13169415 -0.05424078 0.08160631 -0.15252365 -0.01736764 -0.12078194 0.16669916

bias f4 [32]
00000000: 4e5b b3bb 03b0 a43b 5838 1fbb d4b5 373b
00000010: 4cfa 4d3b c59f ecba bb4d a4ba fbac 123c
00000020: 44c7 f83a b00e c4ba 7c6b 523b d725 c53b
00000030: c5d0 4b3c 0fc3 94bc f1ee d3b9 d276 0fba
00000040: 9dbe 72ba c885 b83b fba3 6c3c 8802 8d3b
00000050: 4553 b53b e420 e13b b807 283c 509b 7b3b
00000060: 2aa3 2f3b 0644 6b3b f7c6 bb3b abae a439
00000070: 46be ec3b f20d 4b3c 337e 133c 2b9d 423c
-0.005473531 0.005025865 -0.0024295058 0.0028031962 0.0031429706 -0.0018052986 -0.0012535373 0.008952375
0.0018980284 -0.001495799 0.0032107523 0.0060164738 0.012439911 -0.018159417 -0.0004042308 -0.00054727227
-0.0009259971 0.0056311823 0.014443393 0.0043032803 0.005533608 0.006870376 0.010255747 0.0038392134
0.0026800134 0.00358987 0.0057305056 0.00031410655 0.007224831 0.012393462 0.009002256 0.011878292

weight f4 [64, 32, 4, 4]
00000000: 08f7 3abc 555d 7abd c913 fb3c 1ddc b23d
00000010: 23f4 71bd bc25 c93d 4a60 b73d 17a0 8e3d
00000020: 3dbd 9e3d 8217 673d 1129 12bd 82d3 dd3d
00000030: 2832 1f3d 0c85 a3b7 91ef c5bd dcbb 463d
00000040: 300a 50bd 2c91 55bd 7f7b 093d 482a 1abd
00000050: 734a 8ebd e6f1 d33d 22f7 66bd 1035 36bc
00000060: be00 d03c 124f e23d 4e3e 623d 83ae a9bd
00000070: 1772 00bd fe1a 9d3d b331 d6bd 0e27 863d
00000080: 5efd b2bd b29a 07bd 4be0 c03d f667 143d
00000090: ee81 8ebc fc06 2b3d b1a6 ff3a c2aa 24bd
000000a0: 75c9 f8bc b2e9 51bc 1878 063c aef4 1a3d
000000b0: cdb6 c8bd 6b33 10bd b273 aebd f9cd b2bc
000000c0: e6ae 653d b476 d6bd 84d9 14bd 5b08 bebd
000000d0: fcc5 e3bc c5da bb3d b491 9ebd 48b2 a53c
000000e0: 934a d4bd b35c 3bbd da0c 083d de11 edbc
000000f0: 8c55 0abd 72b9 983d e14b 88bd 7c52 ee3b
00000100: 23e5 fcbb d5a6 9b3d b317 64bd b889 213d
00000110: d5ce 6a3c c3b9 2a3c 8f0f ab3d d9d8 8bbd
00000120: 675b a43d f6b4 b13c da1d 94bd 9821 d5bd
00000130: 3d97 6c3d 885f 83bd a370 27bd 191f babc
00000140: ab24 d3bc 335f 8cbc da5d 6c3d 44b7 8abd
00000150: 6102 e5bc 4286 733c ae7b f43c 819c 8c3d
00000160: 482b 2cbd 9b97 6b3d 27d7 b63d 1bee 9bbc
00000170: bebc cd3d cda9 bebd 76c6 8cbd 6372 1fbd
00000180: 7937 da3c c155 86bd eb95 05bc 17d8 db3c
00000190: 4646 863d 4491 e3bc 7612 5abb c727 45bd
000001a0: 67ac e93c 23ec b13d 25c8 a93d 68e1 19bd
000001b0: e9b0 aebc 1622 16bc 8e26 dabd c214 bfbd
000001c0: e19b 443b 2c8a 923d 0e49 b23d 12e1 99bd
000001d0: b52c a6bb d14e a93d 012c 64bc 680f b4bb
000001e0: 5ae9 59bd 2100 15bd b887 8b3d 847e b0bd
000001f0: 3a1c a9bc 886f 833d 4d46 91bd eeff eb3c
00000200: db19 573d e12a b83c 6f37 bb3c f815 acbd
00000210: 320d 01bd 43d3 cbbd 84e1 be3d 33b4 91bc
00000220: 0b65 343d d9fb 3c3d 74c7 933d aa01 af3d
00000230: 5406 9f3d 5a1f 843d 33ae 793d c6e1 453d
00000240: c853 cabb 51c5 ae3d f171 be3c eae0 e43d
00000250: 5b13 873d 09ed 4cbc f2e8 533c 2c27 95bc
00000260: 256b cb3d 86e9 e0bd 62a3 3a3d b218 75bd
00000270: 6444 5cbd 9f6f a8bd 50bd 5f3d 518a d53c
00000280: e48e 6abc 19c8 893d 6ea3 42bd 1c2f 77bd
00000290: a46a c9bc ad88 9439 7318 be3d 4d25 eabc
000002a0: 6138 bd3c dc3e a1bd c99d a13d a63c aa3d
000002b0: 2c08 483c 160e 67bd ae5b 873c b0ab 933d
000002c0: 2a39 703d a493 bb3d 6250 d3bd 712f a33c
000002d0: ce82 d6bb 1a6f 6a3d acb0 9d3d 9734 87bd
000002e0: 6bff 00be 7400 823d 0740 103d 24e0 babd
000002f0: 3108 af3d 2866 663d 5d76 92bd 45e9 a33c
00000300: 4d85 7bbc 65d7 8cbd 8cb4 063c f86b 233d
00000310: 248f 503c ec0a 32bb a9ac 3a3d 515f a13b
00000320: a5bb e0bb 03ea c33d 9aad ea3c 5254 afbd
00000330: 092f 0e3d f8f4 4f3c bf99 a83d c8b6 e8bd
00000340: b7d1 143d 2d25 293d 666c a0bc 43a6 a2bd
00000350: 4a5e 51bd a9c2 1a3c dd14 efbc 8653 d8bd
00000360: 9a61 ba3d 8a63 c63c 947b 913d 5205 62bd
00000370: 09fe 383d fdd3 5b3c 2d8c ac3d dca3 61bd
00000380: dcf8 19bd 9b32 bf3d 0c19 aebd 90dc 62bd
00000390: 4d70 543d e1cc 803d 24c9 debd 0fbc b13b
000003a0: f03f 1bba 4c51 4abd e3ab e23c 786f a73d
000003b0: 0d25 bebd f2f4 c73c eb99 4e3d 9195 77bc
000003c0: 5e4a 843d 7152 af3a d659 5b3c 2cff 21bd
000003d0: 84dd 623d a846 843d 3a9f ec3c 107a 87bd
000003e0: 161f b43d f3fc a2bd 5f94 b3bd a22d 443d
000003f0: c7be 6f3c 58c6 11bd 7377 0dbd 480b 9dbd
-0.011411436 -0.061124165 0.030649083 0.087333895 -0.059070718 0.098216504 0.089539126 0.069641285
0.07750938 0.056418903 -0.035683695 0.108313575 0.038866192 -1.9493069e-05 -0.09664834 0.048519
-0.050790966 -0.0521404 0.03356504 -0.03763798 -0.06947794 0.10348873 -0.056388028 -0.0111210495
0.025390979 0.11050238 0.0552352 -0.082852386 -0.031358805 0.07671164 -0.10458698 0.06550418
-0.08739732 -0.033106513 0.094177805 0.036231957 -0.01739594 0.041754708 0.0019504634 -0.04020191
-0.0303695 -0.012812065 0.0082073435 0.037831 -0.098004915 -0.035205286 -0.08518161 -0.021826731
0.056075 -0.104718596 -0.03634025 -0.092789374 -0.027804367 0.09172586 -0.077426344 0.020226613
-0.103657864 -0.0457427 0.03321538 -0.028939184 -0.03377299 0.07457246 -0.06655098 0.0072730165
-0.007717745 0.0760018 -0.055686664 0.03943798 0.014331539 0.010420266 0.08352577 -0.0682847
0.08025246 0.021692734 -0.07232256 -0.10406798 0.05776142 -0.064147055 -0.040878903 -0.022719907
-0.02577432 -0.017135238 0.05770669 -0.067732364 -0.027955236 0.0148635525 0.029844131 0.06865788
-0.042033464 0.05751763 0.08927756 -0.019034436 0.10045765 -0.09309731 -0.06873791 -0.038927447
0.02663778 -0.06559325 -0.008153419 0.026836438 0.06556372 -0.027779229 -0.0033275164 -0.048133638
0.02852459 0.08687618 0.08290128 -0.03756848 -0.021324592 -0.0091634 -0.10651885 -0.09330131
0.0030000138 0.071552604 0.0870534 -0.07513632 -0.0050712475 0.08266986 -0.013926507 -0.0054950006
-0.053201057 -0.036377076 0.06812996 -0.08617881 -0.020643342 0.06417757 -0.07093487 0.02880856
0.052514892 0.022481384 0.022853581 -0.08402628 -0.031506725 -0.09952404 0.093203574 -0.017786121
0.044041675 0.04613862 0.07215777 0.08545239 0.07764879 0.06451292 0.060957145 0.048311017
-0.0061745383 0.08533729 0.02324769 0.111757115 0.06595489 -0.012507685 0.012933956 -0.018207155
0.099325456 -0.10982041 0.04556597 -0.059838004 -0.05377616 -0.08224415 0.0546239 0.026066931
-0.014316294 0.06727619 -0.04751914 -0.06034766 -0.024586983 0.0002833059 0.09282007 -0.02858224
0.023098173 -0.078733176 0.07891423 0.08312349 0.01220898 -0.056409918 0.016523208 0.07210481
0.058648266 0.091590196 -0.10318066 0.019920083 -0.006546355 0.05723486 0.07699713 -0.066018276
-0.12597434 0.06347743 0.03521731 -0.09124783 0.08546484 0.056249768 -0.07151482 0.020008693
-0.015351606 -0.06877021 0.008221757 0.03989789 0.01272944 -0.0027167154 0.045574818 0.0049246927
-0.0068583065 0.095661186 0.028647233 -0.08561005 0.034712825 0.012692682 0.0823245 -0.11362988
0.036332812 0.04129522 -0.019582938 -0.07941868 -0.05111531 0.009445825 -0.029184753 -0.10562806
0.09100647 0.024217386 0.07103649 -0.055180855 0.04516414 0.013417241 0.08425174 -0.05508791
-0.037590846 0.09335824 -0.08500871 -0.055386126 0.05186491 0.062890776 -0.10878208 0.0054240297
-0.0005922308 -0.049393937 0.027669853 0.08175558 -0.092844106 0.024408791 0.050439756 -0.015111343
0.06459497 0.001337601 0.013388118 -0.03954999 0.055387035 0.06458789 0.028884519 -0.066150784
0.08794992 -0.079584025 -0.08768534 0.04789508 0.014632887 -0.035589546 -0.034537744 -0.07668167

bias f4 [64]
00000000: 2fb4 253c 5e2e 1d3c 5132 39bb fc46 573c
00000010: 544b d23b 31b3 2f3c d43c 1d3c affe 0a3c
00000020: 35e3 d13b 345f 653b 48c8 863c b793 a43c
00000030: cca9 853b 38cb d83b 0d24 f03b 29fd 063c
00000040: 7cf1 893c f21d fb3b 354d 473c 4da0 723b
00000050: b946 6a3c eecb f83b 10f1 db3a 96e6 1b3c
00000060: 8fe2 453c 4805 123c ce31 2d3b 98ce b03b
00000070: d00c 3c3c 742a c63b 83bc a53b 5c0b 503c
00000080: fed3 a83c 2e34 943b 063e 6b3c 8c6e 96ba
00000090: 7ba6 adbb 4572 2c3c f340 623b 021c 1d3c
000000a0: 6818 863c e903 1e3c 4db6 553c 4042 943b
000000b0: 377d 133c 69df df3b acc4 753b 17d9 573c
000000c0: 380b 0d3c 7f8f 2dbb 4036 033c 7b5f 2d3c
000000d0: 443f 303c b457 a73b 2cb0 903c d365 423c
000000e0: 6dcf b43c 4f1e b73b 5441 963b 6c52 693c
000000f0: 9d7c 693b 2185 a83b f2d7 903c df0e 0d3c
0.01011376 0.009593574 -0.002825875 0.013139483 0.006417671 0.010723875 0.009597022 0.008483573
0.006405259 0.0034999372 0.016452923 0.020089967 0.0040790793 0.0066160224 0.0073285163 0.008239069
0.016838782 0.007663482 0.012164404 0.0037021816 0.014299088 0.0075926697 0.0016780216 0.009515425
0.012077942 0.008912392 0.002642739 0.0053957216 0.011477664 0.0060475413 0.0050578727 0.012698021
0.020608898 0.004522822 0.014358049 -0.0011477037 -0.005299387 0.010525291 0.0034523576 0.009589197
0.01636906 0.009644487 0.013043952 0.004524499 0.0090020215 0.0068320525 0.0037501259 0.013174317
0.008608632 -0.0026483235 0.00800854 0.010581846 0.010757271 0.0051068906 0.01766213 0.011865097
0.022071565 0.00558833 0.0045854244 0.014240842 0.0035627254 0.0051428233 0.017681096 0.008609503

weight f4 [64, 64, 3, 3]
00000000: 2052 4cbb e264 e03b 4c02 82bd c0d0 a13d
00000010: 0324 f3bb 0178 87bc d60f c53c dfe6 7dbd
00000020: e1e5 0a3d e795 613d b2f9 123d 8e74 a4bd
00000030: da7b c6bd 1a79 a3bd 334d adbd 718f 3c3c
00000040: 9393 cabc 19e4 4a3d ca66 debc 7f23 b0bd
00000050: 93f3 b13d b297 b4bd 734c ba3d 4e9f 8cbd
00000060: f46f 833d ee51 bcbd bf4f 153c 665f 57bd
00000070: 83ae a2bd 16f3 babd f721 b33d cd65 a03d
00000080: 6aa6 c9bd d806 8c3b 76c8 89bc ef09 013d
00000090: f23d 083d 8112 0fbd 06a8 0c3d 8a66 c43d
000000a0: 16d6 cbbc 93fd 40bc 95d3 8abb d88d 523c
000000b0: f4f8 263c cb45 883d c3d3 c1bc a2bd 973d
000000c0: 1467 1abd add0 3fbd ec67 10bd 15b2 c63d
000000d0: 391d 9d3d 35b4 e93c 96d9 673d 3654 573d
000000e0: 2eda 74bd be53 56bc 2869 d8bc fc8f 8f3d
000000f0: 56f6 8e3d 02e9 c53d 0374 a23c 5371 5b3d
00000100: a064 67bd 1be2 643d f984 03bc 50b1 dabd
00000110: aeeb 78bd e1b3 a73d 82b4 a53b ffb7 9d3d
00000120: a218 bc3b 5122 bbbd e105 96bd a87a c7bd
00000130: f078 093d a18b 60bd aaa6 c5bc 530b 28bd
00000140: 9f29 8bbd 1a78 cfbd 2775 3e3d 784f bcbd
00000150: 8e97 003d 27d8 05bd dfae a33d 8524 3b3c
00000160: 2c02 a5bb d5d8 a83d 62c7 863b cb57 94bc
00000170: 8b59 00bc 8979 2e3d 2f47 31bd 07e1 63bd
00000180: a630 a8bc ff24 50bd cfe9 bebd 75a0 903c
00000190: 2fa5 603d f28e c6bd 9a9b 273d 4ab5 ca3d
000001a0: 410d 5f3d a962 c2bd 7b5a 0ebb 6b61 99bd
000001b0: 6382 b8bd 1da2 153d 2920 903d e2d0 1b3a
000001c0: 475e 4fbd dc55 65bd 1da6 963d 4d1e bdbd
000001d0: b82e b03c 1c4f 61bc 671e 8dbd d36b 593b
000001e0: f73e b63d 75ab 3e3c 75a3 be3d 56a9 193d
000001f0: baec c6bd 583a 8c3d 72a0 bebd 3c3d 6bbc
00000200: 42e4 50bd 7913 1a3b 646b 8b3d 52b9 eb3c
00000210: 62ab 9a3c ba0a cdbd f446 a03d 6acf bfbd
00000220: 8805 373d 463b 0c3d b520 17bd 0750 babd
00000230: 826b 02bd 686e 6c3d 4d0c c6bd 5563 173c
00000240: 90c6 55bd 2320 b33d d5c6 2bbd 105b 9dbd
00000250: dff6 81bc 410d 333d 453f 42bb da43 ba3c
00000260: 9761 fdbc 44ac 3f3d 51f6 f53c 2a29 9a3d
00000270: 1a0e 963d c632 5dbc afd3 b0bd 0a3b 64bd
00000280: a901 6f3d 52fb 5bbc 7737 27bb 97a0 88bd
00000290: fe9e 4b3d 5b08 b23c 1659 abbd c382 88bd
000002a0: 1285 44bd 1079 603d 5b56 a6bd d79c 2ebd
000002b0: 228f 863b f65b 69bc 04ee b83d ebc5 513d
000002c0: af7d 403d 8cb7 843d e9a9 96bc 5c29 163d
000002d0: 9b12 2ebd 58a3 debd 7171 423b bd06 153c
000002e0: 64a3 b03c d7ca b0bd adb2 bbbb 267d 953b
000002f0: b585 4cbc 591f e23c 344d ba3c f046 133d
00000300: 7571 573c 1086 7ebd efe8 1c3d c52e 353d
00000310: b80b b8bd 79e7 c5bd df34 2a3d 14e2 48bd
00000320: 198f dfbc b2d9 243d 7019 83bb 59a7 543d
00000330: bc1b 5dbd 85c1 823d 9863 edbc 956f c6bd
00000340: 7fbf c2bd 5d66 2e3d 7218 b6bd 9015 cebd
00000350: ffe6 3e3c de7e bf3d d277 ae3a 9817 9fbd
00000360: 50ca b6bd 7b48 b8bd d8c1 8ebd 092a a7bd
00000370: 5979 bfbd 661f 8d3c 360b ccbd 2b57 1d3d
00000380: d966 fb3b 5f67 8ebd 8bde 9cbd 4986 5bbd
00000390: e191 c5bd 06d1 4abd 2db6 013d ce5c 0bbd
000003a0: 8708 96bd 7b12 2c3d 5c88 2ebb 84b3 a6bd
000003b0: 5adf 013c 4c93 74bd 4cc6 043d 7d4c 84bd
000003c0: 866c 973d 7732 2bbd ad06 933d ac43 933d
000003d0: a90c 313d c19c 62bd b0e9 a6bc 0489 8e3d
000003e0: b2b6 3bbd 57c0 a43d abc9 a43d 5294 2a3b
000003f0: f3e5 8d3d 97f1 883c 89d9 7bbd 4978 273d
-0.003117688 0.0068479637 -0.06348094 0.07901144 -0.0074200644 -0.016536715 0.024055403 -0.061987754
0.033910636 0.0550746 0.03588266 -0.080300435 -0.096915916 -0.07982083 -0.0846199 0.0115088085
-0.024728572 0.049533937 -0.027148623 -0.0860052 0.08689036 -0.08817996 0.09096613 -0.068663225
0.06417838 -0.09195314 0.009113251 -0.052581213 -0.07943442 -0.09128396 0.08746713 0.07831917
-0.09846194 0.004273277 -0.01681922 0.031503614 0.0332622 -0.034929756 0.034339927 0.0958987
-0.024882358 -0.011779207 -0.0042366483 0.012851201 0.010191191 0.06653937 -0.023660546 0.074092165
-0.03769596 -0.046829868 -0.035255358 0.09701935 0.076715894 0.028528312 0.05660399 0.052570544
-0.059778385 -0.013081489 -0.02641733 0.07009885 0.069805786 0.09663583 0.01983071 0.05357487
-0.056492448 0.055879693 -0.008027309 -0.10678351 -0.060771637 0.08188606 0.0050569186 0.0770111
0.005740241 -0.09137405 -0.0732534 -0.09740192 0.0335626 -0.05482066 -0.024127323 -0.041026425
-0.06795048 -0.101303294 0.046498444 -0.09194845 0.031394534 -0.032676842 0.079923384 0.011422281
-0.0050356593 0.082444824 0.0041131238 -0.01810827 -0.007833849 0.042596374 -0.043280777 -0.055634525
-0.02053101 -0.050816532 -0.09321939 0.017654637 0.05484503 -0.096952334 0.040919878 0.098978594
0.054456 -0.09491474 -0.002172141 -0.07489284 -0.09009244 0.036531556 0.07037384 0.0005943907
-0.05062702 -0.055990085 0.07355902 -0.09234295 0.021506652 -0.013751771 -0.068905644 0.003317584
0.08898728 0.011637558 0.09308521 0.037515007 -0.09713121 0.06847066 -0.09307946 -0.014357861
-0.050998934 0.0023510142 0.068075925 0.028774891 0.01888055 -0.100118116 0.07826033 -0.09365733
0.04468301 0.034236215 -0.036896426 -0.09097295 -0.03184081 0.05772248 -0.09670315 0.009239991
-0.052191317 0.08746364 -0.041937668 -0.076833844 -0.015864788 0.04371381 -0.0029639762 0.022737432
-0.030930324 0.046795145 0.03002468 0.07527383 0.073269084 -0.013500875 -0.086341254 -0.055720367
0.058351193 -0.013426619 -0.0025515237 -0.06671255 0.049712174 0.0217325 -0.08366601 -0.06665566
-0.04797847 0.054802954 -0.0812194 -0.042630043 0.004106418 -0.014243117 0.09029773 0.05121414
0.04699486 0.06480321 -0.018391566 0.036660537 -0.042498212 -0.10870999 0.0029669667 0.009095845
0.021562286 -0.08632439 -0.005728087 0.004562038 -0.01248305 0.027602838 0.022741891 0.035956323
0.013149609 -0.06213957 0.03830808 0.044234056 -0.0898661 -0.096632905 0.041554328 -0.04904373
-0.027289914 0.040246673 -0.004000835 0.051917408 -0.053981528 0.06384567 -0.028978154 -0.09689251
-0.09509181 0.04257809 -0.08891381 -0.100627065 0.011651753 0.0935037 0.0013310856 -0.07768172
-0.08925307 -0.089981996 -0.069705665 -0.081623144 -0.09349317 0.017226886 -0.09963076 0.038413208
0.0076721725 -0.0695331 -0.07659634 -0.05359486 -0.09646965 -0.049515747 0.031667877 -0.034024052
-0.07325845 0.04200981 -0.002663157 -0.08139709 0.007926786 -0.059710786 0.032415673 -0.064599015
0.07393746 -0.041796174 0.07179008 0.07190642 0.043224964 -0.055325273 -0.020375103 0.069597274
-0.04582853 0.080444984 0.080462776 0.0026028347 0.06928625 0.016716762 -0.061486755 0.040886197

bias f4 [64]
00000000: bc8e c2b9 8e25 55bb 947f 4a3c e5ee 913b
00000010: f9ce ff3b bad0 8f3b 4bcb 053c cf94 2e3c
00000020: 0947 803c 6d49 013c 012f 2b3c 5359 4b3b
00000030: 3e41 aa3a fc89 643c c2eb 973b 1f12 13bb
00000040: c120 183c cadf 8e3b 0a56 03bc f211 133c
00000050: d84b ca39 1693 8a3b a05d 20bb c578 db3b
00000060: 5a98 393c 6d59 d63b 090d 2b3b 79c2 af3b
00000070: ac64 7d3c e7c0 173c 7a43 763c f834 823b
00000080: dce9 cf3b 3adc 273c f65a 423c 47d2 d43b
00000090: 0504 273c c28b ed3b 329d 603c af1f 223c
000000a0: 3371 183c a203 1e3c 20da ef3b 2e35 9f3b
000000b0: 6c8f 0d3b 8845 9c3b 3172 843c 20fd 2a3c
000000c0: 074c c83a e2b1 233c 09d6 2f3c 3051 5f3c
000000d0: ed9a 5f3c 25cb 4a3c b42f 51b9 7a44 5f3b
000000e0: 699a 033b 88d4 293c 6dc6 853b f917 1e3b
000000f0: 5603 493c 1ab4 203c 8264 a13b 1577 703c
-0.0003710891 -0.0032523605 0.012359519 0.0044535273 0.0078066555 0.004388896 0.008166145 0.010655596
0.015658872 0.007891041 0.010448218 0.0031028583 0.0012989414 0.013948914 0.004636259 -0.002244122
0.009285153 0.004360174 -0.008016119 0.008976446 0.0003858495 0.00422896 -0.0024469867 0.0066977465
0.011327827 0.006541422 0.00261003 0.005363759 0.015465897 0.0092623 0.015030736 0.0039735995
0.006345017 0.010245377 0.011862507 0.0064947936 0.010193829 0.0072493264 0.013709353 0.009895249
0.009304333 0.009644421 0.0073197037 0.0048586344 0.0021600379 0.004769031 0.016167732 0.010436326
0.0015281447 0.009991141 0.010732182 0.013630196 0.013647777 0.012377535 -0.00019949564 0.0034067915
0.002008105 0.010365613 0.004082492 0.0024123176 0.012268862 0.009808565 0.0049253115 0.014676829

weight f4 [6, 3136]
00000000: 00e9 113b 1cc9 d83b 2b7d 10bd 0439 babc
00000010: d367 253d d3da 113d fda0 e83c cea9 06bd
00000020: bc8a 69bb 360f 063c 131e c63c a180 843c
00000030: e491 953c 85da a9bb 5961 0ebd 0dd9 0dbd
00000040: 2681 c13c 723d ccbc 0a67 55bc c6b8 ab3c
00000050: dc87 c53c 1e0a e33c 2ed9 54ba 4860 acba
00000060: 3a8f 74bc 7d46 ddbc 0b59 c13a ce0a 32bd
00000070: 7db9 1cbd 76e8 f2bc a8ce 6a3c 5a40 1e3c
00000080: bd3c 9dbc 5f87 be3c 3de0 42bc 9633 82bc
00000090: 9bbc 1c3d 44fe bc3c 959b 00bd 9a4e dcbc
000000a0: 8ebb c8bc c430 813c b66b 253d 1330 0a3c
000000b0: 7cf1 fb3b 41d5 f8bb 662f 0d3d 957d 003d
000000c0: b317 063d 3e6f 0abd ff7b 13bd 1610 603a
000000d0: 7340 f83c 5491 2b3d 8ee3 32bd 86c7 243d
000000e0: 0acc e3bc 30d2 1cbd 371a 0bbd f344 4fbc
000000f0: a6b7 ba3c 709c 213d c60e a73b 61a0 8ebc
00000100: 5551 c23c 9fa4 06bd 2e92 f63c 3704 023d
00000110: d7f4 fe3c 47d4 d5bc dc6a 2a3d 6ca5 6ebc
00000120: 27ca 24bd 47cd cabc 25b7 e5bc 4356 053c
00000130: 9188 2dbb d85b 073c 3f5e 253d 6cc1 8bbc
00000140: e47c d0ba 86b1 07bc 1891 303d 72a3 22bd
00000150: 51b1 793c 79e3 033d bab9 1e3c 32b9 1c3d
00000160: 315d 12bd d996 83bb 733a cf3c 7a6d a0bc
00000170: 276b d43c 251b 12bd ff08 453c cbee 54bc
00000180: 522d 0a3d 074d 3a3c d012 2ebd 7bc6 2bbc
00000190: 7eef 99bc 253c adbc 9fac 323d 0672 e1bc
000001a0: 33de 6f3c 379c 68ba d354 b2bc 1b9d 34bd
000001b0: d6ef eabc 4342 bdbc ab1b a73a ca3f a33c
000001c0: 0bbb 1c3d 26e7 053c 2797 dbbc 334a eabc
000001d0: 9a19 d23c 1f7e a73c 2686 553b b43e 36bc
000001e0: 42d0 75bc c779 31bd 3225 763c d547 ccba
000001f0: 31e2 7d3c f924 7e3c 2bcd fa3c d412 0e3d
00000200: 077c 52b9 ac58 80bc 15e0 253d 4ed8 afbc
00000210: 1784 7b3c 9cf0 c3bc ae97 91bc 2817 d13c
00000220: f0d4 f5bc 476c b43c 2288 24bd 2c26 1fbd
00000230: 4868 603c e05c 7bbb 1472 b73b 76eb 873b
00000240: 99ad 133c 7fd5 4a3c 19d4 343c 69b2 8cbc
00000250: 102b 5c3c 8da9 1d3d 3f9a b9bb d1eb 37bc
00000260: 8347 bdbb 3245 963c 5e7a 3e3c a8b9 89bc
00000270: c31a 0e3c ce00 0b3c 4861 2c3c 54b0 d23c
00000280: c39c f33b 08e4 18bd 5b87 593c cf81 aa3b
00000290: ff0d 7a3c 652b 093c de5b 143c 4471 c23c
000002a0: e9d5 a1bc a842 ad3c 20bb e13c 7ac0 ea3c
000002b0: 4fd1 bbbc 24ea f2bc 5311 083d 646a 473b
000002c0: 3973 14bd 45cf fc3c fa72 963c e945 543c
000002d0: b73d 67bc 04c9 013d dadd dfbc c305 573c
000002e0: 2ed2 243c 264c cf3c 5b93 f43c 21d0 d5bc
000002f0: 6ea4 14bd 5108 afb8 618a 933c 701d a23c
00000300: b1cc 0a3d 8dc3 0f3d 4d35 243d 3f83 513d
00000310: 92c8 23bc 90b6 31bd 5ea3 1a3c 5e25 20bd
00000320: d0df 0e3b 20fe 1abd 5216 9a3c 6d3e ffbb
00000330: 4455 e53c 5720 1abb 5007 093d 6537 c73c
00000340: 218c 4d3c 487c 153c 9837 1d3d fcc7 fbbc
00000350: 94d5 f8bc 3033 ee3c 0f77 8fbc 43bf 0cbd
00000360: 4ff0 3abc 6747 4bbc f238 933c 8ba5 6ebb
00000370: b1e7 eb3c 237d f23c e7ee 14bc 1430 9ebc
00000380: 1197 02bd 7532 a23b 86d1 bbbc 4d82 20bd
00000390: f124 203d cfac 093d 9eee e9bc 3bbf eb3c
000003a0: 56d1 063d b23b 0c3d e0c0 da3c 6d85 963c
000003b0: 80f2 d6bc d263 fdbc e568 85bc 02e9 fe3c
000003c0: 41a2 eb3b 2e46 a6bc 57dd 83bc c680 22bd
000003d0: 13eb 87bb f74e 663b c330 8bbc e1fe 8dbb
000003e0: 2854 913c d9af d3bc 6d24 153d b71d cfbc
000003f0: 2d50 d2bc 2f85 10bd d714 03bc 1928 e43b
0.0022264123 0.006615771 -0.03527562 -0.022732265 0.040382218 0.035609078 0.028397078 -0.032876782
-0.003563567 0.0081823375 0.024184262 0.016174616 0.018258043 -0.0051835203 -0.034760807 -0.034630824
0.023621153 -0.024931643 -0.013025055 0.02096213 0.024112634 0.027714785 -0.00081195205 -0.0013151253
-0.014926726 -0.02701115 0.0014751268 -0.043467335 -0.038262833 -0.029651862 0.014331497 0.009658897
-0.019194001 0.02325791 -0.011894283 -0.015893739 0.038265806 0.023070462 -0.031398375 -0.026892949
-0.024503496 0.015770324 0.040385924 0.008434313 0.0076886993 -0.007593781 0.03446903 0.031369764
0.032737445 -0.033797495 -0.036006924 0.0008547319 0.03030417 0.041886643 -0.043674044 0.040229343
-0.027807254 -0.038286388 -0.033960547 -0.012650716 0.022792649 0.03945583 0.0050981967 -0.017410459
0.023720423 -0.03287184 0.030099 0.0317423 0.031122608 -0.026102198 0.041605815 -0.014565807
-0.04023185 -0.024756087 -0.028041432 0.008138242 -0.0026479105 0.008261643 0.040373083 -0.017060004
-0.0015906361 -0.008282071 0.043107122 -0.039706655 0.015240029 0.032199357 0.009687835 0.038262554
-0.035733406 -0.004015785 0.025296425 -0.019583452 0.02593 -0.03567042 0.012026071 -0.012996386
0.033734627 0.011370904 -0.04249841 -0.010484333 -0.018790957 -0.021146843 0.043621656 -0.02752019
0.014640379 -0.00088733755 -0.021768963 -0.04409514 -0.028678816 -0.023102885 0.0012749335 0.019927878
0.038264316 0.008172786 -0.026805473 -0.028599834 0.025646973 0.020445881 0.003258118 -0.011123348
-0.015003266 -0.043329027 0.0150235165 -0.0015585372 0.015495823 0.015511745 0.03061541 0.034685925
-0.00020073364 -0.015667282 0.040496904 -0.021465447 0.015351317 -0.023918442 -0.017772522 0.025523737
-0.030008763 0.022024287 -0.04016889 -0.038854763 0.013696738 -0.0038354918 0.005598316 0.004147942
0.009013557 0.012380003 0.011036896 -0.017174916 0.013438001 0.038491774 -0.0056641395 -0.011225657
-0.005776347 0.018343542 0.011625854 -0.01681216 0.008673373 0.008484079 0.0105212405 0.025718845
0.007434459 -0.037326843 0.0132769 0.0052034627 0.015262126 0.0083721625 0.009055106 0.02373565
-0.01975532 0.021149948 0.027555048 0.028656233 -0.022926955 -0.029652663 0.033219647 0.0030428404
-0.036242697 0.030860553 0.018365372 0.012956121 -0.014113835 0.031685844 -0.027327467 0.013123932
0.010059876 0.025304865 0.02985542 -0.02610022 -0.036289625 -8.346199e-05 0.01801032 0.019789428
0.033886615 0.0350986 0.040089894 0.051150557 -0.00999655 -0.043386996 0.009438364 -0.039098136
0.0021800883 -0.03784001 0.018809471 -0.007789424 0.02799476 -0.0023517811 0.03345424 0.024318406
0.012545616 0.009123869 0.038383096 -0.030735008 -0.03037528 0.029077142 -0.017512826 -0.03436209
-0.011409833 -0.01240716 0.01797149 -0.003641459 0.028797003 0.029600685 -0.009090162 -0.019310035
-0.03188235 0.0049498626 -0.022927057 -0.039186765 0.03909773 0.03361207 -0.028556164 0.02877771
0.032914482 0.034236617 0.026703298 0.01837417 -0.02623868 -0.030931387 -0.01628537 0.031116966
0.007190973 -0.020297136 -0.016096754 -0.03967359 -0.004147896 0.0035142282 -0.016991025 -0.0043333624
0.017740324 -0.025840687 0.03641169 -0.025282724 -0.025672996 -0.035283264 -0.008000574 0.006962788

bias f4 [6]
00000000: ff26 c23b 97c7 403c b449 333c dd1f e03b
00000010: 37ca 6c3c 7bb8 403c
0.005925059 0.011766336 0.010942865 0.006839736 0.014452509 0.011762734

weight f4 [1, 3136]
00000000: adfc f7bc 6b9b ab3b 4f9a 8ebb 2b74 133d
00000010: 09d4 85bc 888d 26bd bd0b 19bd b11b 0bbd
00000020: fe75 49bc beae 6eba fff7 123d aa02 293d
00000030: b9df 91bc af69 f8bc 2270 e13b fbe6 c93c
00000040: a587 dc3c 0df3 b3bc 1988 4a3b aba8 65bc
00000050: b9e0 cabb c2b7 e5bc 973d 10bd d0a1 e0bc
00000060: 5c13 373c b691 35bd 9478 8f3b 38c6 c7bc
00000070: b113 ccbc 74c6 073d 35ca 153d 96c4 08bd
00000080: 97f3 003d 57a0 96bc d248 24bc 9965 143c
00000090: 8c61 19bc d951 a83a d550 0abd c1d8 623c
000000a0: 1c85 cc3b f849 d7bb 9fa0 1dbd b8ae 8cba
000000b0: 37d7 fbbc 75d6 b43c a6ad 023c 3d40 c5bc
000000c0: 818a 123b 9349 0e3d 5bb5 b13c 7707 b03c
000000d0: 91e6 833b 923f 10bd 1c4a e53b 4055 153d
000000e0: d2f1 403b 1865 1fbd 515d f3bc 350d 8cbc
000000f0: 1c99 73bc 7fc1 1c3d d1a3 3d3c 267e 22bc
00000100: 8583 973c acac 8f3a 3b82 12bd 1371 2cbc
00000110: f03d c53b 0e66 fd3c f9fc 87bc e2b3 22bc
00000120: c50f 43bc d048 a7bc bea3 343c d8dd bcbb
00000130: 77e4 ed3c 5053 15bd 4fe7 15bd b3b7 433c
00000140: 17b0 f33c 6daf bcbb 0f11 983b 60cc c73c
00000150: 2afa 52bc 0ce1 e2bc 088e 903c 3705 093d
00000160: eb24 383b d9a9 263c b684 9c3c 5d1f 42bc
00000170: dbe2 843c 2827 34bb 7d11 02bc 84cf 9b3c
00000180: 2846 2e3d f4ae 7ebc 358c 8d3c ce66 24bd
00000190: 2130 5c3c f97a 65bc f58e d6bc b36c 6abc
000001a0: 6efc 823c c791 98bb b83e a2bc 507f 1b3d
000001b0: 69c5 55bc a935 c1bc d2ac 00bd 5d67 aabc
000001c0: da1a 023d 9510 ba3a 92d9 c13c 0258 af3b
000001d0: 1173 b53c 653c 82ba fd66 863c c41a 44bc
000001e0: 061b 063c 66c8 e8bc fde8 e63b 90e1 68bb
000001f0: 5d03 dcbc c055 6ebc ed05 b53c f6e1 fc39
00000200: 9dfd f43c 0d3e 99bc dae1 153d dc96 fbbb
00000210: 32db 6b3b 809d c83c faa2 acbc 65ee 893c
00000220: 3ed6 ec3c ec7b e33c e002 fcbb 2584 023d
00000230: 3b2c 6d3c b97d fe3c 1f4a eabb c7b6 463d
00000240: 40ac 413d 3ae6 eabc 35be d6bc 8e14 afbb
00000250: d107 ce3b 6f83 a43b 2fd9 e43b 3929 5bbc
00000260: f306 c3bc d028 d43c 4b5f dcbc 86f2 b7bc
00000270: 7a95 51bc c577 bf3a dbe4 b43c 2d7b 3a3d
00000280: d7cd 0fbd 4e9b 1a3b 70d6 f33c 3cd2 60bc
00000290: 59c0 debc 7742 29bc 741c debc 58e4 c13c
000002a0: 7f32 543c 73ab 0abd 3ecd 1e3d f1e5 84bb
000002b0: 713d 363d 2c5b 1bba 3488 b43b 5cea 873d
000002c0: 5ea8 093d 2a74 b7bc 746d bd3c e83a dc3c
000002d0: f391 2e3c ea6f 81bc dd57 46bc 8d98 c2bc
000002e0: 93ea 83bb 043f 6ebc 7c53 d53c d660 93bc
000002f0: 4972 5a3c d9d4 2abd a13c ba3c 3f09 113d
00000300: b85b c7bb 5934 f3bc 9305 8abc c0a1 4bbd
00000310: fc20 c73b 87d3 98bc a2ac 213d 738d f9bc
00000320: ba04 d3bc f1b3 053d 28b0 333d 1417 e2ba
00000330: 0f6d 503c ca53 c03c 2e4c ebbc cda8 c23c
00000340: ecbb 033d b161 3f3b a725 c6bc 6477 a3bb
00000350: d7b7 92bc ed0a bb3b 3a62 55bb d7d1 d5bc
00000360: ecf3 04bc 472d cf3c 351e b8bc dab5 c3bc
00000370: 03d0 77bc dbe0 78bc 061e 873c 21bb 15bd
00000380: ac42 193c 24ec dabc 1243 7cbc e1c3 553c
00000390: 5998 6abb 3f88 003d 55de 463c ec4f c7b7
000003a0: 66cd 80bc 06dc 2b3c 25a2 8c3c cf85 063d
000003b0: 8098 d43c a3f7 003d 11f7 30bd cb69 463a
000003c0: 7e6b b03c f40b b93c 019a 163d b801 d9bb
000003d0: d4ce ea3b a758 24bc 5e28 2f3d 197e 9e3c
000003e0: 7b58 e3bc 9a94 b0bb 580c b5bb 031f f4bb
000003f0: 02ae 41bc 893f 6abc 0611 c43c f33c e93c
-0.030271852 0.005237033 -0.004351891 0.03599946 -0.016336458 -0.04066232 -0.03736471 -0.033961955
-0.012296198 -0.0009105018 0.03588104 0.041262306 -0.017806875 -0.030323831 0.0068798224 0.024646273
0.02692015 -0.021966482 0.0030903874 -0.014017264 -0.00619134 -0.028041724 -0.035214987 -0.027420908
0.011174049 -0.044328414 0.0043783877 -0.02438651 -0.024911733 0.033148244 0.036569793 -0.033390604
0.031482305 -0.018387003 -0.010027127 0.009057426 -0.009361636 0.0012841775 -0.033768494 0.0138456235
0.006241454 -0.006570097 -0.03848326 -0.0010733223 -0.03074227 0.022074917 0.007975971 -0.024078483
0.0022360387 0.034738135 0.021692922 0.021487935 0.0040252884 -0.035216875 0.00699736 0.036458254
0.002944101 -0.03891477 -0.029707583 -0.017096141 -0.014868047 0.03827047 0.011574701 -0.009917771
0.01849533 0.0010961494 -0.03576873 -0.010525006 0.0060193464 0.030932453 -0.016600119 -0.009930583
-0.011905615 -0.020420462 0.011025367 -0.0057637505 0.029039605 -0.036456406 -0.036597546 0.011945653
0.029747052 -0.005758217 0.0046407054 0.024389446 -0.012877027 -0.027695201 0.01764585 0.03345224
0.0028098177 0.010172331 0.01910625 -0.011848298 0.016221454 -0.002748916 -0.00793874 0.01901985
0.042547375 -0.015544642 0.01727877 -0.040137105 0.013439209 -0.01400637 -0.026191214 -0.0143081425
0.015989508 -0.00465605 -0.019805297 0.03796321 -0.0130475545 -0.023585157 -0.031414814 -0.02080124
0.03176389 0.0014195616 0.023663316 0.0053510675 0.022149595 -0.0009936212 0.01640653 -0.011969272
0.008185154 -0.02841587 0.0070468173 -0.0035534836 -0.026857072 -0.014546812 0.022097552 0.0004823354
0.029906088 -0.018706346 0.036592342 -0.007677896 0.0035988805 0.024489164 -0.021073807 0.016837308
0.028910752 0.027769051 -0.0076907724 0.031864304 0.014475877 0.031065809 -0.007149949 0.048514154
0.04728341 -0.028674234 -0.026213745 -0.0053430265 0.006287553 0.005020551 0.006983898 -0.0133765275
-0.023807025 0.025898367 -0.026900908 -0.022454511 -0.012791986 0.0014607838 0.022081783 0.045527626
-0.035108414 0.0023591104 0.029765338 -0.013721999 -0.027191328 -0.010330788 -0.027113177 0.023668453
0.012951492 -0.033854913 0.038769953 -0.0040557315 0.04449219 -0.00059263664 0.0055094007 0.066364974
0.033607833 -0.022394259 0.02312348 0.026883557 0.010654914 -0.015800435 -0.012105909 -0.023754383
-0.004025766 -0.014541391 0.026040785 -0.01799051 0.013332912 -0.041706894 0.022733988 0.03540921
-0.006083932 -0.029688047 -0.016848361 -0.049714804 0.00607693 -0.018655552 0.039471276 -0.030462956
-0.02575909 0.03264231 0.043869168 -0.001724931 0.012721314 0.023477454 -0.028722849 0.023762131
0.03216164 0.0029202516 -0.024187876 -0.0049885977 -0.017909927 0.0057080896 -0.0032559768 -0.026101036
-0.008114796 0.025290145 -0.022475341 -0.023890425 -0.015125277 -0.0151903285 0.016493808 -0.036555413
0.009354275 -0.026723929 -0.01539685 0.013047189 -0.0035796373 0.031379934 0.012137969 -2.3759865e-05
-0.015722942 0.010489469 0.01716716 0.032842454 0.025951624 0.031486165 -0.04320437 0.0007568865
0.021535631 0.022588708 0.036767963 -0.0066225193 0.007165769 -0.010030902 0.042763107 0.019347237
-0.027752152 -0.0053888084 -0.005525153 -0.007449986 -0.011821272 -0.0142973745 0.023933899 0.028471446
