PPO-GAE/Breakout/FINAL.BreakoutNoFrameskip-v4.MODEL (torch_old, 392766 bytes, 9 tensors)

weight f4 [32, 4, 8, 8]
-0.011256992 0.035051197 0.037614215 -0.020365668 -0.010101417 -0.045318957 0.030728076 0.018382624
-0.015830968 -0.06324707 0.007452142 0.02897346 0.001998428 -0.036120296 -0.026207175 -0.009152316
0.011710307 0.0066205123 -0.045447458 0.013115089 0.032517955 0.04911339 0.024276072 -0.0065036546
0.03243521 0.028293295 -0.06264788 -0.07464628 -0.006216383 0.021506665 -0.09598702 -0.05778703
-0.030207612 0.020073423 -0.0032110387 -0.05668704 0.020268839 -0.054161437 -0.065228 0.03878212
-0.039742835 -0.08399416 -0.042881984 0.003629102 -0.017547665 -0.08052836 -0.04656 0.043145426
-0.07248344 -0.018427169 0.011281662 -0.008037632 0.02104856 -0.07083205 -0.06774839 0.056457043
-0.036427286 0.0161592 0.014803908 -0.0009660324 -0.037817873 0.043860413 -0.0016036407 -0.044797607
-0.017615845 0.027452603 -0.019493787 0.03189924 0.041381087 0.016326625 0.02181168 -0.00030483192
0.0028502105 -0.0888274 -0.010730316 0.04974194 -0.039536558 -0.021568028 0.0076938854 -0.035677116
0.028224137 0.010705229 0.044503096 -0.006462395 -0.014288283 0.053137038 -0.06723293 0.034296133
-0.045202997 0.028518114 -0.009642921 -0.029712662 -0.05118611 -0.04994422 0.056380074 -0.030281112
-0.019031236 -0.033373255 0.041524295 0.047887262 0.027427709 -0.0052117733 -0.011424659 0.053561967
-0.023628285 0.04561691 0.051270917 -0.0054757306 0.002432064 -0.08779904 0.018720256 -0.06326121
0.014008512 0.0129574705 -0.0536041 -0.0067405235 -0.037907157 -0.028908784 -0.040208735 0.020591753
0.05451235 -0.05713417 -0.02750308 0.014891407 0.016522655 -0.04034008 -0.03261907 0.06725328
-0.03911329 -0.025836462 0.032824874 -0.034405585 0.044643436 -0.065048836 0.023669688 -0.038274515
-0.021831207 -0.019650586 -0.009945668 0.016764808 0.0038421352 -0.07506735 -0.067824244 -0.029251022
-0.0116735585 0.026011795 0.058867205 -0.041312255 -0.031197077 -0.011390555 -0.03175853 0.021877436
-0.0759548 0.05666327 -0.028348822 0.035873294 -0.07752947 -0.01959369 0.016666714 -0.05076332
-0.029727248 0.01961934 0.050337188 -0.040050045 -0.009787672 -0.05063211 -0.032494962 0.044993374
0.028682504 0.030211955 0.020105213 -0.051266722 0.0760648 0.04609873 0.019513885 -0.047157984
0.09506158 0.0056626555 0.0011187667 -0.041212738 0.04945138 0.08586135 0.023386491 0.013837028
-0.04908073 -0.04725005 0.07559979 -0.0042686616 -0.01602178 0.05836663 -0.026472067 0.00095228554
0.06365312 0.043730214 -0.031918176 -0.032360528 -0.0056005702 0.06487907 -0.05797021 0.0366773
-0.060963597 -0.06372009 0.022523427 -0.038243655 0.043406058 -0.04783862 -0.08837566 -0.07487662
-0.08098539 -0.045796383 -0.05350134 0.058654584 0.03256099 -0.04477955 -0.0638625 -0.0103911
-0.04759875 0.07918306 0.04025542 0.021168381 0.07829014 0.029863937 -0.021999078 -0.031870592
-0.065544225 -0.034284126 0.048779685 0.07601031 0.071453094 0.0037848565 -0.014474441 -0.032345045
-0.026983896 -0.06402602 0.08562208 0.066386186 -0.034877583 -0.023449954 0.026895288 0.045344952
-0.06362079 -0.020575924 0.032556012 0.09998407 0.041447897 0.09132796 0.11613455 0.087707825
-0.120125376 -0.004590003 0.023129346 0.053200092 0.05219252 0.017011415 -0.042962685 0.026487688
00000000: 3f6f 38bc d891 0f3d 5d11 1a3d e7d5 a6bc
00000010: 6a80 25bc 5fa0 39bd 72b9 fb3c 2897 963c
00000020: f2af 81bc ae87 81bd 1931 f43b c059 ed3c
00000030: 0ff8 023b e0f2 13bd 6eb0 d6bc 98f3 15bc
00000040: 96dc 3f3c e2f0 d83b 1d27 3abd ace0 563c
00000050: 8c31 053d 1f2b 493d 9dde c63c 9c1c d5bb
00000060: c8da 043d 57c7 e73c 884d 80bd 26e0 98bd
00000070: cdb2 cbbb bf2e b03c d894 c4bd 18b2 6cbd
00000080: f475 f7bc 0571 a43c 4a70 52bb ab30 68bd
00000090: d60a a63c 62d8 5dbd 4296 85bd 00da 1e3d
000000a0: 62c9 22bd 2105 acbd 05a5 2fbd 3ad6 6d3b
000000b0: 1fc0 8fbc 0eec a4bd b3b5 3ebd 42b9 303d
000000c0: 3372 94bd 93f4 96bc b8d6 383c 46b0 03bc
000000d0: 086e ac3c 6510 91bd abbf 8abd 803f 673d
000000e0: c734 15bd 4c60 843c 178c 723c 563d 7dba
000000f0: eae6 1abd faa6 333d 4131 d2ba b27d 37bd
00000100: 1b4f 90bc 48e4 e03c 6fb1 9fbc c7a8 023d
00000110: 377f 293d 6abf 853c 69ae b23c d9d1 9fb9
00000120: 99ca 3a3b 24eb b5bd 35ce 2fbc 34be 4b3d
00000130: 16f1 21bd 6faf b0bc fd1c fc3b 2b22 12bd
00000140: 4e36 e73c fc64 2f3c e148 363d 80c2 d3bb
00000150: 6719 6abc 39a6 593d 6bb1 89bd 1a7a 0c3d
00000160: c726 39bd d29e e93c 58fd 1dbc f867 f3bc
00000170: 87a8 51bd 4f92 4cbd cbee 663d 1810 f8bc
00000180: 65e7 9bbc 65b2 08bd 6115 2a3d 6f25 443d
00000190: 13b0 e03c 86c7 aabb 7e2e 3bbc cb63 5b3d
000001a0: 1b90 c1bc ccd8 3a3d 7401 523d c26d b3bb
000001b0: 4363 1f3b fccf b3bd 395b 993c 188f 81bd
000001c0: f583 653c 924b 543c f98f 5bbd 9cdf dcbb
000001d0: 8944 1bbd 1dd2 ecbc eab1 24bd 09b0 a83c
000001e0: 5848 5f3d 8505 6abd 244e e1bc 17fb 733c
000001f0: 855a 873c a43b 25bd 939b 05bd 16bc 893d
00000200: 4235 20bd fda6 d3bc 6073 063d dfec 0cbd
00000210: 09dc 363d 5338 85bd efe6 c13c bdc5 1cbd
00000220: 5cd7 b2bc 44fa a0bc 28f3 22bc 5a56 893c
00000230: 55cc 7b3b e9bc 99bd 70e7 8abd d79f efbc
00000240: 7442 3fbc b016 d53c bd1e 713d 0a37 29bd
00000250: 0391 ffbc 739f 3abc 3b15 02bd 4f38 b33c
00000260: 318e 9bbd bf17 683d ca3b e8bc e0ef 123d
00000270: c5c7 9ebd f282 a0bc a288 883c 33ed 4fbd
00000280: 8f86 f3bc bdb8 a03c 5e2e 4e3d 840b 24bd
00000290: 795c 20bc 9e63 4fbd 7019 05bd f94a 383d
000002a0: 92f7 ea3c 107f f73c b0b3 a43c 0efd 51bd
000002b0: ddc7 9b3d 06d2 3c3d 95db 9f3c bb28 41bd
000002c0: a5af c23d cc8d b93b 95a3 923a b0ce 28bd
000002d0: 888d 4a3d 13d8 af3d 0795 bf3c b4b4 623c
000002e0: e008 49bd 4589 41bd 10d4 9a3d 21e0 8bbb
000002f0: 1c40 83bc d911 6f3d f3db d8bc cda2 793a
00000300: 915c 823d 741e 333d a2bc 02bd 798c 04bd
00000310: fd84 b7bb 51df 843d 2c72 6dbd f03a 163d
00000320: f7b4 79bd ae7f 82bd 0d83 b83c 61a5 1cbd
00000330: 8dca 313d 6ef2 43bd 4cfe b4bd ea58 99bd
00000340: abdb a5bd fd94 3bbd 3924 5bbd ca3f 703d
00000350: ac5e 053d c36a 37bd 58ca 82bd 6f3f 2abc
00000360: e8f6 42bd ba2a a23d dee2 243d 5069 ad3c
00000370: 9556 a03d 37a5 f43c 6937 b4bc bd8a 02bd
00000380: 0d3c 86bd 836d 0cbd 35cd 473d 4bab 9b3d
00000390: 0056 923d 5b0b 783b 3526 6dbc 3d7c 04bd
000003a0: 550d ddbc 1320 83bd a15a af3d 7bf5 873d
000003b0: ccdb 0ebd 1e1a c0bc 8253 dc3c a1bb 393d
000003c0: 9e4b 82bd d78e a8bc 7459 053d 73c4 cc3d
000003d0: 45c5 293d 270a bb3d f3d7 ed3d 29a0 b33d
000003e0: 4b04 f6bd bc67 96bb c179 bd3c 57e8 593d
000003f0: d3c7 553d 865b 8b3c a4f9 2fbd b5fc d83c

bias f4 [32]
0.03083167 0.009124263 -0.017836189 -8.593427e-05 0.08164407 0.04963186 0.043212794 0.036970865
0.056978907 0.0029322847 -0.002242088 0.009001355 0.0017294338 0.012354598 0.043553088 0.09523392
-0.011973104 -0.010659677 -0.0055653322 0.051411588 0.04910655 0.019321242 -0.022623394 0.005748511
0.07726722 -0.024564788 0.0557882 -0.0060512484 0.060548503 -0.07388792 -0.03391826 -0.0031548864
00000000: b392 fc3c ef7d 153c 331d 92bc 9c37 b4b8
00000010: 0235 a73d c74a 4b3d e6ff 303d c36e 173d
00000020: b762 693d 932b 403b ffef 12bb 6b7a 133c
00000030: 2bae e23a f16a 4a3c b964 323d 000a c33d
00000040: d72a 44bc eda5 2ebc 645d b6bb f594 523d
00000050: f323 493d 9547 9e3c b254 b9bc 015e bc3b
00000060: 473e 9e3d 183c c9bc 2b82 643d 8d49 c6bb
00000070: b501 783d 8d52 97bd e0ed 0abd 36c2 4ebb

weight f4 [64, 32, 4, 4]
0.013469085 -0.0066046524 -0.011511767 0.0035189514 -0.04909904 0.013853511 0.015943075 0.019286055
-0.025464773 -0.07920806 -0.00721112 0.0070763677 0.008233778 0.012352408 0.0069874935 0.013024083
0.055938497 -0.0011511432 0.01647187 0.009797225 -0.122701 0.0065714456 0.02610983 -0.055822145
-0.0438015 0.040792033 0.033354383 0.0018964872 -0.047934536 -0.00828715 0.051460683 0.009222884
0.022009337 -0.02288232 -0.048686203 0.06368361 0.009814412 -0.07959982 -0.01975882 -0.054419484
0.0041914545 0.06860981 0.04253188 0.0044516795 -0.010833877 0.008135302 0.035408862 0.027595976
0.0344405 0.05390315 0.035268437 -0.0021292202 -0.047853883 -0.038134422 0.021246681 0.011498973
-0.004922748 0.021984223 0.035159428 0.070502 0.057929903 0.090175636 0.022125743 -0.058731314
-0.014418022 0.0070565455 -0.06508185 0.048580028 -0.034478478 -0.0117016975 -0.022201767 0.007397444
0.007288734 -0.011871632 0.023829883 0.012942548 0.008580261 0.005178146 -0.015963027 0.00079892925
0.019973893 0.023716504 0.003183674 -0.044680107 -0.075162865 -0.046900585 0.049293883 0.00433311
0.05962322 0.00053128094 0.032803524 -0.020488769 0.02463661 -0.01992636 0.07991243 0.03870346
-0.07178653 0.040994238 -0.08399494 -0.022066657 0.019502733 -0.046971537 0.008889975 0.017859688
-0.038795095 0.018599339 0.058798723 -0.020065162 0.029570086 0.0119228475 -0.06124384 0.04681681
-0.04333983 -0.06544038 0.0014520785 0.013050127 0.10348643 0.07492586 0.06211929 0.049380086
-0.025085205 0.019985788 0.015158708 -0.008909896 -0.003274586 -0.021264238 -0.017976753 0.010276676
-0.011952327 -0.05920994 -0.01492659 -0.0353746 0.017988196 -0.0019149386 -0.0009050175 -0.061051164
-0.05717897 0.034839556 -0.047440022 -0.054797303 0.03000821 -0.0668837 0.030087674 -0.021410044
-0.038209762 0.060784817 -0.018066011 0.010861982 -0.017880961 0.042315044 0.053178724 -0.030979868
0.08977434 -0.012652281 0.12404875 0.04197001 0.05753059 0.059258003 0.0101860305 -0.0107034575
0.017672623 0.052669983 0.03088738 0.017358681 0.012618215 0.014797462 0.029664448 0.026857415
0.009063922 0.024436275 -0.062080715 -0.023911541 0.054352053 0.05463347 0.039836645 0.018037941
0.020790508 -0.022415109 0.029315969 0.042403348 0.038572896 0.0063362303 0.09782484 0.050446425
-0.0035701317 0.066661134 0.007465068 0.012249916 0.058778744 -0.057896767 0.022973554 0.07469955
-0.03274628 -0.014202772 -0.054157324 -0.003601794 -0.038562145 0.009398863 -0.045199107 0.013854691
0.062649086 0.05909413 0.049682956 0.043832142 -0.018511372 0.05917552 -0.028503107 0.040786356
-0.047359325 -0.0027353007 -0.13877243 0.005175555 -0.10971399 0.0029502069 -0.02095694 0.0016368083
0.03073322 0.004645501 0.02199715 -0.05455671 0.023762995 -0.03349016 -0.002265037 -0.016725456
0.052158564 -0.05532881 -0.023514278 0.008732831 -0.06861708 -0.014787639 -0.039088648 -0.07554239
-0.018725166 -0.021037474 -0.062865324 -0.018207375 -0.014019608 -0.052139338 -0.017316649 -0.05265378
-0.030754713 0.020588575 -0.0349295 -0.009718622 0.019757971 -0.009992762 0.029096603 0.012195531
0.018760933 0.046039816 0.035398565 -0.040280353 -0.034182932 0.020303968 0.04081724 0.0048389575
00000000: 70ad 5c3c d76b d8bb da9b 3cbc 359e 663b
00000010: 131c 49bd d6f9 623c 0d9b 823c cafd 9d3c
00000020: 809b d0bc d637 a2bd 424b ecbb e0e0 e73b
00000030: f8e6 063c c161 4a3c 58f7 e43b f762 553c
00000040: c41f 653d f5e1 96ba 04f0 863c 8a84 203c
00000050: a94a fbbd 4855 d73b 48e4 d53c c3a5 64bd
00000060: 3469 33bd 8c15 273d 9b9e 083d 8d93 f83a
00000070: 0157 44bd d4c6 07bc 70c8 523d 941b 173c
00000080: ed4c b43c b473 bbbc 2f6b 47bd 8d6c 823d
00000090: a1cc 203c 3b05 a3bd 40dd a1bc f7e6 5ebd
000000a0: 7858 893b 4d83 8c3d e935 2e3d 65df 913b
000000b0: 9380 31bc ee49 053c e208 113d f510 e23c
000000c0: 7b11 0d3d 8dc9 5c3d a375 103d 638a 0bbb
000000d0: 6f02 44bd d732 1cbd 850d ae3c 3066 3c3c
000000e0: 014f a1bb 4218 b43c 5503 103d 5a63 903d
000000f0: e847 6d3d 01ae b83d 0c41 b53c 3f90 70bd
00000100: 9139 6cbc 983a e73b a249 85bd dafb 463d
00000110: 4e39 0dbd 7ab8 3fbc 7be0 b5bc 4266 f23b
00000120: 55d6 ee3b 3c81 42bc e336 c33c fb0c 543c
00000130: 3994 0c3c 70ad a93b e5c4 82bc 3c6f 513a
00000140: 4aa0 a33c 1d49 c23c 30a5 503b 7d02 37bd
00000150: fdee 99bd d41a 40bd 62e8 493d c3fc 8d3b
00000160: 7a37 743d a945 0b3a fd5c 063d 10d8 a7bc
00000170: b7d2 c93c 9b3c a3bc 21a9 a33d 8587 1e3d
00000180: d104 93bd 93e9 273d 8a05 acbd 22c5 b4bc
00000190: 32c4 9f3c 3a65 40bd 42a7 113c 7b4e 923c
000001a0: 9be7 1ebd a45d 983c eed6 703d b25f a4bc
000001b0: f73c f23c 0c58 433c d2da 7abd fcc2 3f3d
000001c0: 1b85 31bd 9b05 86bd ab53 be3a 33d0 553c
000001d0: b2f0 d33d bb72 993d cc70 7e3d c642 4a3d
000001e0: 7d7f cdbc 3cb9 a33c 3b5c 783c d0fa 11bc
000001f0: 709a 56bb 5732 aebc fc43 93bc 815f 283c
00000200: b1d3 43bc 1f86 72bd a88e 74bc f5e4 10bd
00000210: fb5b 933c adfe faba b23e 6dba c910 7abd
00000220: 7f34 6abd ecb3 0e3d 7850 42bd 2373 60bd
00000230: c7d3 f53c 52fa 88bd 6d7a f63c 1e64 afbc
00000240: d781 1cbd 80f9 783d 2cff 93bc 74f6 313c
00000250: 187b 92bc 8a52 2d3d efd1 593d 7ec9 fdbc
00000260: 9cdb b73d 834b 4fbc 450d fe3d bfe8 2b3d
00000270: 32a5 6b3d 85b8 723d 4fe3 263c 8e5d 2fbc
00000280: 2dc6 903c 7bbc 573d 8807 fd3c cb33 8e3c
00000290: a1bc 4e3c 0e71 723c db02 f33c 1504 dc3c
000002a0: d880 143c 952e c83c 5948 7ebd 23e2 c3bc
000002b0: 42a0 5e3d 58c7 5f3d c02b 233d 4ec4 933c
000002c0: db50 aa3c e49f b7bc 0b28 f03c 22af 2d3d
000002d0: 9dfe 1d3d 27a0 cf3b 6458 c83d e9a0 4e3d
000002e0: dff8 69bb a285 883d 879d f43b dfb3 483c
000002f0: fbc1 703d 2925 6dbd 0933 bc3c 14fc 983d
00000300: f720 06bd beb2 68bc 12d4 5dbd 130c 6cbb
00000310: 57f3 1dbd b0fd 193c b322 39bd c9fe 623c
00000320: 2a4e 803d b00c 723d 5b80 4b3d 5589 333d
00000330: 29a5 97bc 0862 723d 597f e9bc 980f 273d
00000340: dafb 41bd bb42 33bb 5c1a 0ebe b497 a93b
00000350: bab1 e0bd 4258 413b e3ad abbc 2c8a d63a
00000360: 3cc4 fb3c 4939 983b 5e33 b43c db76 5fbd
00000370: 9daa c23c fa2c 09bd 0471 14bb d303 89bc
00000380: 38a4 553d 76a0 62bd 04a1 c0bc 2614 0f3c
00000390: 1d87 8cbd da47 72bc 6b1b 20bd f8b5 9abd
000003a0: 8565 99bc c856 acbc 89bf 80bd a227 95bc
000003b0: 7fb2 65bc 0f90 55bd a5db 8dbc 7dab 57bd
000003c0: 4ff1 fbbc 5fa9 a83c 3c12 0fbd db3a 1fbc
000003d0: 78db a13c aeb8 23bc 005c ee3c c4cf 473c
000003e0: 87b0 993c 3f94 3c3d 16fe 103d 03fd 24bd
000003f0: 6703 0cbd 8254 a63c fa2f 273d 1e90 9e3b

bias f4 [64]
0.033346083 -0.026843188 0.0836669 -0.04981404 0.043830823 0.04908926 0.05728849 0.075987644
-0.04775612 0.05669186 0.05275555 -0.08747201 -0.0043862346 -0.055621207 0.012834547 -0.07843323
-0.0076581873 0.0023961368 0.053618513 0.04626428 0.03464843 -0.034909043 -0.037463386 0.06069862
-0.009985242 0.012874398 -0.017650133 0.0038525797 0.050415836 -0.039122343 -0.030881785 -0.026616123
0.029907698 -0.010064853 -0.010733149 -0.0017087366 0.047547966 -0.06325535 0.034244735 -0.024680346
-0.009355307 -0.0036309836 0.007708901 -0.024066694 -0.08260285 0.053912446 -0.0071390793 -0.011172161
-0.027136361 -0.03330421 -0.029435715 -0.043371677 0.031441204 0.015230496 -0.052838936 -0.050269015
0.07487446 0.046934377 0.02469631 0.012797615 0.020258958 -0.05634462 -0.027644195 -0.004062938
00000000: e795 083d 3fe6 dbbc 8d59 ab3d cf09 4cbd
00000010: f387 333d d211 493d 56a7 6a3d 699f 9b3d
00000020: ec9b 43bd b935 683d 3416 583d 8624 b3bd
00000030: 67ba 8fbb 10d3 63bd fe47 523c 9aa1 a0bd
00000040: 88f1 fabb 8108 1d3b 169f 5b3d 9d7f 3d3d
00000050: 83eb 0d3d c9fc 0ebd 3573 19bd 1e9f 783d
00000060: 2499 23bc 24ef 523c 0397 90bc 907b 7c3b
00000070: d680 4e3d c03e 20bd ccfb fcbc 0e0a dabc
00000080: fd00 f53c 0ee7 24bc 17da 2fbc b0f7 dfba
00000090: a8c1 423d 058c 81bd 3544 0c3d 702e cabc
000000a0: 0047 19bc ccf5 6dbb f39a fc3b 8427 c5bc
000000b0: af2b a9bd 4cd3 5c3d f0ee e9bb 710b 37bc
000000c0: 134d debc ff69 08bd 2b23 f1bc 80a6 31bd
000000d0: 7ec8 003d 5589 793c a46d 58bd e2e6 4dbd
000000e0: c857 993d 433e 403d ea4f ca3c 16ad 513c
000000f0: 1df6 a53c 9ec9 66bd 1476 e2bc 6522 85bb

weight f4 [64, 64, 3, 3]
-0.013248505 0.0033295087 -0.02787246 0.048788633 -0.042572275 -0.035810906 0.023101293 -0.036678396
-0.012677154 -0.006815742 0.022257963 0.07450906 -0.04260238 0.043690484 -0.04583619 -0.06610721
-0.021196451 0.01177345 -0.04971975 -0.040344037 -0.024924487 0.008513751 0.05280029 0.017873071
0.010539059 -0.039565302 0.022315199 -0.015584549 0.038997803 0.024440555 -0.05781603 0.019459182
0.03198561 -0.013349386 -0.010971662 0.0006294119 -0.007276745 0.025967194 -0.02471835 -0.0140190665
0.034781974 0.004929471 -0.039022915 -0.04591896 0.03791297 0.0069251116 -0.04875797 0.03296797
0.035079498 -0.03539806 0.040260874 -0.016366301 -0.039837696 0.06950447 -0.0011063936 -0.06623816
0.008305184 -0.0089074485 0.06250925 0.011526012 -0.028024971 -0.0037490993 -0.06380917 0.008658848
0.033054594 0.018908521 -0.04622424 -0.0029667595 0.011272504 -0.039289366 0.014946883 -0.008360651
0.02137421 -0.060044453 0.035878655 -0.06208881 0.031535853 -0.03960521 0.019892368 -0.04058392
-0.020308241 -0.011076576 -0.040820654 -0.01051043 0.025392732 0.024498738 -0.025882646 0.009243473
-0.0748084 0.029045854 -0.032454744 0.006490675 -0.009219533 -0.03680993 0.014885249 0.031218061
0.015117217 0.05263308 0.021293722 -0.036075503 -0.016521296 0.018300248 -0.006283561 -0.011765008
0.021633105 0.024895523 0.014705442 -0.0034020364 -0.05193694 0.042707816 0.0050195577 0.038637336
0.028839566 0.007910576 0.046793777 -0.01188483 -0.03766324 -0.0019588165 -0.010355468 -0.00048015872
0.037130672 -0.018959895 -0.053877287 0.032467116 0.026720045 -0.10613662 -0.027063118 -0.02575046
-0.023654787 -0.031767316 0.016742239 0.00289567 -0.009585595 -0.0019065036 0.017653497 -0.048264407
-0.011968487 0.03387974 0.012039608 0.038484305 0.03401281 -0.04876256 0.030374264 0.07889187
-0.024837166 0.014077698 -0.07775427 0.007949461 0.0068244464 -0.021741534 0.008229342 -0.008423448
-0.040313322 -0.0536672 0.042929623 -0.0015372834 -0.038760997 -0.0023473208 -0.041515883 -0.043266453
0.03363118 0.003673554 -0.0060501085 0.01725078 0.027093703 -0.0127204545 0.046766322 -0.026057454
-0.031219872 -0.04285003 0.023804413 0.02232531 0.013545841 0.03965896 -0.044635624 -0.023118503
0.039638713 -0.008148459 0.008970614 0.0610432 -0.05125898 0.025348531 -0.022045866 -0.018442458
0.018990539 0.03043402 -0.09210146 0.07197427 -0.012840597 -0.064552315 -0.030595778 0.07657198
-0.0052286317 -0.017918788 0.03151063 0.0048985104 -0.015757723 0.036396418 -0.030150427 -0.016472038
0.055474214 0.0085313395 0.04716433 0.06469222 -0.022027908 -0.04723855 0.0025471789 8.7243625e-06
0.039131206 -0.04160252 0.01914744 0.04432164 -0.0020892918 0.0034872864 -0.03967908 -0.012853346
-0.005819019 -0.010397971 0.035585467 -0.029181017 0.029470187 0.019564575 0.058875337 0.033155214
0.046061516 -0.04333977 -0.020788964 0.010694388 -0.020072453 0.012699255 0.04709547 0.026974805
-0.004888963 -0.015929772 0.011833462 0.0030596696 0.024158137 -0.02448341 -0.03240032 0.005490101
0.020374056 -0.03330274 0.022919698 0.010808138 0.033269525 -0.010811048 -0.036168605 0.032077227
0.016702408 0.0042443736 0.039202813 0.004840271 -0.064860046 -0.034362607 -0.017737389 -0.06297302
00000000: 4210 59bc e333 5a3b c954 e4bc 97d6 473d
00000010: 4460 2ebd 75ae 12bd ec3e bd3c 163c 16bd
00000020: d6b3 4fbc 9656 dfbb 5556 b63c 3598 983d
00000030: d57f 2ebd cbf4 323d bbbe 3bbd 3863 87bd
00000040: 2ea4 adbc 6ee5 403c f0a6 4bbd ca3f 25bd
00000050: 702e ccbc 437d 0b3c 1e45 583d 8c6a 923c
00000060: 04ac 2c3c 3a0f 22bd 5dce b63c 5656 7fbc
00000070: 29bc 1f3d 8f37 c83c 80d0 6cbd dd68 9f3c
00000080: 5803 033d 62b7 5abc 7cc2 33bc 1eff 243a
00000090: c371 eebb 27b9 d43c 237e cabc 3ab0 65bc
000000a0: 8b77 0e3d 6687 a13b 7ed6 1fbd 8515 3cbd
000000b0: a14a 1b3d 0cec e23b 70b6 47bd 6c09 073d
000000c0: 85af 0f3d 8efd 10bd 96e8 243d 9f12 86bc
000000d0: da2c 23bd 5c58 8e3d 6904 91ba dfa7 87bd
000000e0: 7712 083c 8cf0 11bc da04 803d 99d7 3c3c
000000f0: a094 e5bc 73b3 75bb 62ae 82bd d7dd 0d3c
00000100: 4164 073d 0be6 9a3c a155 3dbd f76d 42bb
00000110: 4fb0 383c e3ed 20bd c5e3 743c 1dfb 08bc
00000120: f818 af3c 2cf1 75bd 7ff5 123d d650 7ebd
00000130: bd2b 013d 1339 22bd 52f5 a23c 533b 26bd
00000140: 785d a6bc 877a 35bc 8f33 27bd f033 2cbc
00000150: 6b04 d03c 94b1 c83c d807 d4bc f071 173c
00000160: 2535 99bd 92f1 ed3c 44ef 04bd baaf d43b
00000170: 860d 17bc 02c6 16bd 42e1 733c 05bd ff3c
00000180: 34ae 773c c995 573d 2c70 ae3c e8c3 13bd
00000190: ab57 87bc 67ea 953c 54e6 cdbb 05c2 40bc
000001a0: e937 b13c b2f1 cb3c 18ef 703c b3f4 5ebb
000001b0: d4bb 54bd 64ee 2e3d 1a7b a43b 2f42 1e3d
000001c0: f440 ec3c 5c9b 013c d5aa 3f3d 97b8 42bc
000001d0: c544 1abd 7d5f 00bb fba9 29bc d0bd fbb9
000001e0: 5516 183d c851 9bbc 6eae 5cbd 3dfc 043d
000001f0: ffe3 da3c 285e d9bd 79b3 ddbc a1f2 d2bc
00000200: afc7 c1bc 721e 02bd 0527 893c 48c5 3d3b
00000210: e60c 1dbc a5e3 f9ba 119e 903c e6b0 45bd
00000220: 7917 44bc 7bc5 0a3d c741 453c b8a1 1d3d
00000230: 0451 0b3d 40bb 47bd 73d3 f83c 1092 a13d
00000240: 5077 cbbc 25a6 663c a13d 9fbd 753e 023c
00000250: 9b9f df3b 4d1b b2bc 5dd4 063c 8002 0abc
00000260: 951f 25bd 23d2 5bbd f9d6 2f3d ac7e c9ba
00000270: dac3 1ebd 82d5 19bb 8f0c 2abd 2a38 31bd
00000280: d9c0 093d 02c0 703b fd3f c6bb 8251 8d3c
00000290: 9df3 dd3c 7469 50bc 0b8e 3f3d 7176 d5bc
000002a0: d1c0 ffbc 8383 2fbd 7901 c33c 92e3 b63c
000002b0: 60ef 5d3c 6f71 223d d8d3 36bd 0463 bdbc
000002c0: 345c 223d 1d81 05bc 7bf9 123c 6f08 7a3d
000002d0: f0f4 51bd b9a7 cf3c 8899 b4bc a314 97bc
000002e0: 0c92 9b3c c450 f93c b19f bcbd 3f67 933d
000002f0: 5e61 52bc 0134 84bd ffa3 fabc c5d1 9c3d
00000300: f154 abbb 6cca 92bc 4a11 013d af83 a03b
00000310: 5716 81bc 6914 153d 07fe f6bc 5ef0 86bc
00000320: ee38 633d 08c7 0b3c 622f 413d 5b7d 843d
00000330: df73 b4bc 367d 41bd 92ee 263b da5e 1237
00000340: 0b48 203d 6767 2abd 18db 9c3c 9c8a 353d
00000350: 80ec 08bb f58a 643b 8886 22bd d796 52bc
00000360: 78ad bebb 405c 2abc 11c2 113d 070d efbc
00000370: 766b f13c e345 a03c 4427 713d c3cd 073d
00000380: 00ab 3c3d 0b85 31bd 9e4d aabc 8437 2f3c
00000390: fc6e a4bc 8910 503c 2ee7 403d 44fa dc3c
000003a0: 9833 a0bb 277f 82bc 23e1 413c bd84 483b
000003b0: 49e7 c53c 6f91 c8bc 33b6 04bd 4ee6 b33b
000003c0: 7ee7 a63c 7468 08bd 17c2 bb3c 9e14 313c
000003d0: a045 083d d220 31bc 8825 14bd 6963 033d
000003e0: 7dd3 883c 6314 8b3b 2193 203d 239b 9e3b
000003f0: 58d5 84bd cebf 0cbd 004e 91bc 00f8 80bd

bias f4 [64]
-0.041896813 -0.01306756 -0.059129883 -0.0014503197 0.035285633 0.014485761 -0.008496346 -0.0029964594
-0.049117837 -0.019587606 -0.0010904946 0.013861276 -0.05915583 -0.031233866 0.035743073 -0.004445069
0.060583442 0.009709288 0.019378655 -0.026823878 -0.034070436 -0.036018174 -0.047317207 -0.037286777
0.004798571 -0.03519769 -0.028108552 -0.005924826 -0.06059961 -0.031659883 -0.051116966 0.028307104
-0.05583754 -0.025395159 -0.02356473 -0.06242691 -0.032857776 -0.034753874 -0.035535686 -0.065048784
0.0013830153 -0.013882975 -0.007742358 -0.06940966 -0.01978744 -0.036974393 -0.001063216 0.000856098
0.0045298357 -0.015714021 -0.027625598 0.0041949344 0.010740541 -0.024574868 0.02663793 -6.9340575e-05
-0.060850628 0.002750554 0.041442346 -0.014624939 -0.04393328 -0.023651922 -0.02908911 -0.009917949
00000000: fe9b 2bbd 5219 56bc 2d32 72bd a718 beba
00000010: ab87 103d af55 6d3c 4234 0bbc 3f60 44bb
00000020: c92f 49bd 3076 a0bc edee 8eba 681a 633c
00000030: 624d 72bd 2ade ffbc 5467 123d f1a7 91bb
00000040: 5826 783d b513 1f3c fcbf 9e3c c0bd dbbc
00000050: 718d 0bbd cb87 13bd b0cf 41bd 05ba 18bd
00000060: 553d 9d3b 742b 10bd e843 e6bc 0b25 c2bb
00000070: 4c37 78bd cbad 01bd 0660 51bd 4de4 e73c
00000080: e8b5 64bd 8209 d0bc d20a c1bc 5cb3 7fbd
00000090: e095 06bd 145a 0ebd de8d 11bd 4c38 85bd
000000a0: 4b46 b53a 6b75 63bc 9bb3 fdbb a726 8ebd
000000b0: 4519 a2bc 7672 17bd 9c5b 8bba c46b 603a
000000c0: 046f 943b b1ba 80bc 144f e2bc a975 893b
000000d0: 18f9 2f3c 3c51 c9bc ca37 da3c f06a 91b8
000000e0: 823e 79bd a342 343b 73bf 293d 719d 6fbc
000000f0: 62f3 33bd adc1 c1bc 494c eebc e57e 22bc

weight f4 [4, 3136]
-0.01680976 -0.026182763 -0.034405734 -0.010207175 0.021346131 -0.010266291 -0.04067779 -0.018047204
-0.0072805365 -0.013370068 -0.0035667105 -0.0008719136 -0.007962648 0.008394749 -0.024305547 -0.0045273053
0.015231584 0.01058151 0.035190664 0.021076258 0.039228804 -0.023755137 0.026260844 0.035103034
-0.003130684 0.033597555 0.017384876 0.040105402 0.019921266 0.02101222 -0.022092367 -0.02181442
-0.00056265 0.031910755 -0.003325327 0.0066228188 -0.007595495 -0.039211996 0.0057078637 -0.012691149
-0.020945605 0.027867626 0.012489916 -0.0071909465 0.0133296 -0.03916497 -0.03655302 0.046580244
-0.01799282 0.024472028 -0.003433162 0.024516799 -0.0069210823 0.011937071 0.023430465 0.004153283
-0.0047957604 0.0154639585 -0.00652419 -0.021847844 -0.016917752 -0.019693943 0.00975754 -0.018147795
0.0026435913 -0.01123902 0.018746868 0.0025919108 -0.0053251437 0.013852585 0.06342638 0.0107089
0.032044236 0.018981414 0.020850005 -0.026603755 0.050806575 -0.019077946 0.07356239 0.08169469
0.05340788 -0.0031351135 0.049851898 0.14328615 0.064372465 0.06801296 0.011474442 0.044571355
-0.022625517 0.029568369 0.090424 -0.033318076 0.00762367 0.008959026 0.01338642 0.04632285
0.018233098 0.03227424 -0.0146189155 -0.009319573 0.001669265 -0.011874009 0.009129546 -0.0072349613
0.01148464 -0.0048478963 -0.011436198 -0.0058645364 -0.0003077846 0.005266893 0.0005846732 0.0053715208
-0.009588994 0.006457408 0.041389067 0.01431252 0.004163872 -0.024753505 0.06601588 -0.00086363754
-0.016749814 0.06432974 0.030300625 0.05353638 0.018116007 0.05963987 0.097313635 -0.022407971
0.0015208795 0.033147447 0.015076576 -0.0031353068 0.07605212 -0.04040723 0.114731885 0.013593104
-0.05528171 -0.012854802 0.049946837 0.07071155 0.043634623 -0.016080653 0.03560835 -0.021183483
0.022356994 -0.049677078 0.052037995 0.014162158 -0.011651406 -0.0058754063 0.009471353 -0.011718354
-0.036605608 -0.02342167 -0.0012158868 0.0047852998 0.0035753066 0.027945258 -0.011617579 0.026610354
0.021116924 0.02165006 -0.011226804 0.020206109 0.043045487 0.022178307 0.027592037 0.0120480545
0.025414184 -0.010017592 0.020347208 -0.008135555 -0.0037350315 -0.013774451 0.043328997 0.032670826
-0.0186217 0.013324443 0.018134635 0.03334463 -0.032972146 0.0011555619 -0.0108873695 0.027003257
-0.0012299648 0.025453888 0.0033594242 0.0019264935 0.00055288477 -0.060138322 0.005963012 0.00748534
-0.005513547 -0.030033002 -0.0353907 -0.08555959 0.0039430214 0.0035542913 -0.0016761381 -0.018099504
0.00941546 -0.00918346 -0.0020333608 0.021819612 0.039046325 0.0013271808 0.012560193 0.02714611
-0.004706549 0.047158014 0.0025401658 0.020688012 -0.026546003 -0.023271559 -0.03188611 -0.019619718
-0.0377553 -0.008340269 0.004885897 0.020915069 0.013907012 0.021009702 -0.0062831235 0.0139676295
0.0036098207 0.004872651 0.039913062 0.0087772105 -0.012616914 -0.022566104 0.014423713 0.0020117105
-0.0050388398 -0.04210635 0.004797068 0.006368764 0.037147146 0.013328081 -0.00579856 -0.01267473
-0.00905056 0.032372773 4.7178633e-05 0.005337245 -0.008690169 -0.00022064426 0.019445045 -0.012916207
-0.007715774 0.0007276326 0.022733029 0.009160894 -0.011296132 -0.014410009 -0.01537036 0.021338867
00000000: 9fb4 89bc 3c7d d6bc 07ed 0cbd ff3b 27bc
00000010: 15de ae3c f233 28bc c19d 26bd bbd7 93bc
00000020: 9191 eebb 210e 5bbc 79bf 69bb 2291 64ba
00000030: c475 02bc 218a 093c 6d1c c7bc ca59 94bb
00000040: e58d 793c 125e 2d3c 1624 103d 1ea8 ac3c
00000050: 62ae 203d 229a c2bc fb20 d73c 33c8 0f3d
00000060: 292c 4dbb 979d 093d ba6a 8e3c 9045 243d
00000070: ec31 a33c d221 ac3c 0dfb b4bc 28b4 b2bc
00000080: cd7e 13ba dab4 023d bbed 59bb 3b04 d93b
00000090: a1e3 f8bb c29c 20bd 0809 bb3b 89ee 4fbc
000000a0: 1e96 abbc a64a e43c 81a2 4c3c 08a2 ebbb
000000b0: 6564 5a3c 736b 20bd 9fb8 15bd edca 3e3d
000000c0: ae65 93bc 9079 c83c e7fe 60bb 74d7 c83c
000000d0: 3fca e2bb b493 433c 3ff1 bf3c 4318 883b
000000e0: c125 9dbb 8b5c 7d3c dfc8 d5bb 40fa b2bc
000000f0: 1997 8abc 3155 a1bc 17de 1f3c afaa 94bc
00000100: 1a40 2d3b de23 38bc 0893 993c 0cdd 293b
00000110: 8b7e aebb f4f5 623c b1e5 813d 6274 2f3c
00000120: d140 033d e97e 9b3c a1cd aa3c 1ef0 d9bc
00000130: 8e1a 503d 5a49 9cbc e1a7 963d 8c4f a73d
00000140: 39c2 5a3d 7a76 4dbb 8131 4c3d 9bb9 123e
00000150: b6d5 833d 614a 8b3d 4cff 3b3c 7490 363d
00000160: 2659 b9bc 5d39 f23c 3830 b93d 8978 08bd
00000170: fbcf f93b e1c8 123c b752 5b3c 07bd 3d3d
00000180: 945d 953c fe31 043d 2d84 6fbc 1fb1 18bc
00000190: 3dcb da3a 348b 42bc 1794 153c 4113 edbb
000001a0: 122a 3c3c 1adb 9ebb e45e 3bbc 4c2b c0bb
000001b0: 265e a1b9 e795 ac3b c144 193a 9503 b03b
000001c0: 281b 1dbc aa98 d33b 9587 293d 0f7f 6a3c
000001d0: 1771 883b ddc7 cabc 5533 873d bc65 62ba
000001e0: e836 89bc 50bf 833d 0439 f83c f748 5b3d
000001f0: 0568 943c f048 743d 5f4c c73d ec90 b7bc
00000200: 3f58 c73a 9ec5 073d be03 773c b879 4dbb
00000210: 37c1 9b3d 0d82 25bd 8df8 ea3d 9cb5 5e3c
00000220: 136f 62bd f39c 52bc 0e95 4c3d 38d1 903d
00000230: 38ba 323d 93bb 83bc 10da 113d fc88 adbc
00000240: 0426 b73c 317a 4bbd cb25 553d 6508 683c
00000250: 8ae5 3ebc 7b86 c0bb bc2d 1b3c 57fe 3fbc
00000260: c3ef 15bd cdde bfbc 645e 9fba 01ce 9c3b
00000270: b14f 6a3b 74ed e43c a857 3ebc f5fd d93c
00000280: 66fd ac3c 775b b13c a1f0 37bc 4887 a53c
00000290: 7750 303d 48af b53c b208 e23c 3465 453c
000002a0: 6831 d03c d420 24bc 30af a63c fe4a 05bc
000002b0: 6ec7 74bb 3cae 61bc bf79 313d d8d1 053d
000002c0: 898c 98bc c44e 5a3c 168f 943c 6194 083d
000002d0: cd0d 07bd 3976 973a f060 32bc ef35 dd3c
000002e0: c536 a1ba ac84 d03c c929 5c3b 6582 fc3a
000002f0: 78ef 103a 9a53 76bd 5f65 c33b 9547 f53b
00000300: fcaa b4bb c507 f6bc d7f5 10bd de39 afbd
00000310: 7634 813b 1def 683b ddb1 dbba 6945 94bc
00000320: 4d43 1a3c 3976 16bc 2242 05bb 0bbf b23c
00000330: 0aef 1f3d ccf4 ad3a 45c9 4d3c 8561 de3c
00000340: 6539 9abb c328 413d e978 263b e879 a93c
00000350: 0177 d9bc ffa3 bebc 029b 02bd 88b9 a0bc
00000360: 4da5 1abd a0a5 08bc e019 a03b 1456 ab3c
00000370: 3cda 633c 8a1c ac3c a9e2 cdbb 7cd8 643c
00000380: be92 6c3b c2aa 9f3b e17b 233d 4ace 0f3c
00000390: 2cb7 4ebc 8ddc b8bc 7051 6c3c e7d6 033b
000003a0: da1c a5bb b577 2cbd b930 9d3b 11b1 d03b
000003b0: 9b27 183d 065e 5a3c d901 bebb aca9 4fbc
000003c0: cd48 14bc 5099 043d ace1 4538 0ee4 ae3b
000003d0: 3661 0ebc be5c 67b9 374b 9f3c 809e 53bc
000003e0: 9ad4 fcbb 99be 3e3a 9e3a ba3c 9317 163c
000003f0: 6913 39bc f517 6cbc f6d3 7bbc d9ce ae3c

bias f4 [4]
0.00899839 0.013750605 -0.008872053 0.026313456
00000000: fc6d 133c 384a 613c 165c 11bc 518f d73c

weight f4 [1, 3136]
-0.0063612103 0.0029542039 0.0018907437 -0.00022456866 0.0014546294 -0.0041249744 -0.0047577885 -0.0049291556
-0.0094605265 0.0015863787 -0.0026718152 0.01752995 -0.0057886555 0.0050978623 0.0010806533 -0.00077625207
0.00037387622 0.00029740357 -0.00096187915 -5.986851e-05 0.0005828881 0.0012137665 0.0011084196 0.002110026
0.00079805445 0.00019561975 0.00012928176 0.0003341579 0.00046808476 -0.00012234977 0.00032748474 -0.00019375805
0.00038076058 -0.000103902064 0.000261302 -0.00040504817 0.00023821127 -6.4633314e-05 -5.3406235e-05 -0.00035381308
0.0005052072 -0.00044864631 -2.224862e-05 -1.0713927e-06 -0.00046157747 -0.0002392606 -0.0003997049 0.000374789
-0.00070485147 0.010720241 0.010432917 0.0027210189 0.003876837 -0.002488791 0.00043587995 -0.0064861802
-0.0065631117 0.0025323404 -0.004855451 -0.009008202 0.0035100584 0.0036322484 -0.011326409 -0.0025661727
0.0014223901 -0.001554792 0.0005901727 0.0015885085 0.0021685262 0.0043904902 -0.00040189005 0.00015802361
0.0008737232 -0.00026963852 -0.0005741097 0.0002701116 -0.0005398961 9.793434e-05 -0.00011254529 0.00018881037
0.0005390815 0.0001974785 0.00037282569 7.255067e-05 -0.00021919202 0.00033022626 -0.00014777789 4.6591147e-05
0.00013536347 4.0502757e-05 0.00015503017 0.00057953084 -0.00011443798 -0.00030643574 -0.00014867395 0.00024341194
-3.1170726e-05 0.00033099402 0.0022812833 -0.0233683 -0.011415739 0.00543125 -0.0064615207 -0.0028028057
0.00027538507 -0.013388447 -0.0016723819 -0.01664185 0.008392814 -0.002301327 -0.0007593368 -0.00046764972
-0.0015179621 -0.0007628438 0.001697122 0.000403541 0.0014445429 0.0021396342 0.0013556088 0.00032798047
0.0001754631 -6.284279e-05 0.0008197298 0.0002817168 0.0001582312 -0.00019027914 3.179783e-05 0.00081125443
-3.850421e-05 0.00021727612 -0.00047562938 7.740335e-05 6.5056665e-05 -0.00042014793 0.00020965387 0.00014777675
-9.593238e-05 -0.0001168195 0.00017690686 0.0004361548 0.00024180874 0.0002537806 0.00024109778 0.00018518067
-0.00018925121 0.00026798373 0.0007536792 0.012506047 0.012175855 -0.003565218 0.00038050432 -0.003801083
0.0035957785 -0.0019638273 -0.00211374 0.001006921 -0.00073252013 3.212979e-05 -0.0033795948 0.0012341794
-0.00029462777 0.00083269883 -0.0021283643 -0.00014179052 7.995638e-05 -0.0013999811 -0.00014426491 -0.0009213517
-0.00033354582 0.0001114506 9.9294404e-05 -0.0002062754 0.00016256381 0.00023173846 0.0010052848 -4.7152582e-05
-0.00048417188 -0.00035898207 -0.00022696893 -0.00054952805 -8.3479485e-05 -0.00022028225 -0.00014029982 -0.00038096512
-9.967834e-05 6.0766237e-05 -0.000114543946 -0.00014375296 9.040675e-05 0.00018484237 -0.00056698784 -0.00018625372
-0.00024643596 -0.00016992568 -0.00044589178 -5.044978e-05 0.030203158 0.031440735 0.017644404 0.023863373
0.027860621 0.028309686 0.031494513 0.004550574 0.0037515827 0.0006369986 0.0033263282 0.0025266022
0.003073825 0.004338026 -0.0014816545 -0.001551335 -0.00080464786 -8.5717424e-05 -0.0026632603 -0.0033222188
-0.0003232423 -0.0013253323 0.0005284721 0.00071226846 -0.000103506245 0.00096208445 0.0016116775 0.00015253542
-0.0002947978 -0.0010332854 -0.0011131822 -0.0004480572 0.00020444872 -0.0017243079 0.006239563 -8.317482e-05
-0.00060451106 0.00063249865 -0.0003778389 -0.0010894317 9.831301e-06 0.00723772 4.2778633e-05 -0.0004701553
-0.00028505496 2.8585344e-05 -0.00041578908 -0.00048677708 0.0017766443 0.0029314144 0.0020485027 -0.008053539
-0.005186225 -0.012722692 0.0041967756 -5.855321e-05 -0.007842217 -0.017198466 -0.0012416354 0.00360861
00000000: b371 d0bb 519b 413b d5d2 f73a 317a 6bb9
00000010: 43a9 be3a cb2a 87bb 39e7 9bbb c184 a1bb
00000020: 5300 1bbc 09ee cf3a 9f19 2fbb f89a 8f3c
00000030: c3ae bdbb f80b a73b b5a4 8d3a 657d 4bba
00000040: d104 c439 d5ec 9b39 9e26 7cba 531b 7bb8
00000050: f5cc 183a 3f17 9f3a 6448 913a 5d48 0a3b
00000060: 8734 513a 471f 4d39 cf8f 0739 ea31 af39
00000070: 4669 f539 044b 00b9 42b2 ab39 882b 4bb9
00000080: d2a0 c739 ffe5 d9b8 5cff 8839 a55c d4b9
00000090: 5ac8 7939 bf8b 87b8 8200 60b8 fd7f b9b9
000000a0: e26f 043a 4a38 ebb9 8ca2 bab7 c6cc 8fb5
000000b0: e1ff f1b9 07e2 7ab9 7c8f d1b9 547f c439
000000c0: c8c5 38ba f3a3 2f3c d3ee 2a3c 1f53 323b
000000d0: 8812 7e3b fc1a 23bb d186 e439 068a d4bb
000000e0: 5f0f d7bb 9ff5 253b 7a1a 9fbb 2397 13bc
000000f0: 0209 663b 040b 6e3b 6792 39bc 3c2d 28bb
00000100: 7e6f ba3a 2aca cbba d2b5 1a3a 8035 d03a
00000110: d51d 0e3b 1ade 8f3b c5b4 d2b9 24b3 2539
00000120: 920a 653a 455e 8db9 da7f 16ba c49d 8d39
00000130: d087 0dba 1962 cd38 4b06 ecb8 66fb 4539
00000140: 2651 0d3a 3b12 4f39 d177 c339 5826 9838
00000150: e9d6 65b9 3822 ad39 d3f4 1ab9 dd6a 4338
00000160: 5bf0 0d39 81e1 2938 988f 2239 a8eb 173a
00000170: 6cfe efb8 1ca9 a0b9 5ce5 1bb9 653c 7f39
00000180: 50bd 02b8 4489 ad39 9581 153b e16e bfbc
00000190: 1409 3bbc a1f8 b13b 2abb d3bb 47af 37bb
000001a0: 8f61 9039 385b 5bbc d333 dbba 7d54 88bc
000001b0: 0382 093c dcd1 16bb 3b0e 47ba e22e f5b9
000001c0: 5bf6 c6ba 95f9 47ba f771 de3a 5b92 d339
000001d0: d156 bd3a 1b39 0c3b afae b13a cbf4 ab39
000001e0: 84fc 3739 77ca 83b8 23e3 563a 64b3 9339
000001f0: ddea 2539 ab85 47b9 a95e 0538 5daa 543a
00000200: 957f 21b8 9dd4 6339 e55d f9b9 9b53 a238
00000210: 086f 8838 4d47 dcb9 88d6 5b39 85f4 1a39
00000220: 4e2f c9b8 fefc f4b8 1380 3939 b5ab e439
00000230: 0a8e 7d39 db0d 8539 31cf 7c39 0f2d 4239
00000240: bc71 46b9 2b80 8c39 8e92 453a 2ae6 4c3c
00000250: 3d7d 473c 6fa6 69bb 6d7e c739 971b 79bb
00000260: 27a7 6b3b 8eb3 00bb ac86 0abb aafa 833a
00000270: 9806 40ba 19c3 0638 317c 5dbb 30c4 a13a
00000280: 4578 9ab9 7949 5a3a 077c 0bbb 9aad 14b9
00000290: 41ae a738 927f b7ba d145 17b9 de86 71ba
000002a0: c3df aeb9 96ba e938 473c d038 a24b 58b9
000002b0: e475 2a39 d2fe 7239 c3c3 833a b3c5 45b8
000002c0: 73d8 fdb9 c235 bcb9 82fe 6db9 340e 10ba
000002d0: b511 afb8 91fb 66b9 721d 13b9 46bc c7b9
000002e0: 670a d1b8 40df 7e38 5037 f0b8 64bc 16b9
000002f0: c198 bd38 3fd2 4139 e9a1 14ba 1a4d 43b9
00000300: 1334 81b9 142e 32b9 95c6 e9b9 0a9a 53b8
00000310: 9d6c f73c 00c8 003d ff8a 903c 1f7d c33c
00000320: f53b e43c b7e9 e73c 6400 013d fb1c 953b
00000330: 1ddd 753b 41fc 263a 87fe 593b 5a95 253b
00000340: 3a72 493b 0026 8e3b 1334 c2ba 2a56 cbba
00000350: 01ef 52ba 31c3 b3b8 188a 2ebb 95b9 59bb
00000360: d978 a9b9 c6b6 adba 2a89 0a3a 87b7 3a3a
00000370: 7e11 d9b8 6534 7c3a ec3e d33a eaf1 1f39
00000380: 178f 9ab9 4e6f 87ba 32e8 91ba 38e9 eab9
00000390: 4961 5639 2c02 e2ba 4075 cc3b 246e aeb8
000003a0: 0d78 1eba 44ce 253a ae18 c6b9 43cb 8eba
000003b0: 1ef1 2437 652a ed3b 356d 3338 2d7f f6b9
000003c0: 6e73 95b9 8fca ef37 44fe d9b9 1d36 ffb9
000003d0: 4ade e83a f91c 403b 2c40 063b fef2 03bc
000003e0: 35f1 a9bb d772 50bc 1b85 893b 0897 75b8
000003f0: a47c 00bc cce3 8cbc 5fbe a2ba 6e7e 6c3b
