PPO/Breakout/FINAL.BreakoutNoFrameskip-v4.MODEL (torch_old, 392766 bytes, 9 tensors)

weight f4 [32, 4, 8, 8]
-0.013929512 0.0004687456 -0.03083353 0.053691354 0.02542893 0.015083305 -0.007672527 -0.0021410922
0.05496901 -0.03474896 0.002515582 0.036910556 -0.05298871 -0.016421983 -0.009572869 -0.048757106
-0.016851375 -0.04671125 0.049416333 0.015830887 0.05075514 0.06913845 0.005908196 -0.030070717
-0.087326035 -0.036763307 0.027084801 0.0617931 -0.07101892 -0.08387312 0.004919828 -0.08783532
-0.015982425 0.036794174 0.0122502595 0.054013982 -0.061632045 -0.05236366 0.0077579888 -0.0728519
-0.026070237 -0.06259273 -0.04515823 0.00091871846 0.09208496 0.06315483 0.05211557 -0.012214615
-0.04606572 0.018329127 -0.00035733916 0.11243971 0.054711863 0.033950146 0.08282478 -0.0104719
-0.047669604 -0.0071286405 0.035500765 0.05775263 -0.0025021217 0.046850972 0.0056541045 0.05474678
0.06291496 -0.05737945 -0.0693319 0.044409256 0.016816407 -0.011283935 0.0012138889 0.0075334813
-0.05405946 -0.059247363 -0.030245004 -0.04959559 0.0057621286 -0.025297455 -0.047305204 -0.0002752144
-0.005721833 0.017776296 0.043433543 -0.040144295 -0.026627665 -0.056907594 0.013408246 -0.046781078
-0.008789699 -0.005955751 0.13026725 0.11093753 0.008684822 -0.052659336 0.053697716 -0.032126136
-0.026793942 -0.015583868 0.03378827 -0.0023136092 0.013749873 -0.047967244 0.018105762 -0.062413193
0.10442792 0.067296594 0.07462595 -0.018872935 0.014276307 -0.033265755 -0.036381494 0.037068196
0.07402335 -0.077306435 -0.026835725 -0.03553672 0.0035509781 0.07822045 -0.004476075 -0.019263323
0.03621627 0.014157876 -0.00033647372 0.028241748 0.023593083 -0.038640626 0.048085958 0.021460643
-0.053713445 -0.0117071755 0.057995755 -0.015441029 0.033054125 -0.050535426 0.012360943 0.021213412
-0.013413553 -0.029659227 0.030261014 0.04839954 -0.020533271 0.022250196 -0.012258779 0.011795833
0.051888622 0.022844205 -0.003243175 0.06744888 -0.016766615 0.060942527 0.031507224 -0.054982968
-0.09116491 0.052444715 -0.048967134 0.07820394 0.023362996 -0.03154695 0.016598856 -0.07143821
-0.009147769 0.030446436 0.03059831 -0.0067487187 -0.034403246 -0.018960303 -0.08022201 -0.039802376
0.005194529 -0.078580745 -0.035953425 -0.05150554 -0.020674562 -0.010047493 0.02259505 0.0510377
-0.015012968 -0.030540895 -0.042818587 -0.117946915 -0.042905986 0.035691604 0.047022425 0.02692312
0.026209187 -0.009465892 0.06292962 0.023882065 -0.0020958034 0.010475347 -0.017809095 -0.037360612
-0.036321606 -0.05512737 0.010131913 0.03819239 0.036607314 -0.040472057 -0.036028072 0.023540054
0.02799154 -0.031321466 -0.0006725526 -0.017023016 0.059088737 0.068920866 0.011774311 -0.0580158
0.016723907 -0.049396608 -0.054505732 -0.07885091 0.036188673 0.04853206 -0.053947866 0.012851412
0.02533229 0.0009447651 0.005468531 0.01896021 0.005336011 -0.06655681 0.021654928 -0.105621606
0.054606058 -0.047159344 0.016271558 -0.0058032633 -0.07376546 -0.08008141 -0.03445234 -0.012518926
-0.035923608 -0.03248718 -0.05431669 -0.0025756075 0.051445864 -0.002583844 -0.10118815 -0.012127306
0.02105788 -0.06175837 -0.047314066 -0.044595394 -0.015719967 -0.0008242807 -0.015851697 -0.095357
-0.074245065 -0.028704321 -0.028270459 -0.102589995 0.0019295289 -0.013879919 0.026077952 -0.08420117
00000000: 9c38 64bc f8c1 f539 9996 fcbc 77eb 5b3d
00000010: 5550 d03c f71f 773c d269 fbbb 9151 0cbb
00000020: 2f27 613d ed54 0ebd 76dc 243b 862f 173d
00000030: b10a 59bd 6587 86bc 86d7 1cbc 88b5 47bd
00000040: e50b 8abc 4c54 3fbd c868 4a3d c7af 813c
00000050: 9fe4 4f3d 7698 8d3d 8a99 c13b dd56 f6bc
00000060: fed7 b2bd 1f95 16bd f2e0 dd3c c31a 7d3d
00000070: 5e72 91bd acc5 abbd 8236 a13b 01e3 b3bd
00000080: 93ed 82bc 7db5 163d 50b5 483c c43d 5d3d
00000090: e271 7cbd 477b 56bd ba36 fe3b 6033 95bd
000000a0: 4091 d5bc 9e30 80bd d6f7 38bd 27d6 703a
000000b0: 0a97 bc3d 5257 813d 2377 553d cf1f 48bc
000000c0: 69af 3cbd f726 963c 4059 bbb9 ca46 e63d
000000d0: 8c19 603d 4f0f 0b3d 0aa0 a93d 5592 2bbc
000000e0: 3441 43bd 5f97 e9bb 4069 113d 068e 6c3d
000000f0: a3fa 23bb cee6 3f3d 1146 b93b 293e 603d
00000100: 8fd9 803d b706 6bbd e2fd 8dbd 7be6 353d
00000110: 90c2 893c 41e0 38bc 5a1b 9f3a 6cdb f63b
00000120: 746d 5dbd 5dad 72bd 5fc4 f7bc bf24 4bbd
00000130: 3dd0 bc3b 9c3c cfbc 1ac3 41bd a74a 90b9
00000140: 377e bbbb 989f 913c 5fe7 313d 586e 24bd
00000150: 4322 dabc f017 69bd 43ae 5b3c 849d 3fbd
00000160: ab02 10bc 7628 c3bb c764 053e 3733 e33d
00000170: c94a 0e3c 51b1 57bd 23f2 5b3d b296 03bd
00000180: f87e dbbc 7b53 7fbc 9265 0a3d ec9f 17bb
00000190: 2647 613c 4d79 44bd 8952 943c faa4 7fbd
000001a0: 4ede d53d ccd2 893d 7dd5 983d 6a9b 9abc
000001b0: 2ce7 693c ac41 08bd c304 15bd d2d4 173d
000001c0: 8e99 973d d652 9ebd 98d6 dbbc f48e 11bd
000001d0: 87b7 683b 0b32 a03d 0aac 92bb 1ece 9dbc
000001e0: 8357 143d 70f6 673c bd68 b0b9 3d5b e73c
000001f0: 4846 c13c a245 1ebd c8f5 443d 3bce af3c
00000200: a102 5cbd 74cf 3fbc f58c 6d3d 5ffc 7cbc
00000210: c363 073d 3cfe 4ebd 8d85 4a3c c0c7 ad3c
00000220: 85c4 5bbc e8f7 f2bc f2e5 f73c 993e 463d
00000230: 6435 a8bc 0b46 b63c 0cd9 48bc 4f43 413c
00000240: 2a89 543d c523 bb3c 738b 54bb a322 8a3d
00000250: 245a 89bc df9e 793d b80d 013d d235 61bd
00000260: abb4 babd 45d0 563d c391 48bd 6329 a03d
00000270: c163 bf3c 6037 01bd 53fa 873c 324e 92bd
00000280: 86e0 15bc ce6a f93c 4fa9 fa3c 5b24 ddbb
00000290: 6bea 0cbd a352 9bbc 704b a4bd d107 23bd
000002a0: de36 aa3b f1ee a0bd e643 13bd 79f7 52bd
000002b0: b35d a9bc 3d9e 24bc 4119 b93c e80c 513d
000002c0: f4f8 75bc e630 fabc 8b62 2fbd 278e f1bd
000002d0: 30be 2fbd 5c31 123d 969a 403d e08d dc3c
000002e0: a6b4 d63c d416 1bbc 3fe1 803d 52a4 c33c
000002f0: bf59 09bb caa0 2b3c 61e4 91bc 7107 19bd
00000300: f7c5 14bd 3dcd 61bd 5300 263c a06f 1c3d
00000310: 8df1 153d 07c6 25bd 2c92 13bd 12d7 c03c
00000320: 844e e53c f04a 00bd 3e4e 30ba da73 8bbc
00000330: 0807 723d 6226 8d3d 0ae9 403c faa1 6dbd
00000340: 9300 893c 1954 4abd 6741 5fbd 967c a1bd
00000350: 933a 143d 8ec9 463d 70f8 5cbd bb8e 523c
00000360: aa85 cf3c 1daa 773a 5d31 b33b 7152 9b3c
00000370: b4d9 ae3b f04e 88bd ad65 b13c 2450 d8bd
00000380: 9aaa 5f3d 282a 41bd ee4b 853c 4d29 bebb
00000390: 5812 97bd b901 a4bd e61d 0dbd 2e1c 4dbc
000003a0: a224 13bd 4711 05bd 2d7b 5ebd 86cb 28bb
000003b0: e6b8 523d b555 29bb bc3b cfbd 9cb1 46bc
000003c0: 9381 ac3c 58f6 7cbd 65cc 41bd a9a9 36bd
000003d0: 29c7 80bc 8b14 58ba 6bdb 81bc 884a c3bd
000003e0: cc0d 98bd 5325 ebbc 7397 e7bc b41a d2bd
000003f0: 3fe8 fc3a 9a68 63bc 6ea1 d53c aa71 acbd

bias f4 [32]
0.035030615 -0.059685167 -0.08183935 0.021780761 -0.021074938 0.01491149 -0.010951674 0.009346509
0.006882433 0.0021043285 -0.021343678 0.10008507 0.06115474 0.09033333 -0.006848924 0.035118174
-0.046402853 -0.037452597 0.023620814 -0.01732457 0.015114794 -0.00022163062 0.03276858 -0.034281664
0.018514762 -0.014825033 -0.008790315 0.0050272634 -0.036546614 0.0142001305 0.011293196 0.011261631
00000000: 437c 0f3d 6f78 74bd 649b a7bd 916d b23c
00000010: 59a5 acbc 524f 743c a66e 33bc 1a22 193c
00000020: 0886 e13b c6e8 093b f0d8 aebc 67f9 cc3d
00000030: 657d 7a3d ae00 b93d f06c e0bb 13d8 0f3d
00000040: eb10 3ebd e567 19bd 7080 c13c 42ec 8dbc
00000050: 0aa4 773c 8465 68b9 5938 063d ee6a 0cbd
00000060: 45ac 973c b2e4 72bc 4105 10bc bebb a43b
00000070: e7b1 15bd aaa7 683c 1907 393c b482 383c

weight f4 [64, 32, 4, 4]
0.010667845 0.06139732 0.043127418 0.020075437 -0.011488921 0.06779615 -0.0019025808 0.011804992
0.06121574 -0.003461121 0.029122539 -0.038490083 0.033263385 0.011553605 -0.017597077 0.030518908
-0.0018234786 -0.0040829238 0.07489554 0.03718448 0.028801681 -0.035004627 -0.02426367 -0.011511218
0.034275703 -0.022099933 0.060406886 0.053399373 0.057118136 -0.02617149 0.058284387 -0.05613411
0.023743505 -0.0033435645 0.012949845 0.0037739018 -0.007953737 0.04613137 0.025814716 0.03997095
0.00048697772 -0.034610506 -0.07598407 -0.016004011 -0.028600795 0.030203996 -0.0052359723 -0.04208624
-0.024694223 -0.012599829 0.01658703 0.007086302 -0.028231721 -0.0029802008 -0.026352532 -0.035604607
0.060188133 -0.03156885 -0.0338109 0.01787491 0.0056632194 -0.00092900096 -0.024395175 0.054337244
-0.047642346 0.0084412815 -0.019675625 -0.017712787 -0.051799364 0.039598957 0.0105206575 0.019608997
0.00040899476 0.055198934 -0.034672067 -0.010867822 -0.022225732 0.009028278 -0.00875268 -0.008648537
-0.03194954 0.029342173 -0.013996626 0.0045948853 0.0031245567 -0.044335075 -0.0059200833 0.016773239
-0.0046824436 -0.022397682 0.0034003742 -0.03291172 0.05243171 0.030709393 0.018771326 -0.02530899
-0.009314286 0.01236717 -0.033724666 -0.051676214 -0.03294865 0.0384562 0.01731249 0.033303604
-0.028639266 -0.061316386 -0.019600973 0.016515458 -0.0027490163 -0.0565018 0.016306058 0.030547217
-0.013676752 0.0029375327 0.034481928 -0.013670063 0.06984299 -0.0008623326 0.025019672 0.003045159
0.020571351 0.03519436 -0.066519 -0.039111115 -0.026164718 -0.026833244 0.016478214 0.0262111
0.002307178 0.02314811 0.031057954 -0.05833788 0.06874379 -0.019554242 -0.021783836 0.02044846
0.022162821 0.05217193 0.03458452 -0.025094997 0.026512751 0.07105456 -0.056500107 0.040638782
0.025798539 0.04737617 -0.0014423676 -0.024715558 0.03461208 0.002832896 -0.01939061 -0.02898748
-0.05022368 -0.031450912 -0.0038397787 0.0068943314 -0.011065371 0.042471774 0.0040402287 -0.009658494
0.06495245 0.01949037 0.015689733 -0.054149017 -0.008019546 0.00065174577 0.028611317 0.004884352
0.016675835 -0.05423523 0.0037142606 -0.00021382183 -0.02870523 -0.0023827904 0.020769343 0.04040581
-0.051711086 0.04253354 -0.00062035694 -0.02045027 0.022208098 -0.0345027 -0.008611756 0.031495497
-0.074019626 0.09583407 0.0061631515 -0.051520463 0.058219936 -0.036268238 -0.022263397 -0.020968607
0.04927898 0.01908014 -0.00089016714 0.024841504 -0.048480604 0.055357613 -0.014856646 -0.057402704
-0.049250588 -0.08976174 -0.0070132827 0.005656393 -0.018232094 -0.023075588 -0.063072786 -0.012603906
0.03699414 0.0889577 0.0006108429 -0.017656535 -0.011540597 0.027022284 -0.016959144 0.035755124
0.015929561 -0.029203922 -0.012554087 0.021761449 -0.044152904 -0.029475426 -0.04054606 -0.037625182
-0.02746752 0.007094005 -0.038808193 0.0036141044 0.0394035 -0.09275721 -0.07528189 -0.061368383
0.029556772 0.0030084061 -0.03611556 -0.03927497 0.00080436846 0.026728177 -0.035525706 0.0014938124
-0.026220186 0.04654706 0.083734155 0.01578953 0.013076762 0.055259593 -0.018897984 -0.053915147
-0.021157134 0.065312155 0.026513029 -0.019188784 0.021897702 0.015342391 0.0021864008 0.02117349
00000000: 2fc8 2e3c c27b 7b3d 60a6 303d 3e75 a43c
00000010: 073c 3cbc b5d8 8a3d 0560 f9ba ba69 413c
00000020: 5bbd 7a3d fad3 62bb 6492 ee3c c7a7 1dbd
00000030: 303f 083d 554b 3d3c bf27 90bc ca02 fa3c
00000040: ca01 efba 0cca 85bb d562 993d c14e 183d
00000050: 81f1 eb3c 0361 0fbd 9bc4 c6bc 8c99 3cbc
00000060: ae64 0c3d eb0a b5bc 366d 773d 4db9 5a3d
00000070: b5f4 693d 9865 d6bc 9cbb 6e3d e1ec 65bd
00000080: bd81 c23c b41f 5bbb 962b 543c 9153 773b
00000090: 6450 02bc 3ff4 3c3d 6279 d33c 94b8 233d
000000a0: 0b51 ff39 bfc3 0dbd 899d 9bbd d81a 83bc
000000b0: 374c eabc 5f6e f73c 8592 abbb 9f62 2cbd
000000c0: 8a4b cabc 836f 4ebc 86e1 873c 3634 e83b
000000d0: 3646 e7bc 794f 43bb 44e1 d7bc 23d6 11bd
000000e0: d587 763d 574e 01bd 4c7d 0abd 676e 923c
000000f0: 8792 b93b 3388 73ba 64d8 c7bc bb90 5e3d
00000100: 9f24 43bd 4d4d 0a3c c72e a1bc 681a 91bc
00000110: 922b 54bd 8432 223d d65e 2c3c 0ca3 a03c
00000120: 596e d639 4718 623d 4c04 0ebd f30e 32bc
00000130: bd12 b6bc 58eb 133c 6767 0fbc 98b2 0dbc
00000140: 85dd 02bd ff5e f03c 1b52 65bc b190 963b
00000150: 5dc5 4c3b b298 35bd 42fd c1bb 0868 893c
00000160: 2f6f 99bb 587b b7bc d0d8 5e3b 71ce 06bd
00000170: a2c2 563d 4492 fb3c 53c6 993c cd54 cfbc
00000180: f29a 18bc ac9f 4a3c e022 0abd 70aa 53bd
00000190: 2af5 06bd 4084 1d3d ecd2 8d3c 5c69 083d
000001a0: e59c eabc e426 7bbd 3892 a0bc 6d4b 873c
000001b0: d728 34bb 6e6e 67bd 4894 853c 283e fa3c
000001c0: 7514 60bc 9f83 403b ec3c 0d3d 66f8 5fbc
000001d0: d709 8f3d 290e 62ba 0ef6 cc3c 4a91 473b
000001e0: 4085 a83c f627 103d 1d3b 88bd fa32 20bd
000001f0: 6457 d6bc 64d1 dbbc 52fd 863c a9b8 d63c
00000200: 0634 173b 1ba1 bd3c 406d fe3c b3f3 6ebd
00000210: 8bc9 8c3d 3830 a0bc 0474 b2bc 8783 a73c
00000220: ce8e b53c 3cb2 553d 7fa8 0d3d 0694 cdbc
00000230: 4531 d93c 0e85 913d a86c 67bd da74 263d
00000240: 7557 d33c 840d 423d d30d bdba 4878 cabc
00000250: 65c5 0d3d 1ca8 393b 0ed9 9ebc 2777 edbc
00000260: 58b7 4dbd acd2 00bd cca4 7bbb d8e9 e13b
00000270: 884b 35bc e2f6 2d3d e563 843b a93e 1ebc
00000280: ca05 853d 45aa 9f3c c187 803c 5ccb 5dbd
00000290: 6a64 03bc ebd9 2a3a 4862 ea3c ea0c a03b
000002a0: c39b 883c c325 5ebd f46a 733b 5c35 60b9
000002b0: 3b27 ebbc 9728 1cbb 7824 aa3c 9080 253d
000002c0: 01cf 53bd a637 2e3d 739f 22ba 5387 a7bc
000002d0: c2ed b53c b452 0dbd 5318 0dbc 6c01 013d
000002e0: 9a97 97bd a744 c43d 43f4 c93b 1f07 53bd
000002f0: 0778 6e3d 018e 14bd ba61 b6bc 5bc6 abbc
00000300: c1d8 493d f44d 9c3c 1b5a 69ba 6980 cb3c
00000310: 9993 46bd aabe 623d 4a69 73bc 191f 6bbd
00000320: fcba 49bd 01d5 b7bd aecf e5bb 4359 b93b
00000330: 795b 95bc 0409 bdbc 4e2c 81bd 9d80 4ebc
00000340: 2b87 173d 742f b63d f920 203a 70a4 90bc
00000350: c614 3dbc d65d dd3c e7ed 8abc f773 123d
00000360: b67e 823c 103d efbc a8af 4dbc 1145 b23c
00000370: add9 34bd 7376 f1bc a013 26bd dd1c 1abd
00000380: 9103 e1bc d474 e83b 57f5 1ebd 9cda 6c3b
00000390: 9065 213d 7ef7 bdbd 642d 9abd 6a5d 7bbd
000003a0: 0b21 f23c ae28 453b e9ed 13bd cade 20bd
000003b0: 41dc 523a 0df5 da3c 6783 11bd 07cc c33a
000003c0: b7cb d6bc 21a8 3e3d d07c ab3d 0b59 813c
000003d0: ea3f 563c e257 623d f2cf 9abc 21d6 5cbd
000003e0: ba51 adbc 61c2 853d da31 d93c cc31 9dbc
000003f0: cf62 b33c a75e 7b3c b849 0f3b 0774 ad3c

bias f4 [64]
-0.016605053 -0.016093224 -0.049437635 -0.0016869828 -0.0016049099 -0.0032048149 -0.0138407815 -0.043557014
0.05801013 0.019801078 0.022848299 0.04385293 -0.022799153 0.016441932 -0.026629336 -0.029217206
0.013594586 -0.057866078 -0.023989415 -0.053370874 0.053890623 0.0041262903 -0.022059677 -0.040520705
-0.050577432 -0.0059502996 -0.003906849 -0.06755928 0.06279086 -0.09845703 0.02981553 0.07301083
-0.034989893 -0.059342664 0.008650859 0.011605888 -0.02432255 0.048497103 -0.011731158 0.029433876
0.015556779 -0.040475957 0.025181243 0.045327064 0.023408385 -0.023552943 0.03892576 0.021102043
0.076369345 -0.03829763 -0.006565777 -0.07046681 -0.014252696 0.06558662 -0.030822292 -0.0038996595
0.017287582 -0.039288353 0.051223416 -0.028606083 0.011520398 0.0056340615 -0.08980194 -0.049777336
00000000: 5207 88bc f0d5 83bc 1e7f 4abd c01d ddba
00000010: d75b d2ba df07 52bb 72c4 62bc d768 32bd
00000020: 089c 6d3d df35 a23c 5b2c bb3c 219f 333d
00000030: 4ac5 babc 3bb1 863c c425 dabc ec58 efbc
00000040: d4bb 5e3c fb04 6dbd 7385 c4bc 6b9b 5abd
00000050: 6abc 5c3d d535 873b 7fb6 b4bc 0af9 25bd
00000060: 482a 4fbd bbfa c2bb 0605 80bb 855c 8abd
00000070: 7f98 803d d7a3 c9bd b33f f43c b486 953d
00000080: 9051 0fbd 4b11 73bd 55bc 0d3c 9f26 3e3c
00000090: 1640 c7bc e6a4 463d 0b34 40bc 501f f13c
000000a0: dce1 7e3c 1eca 25bd e548 ce3c dfa8 393d
000000b0: f1c2 bf3c 1af2 c0bc 9e70 1f3d 31de ac3c
000000c0: 8867 9c3d fadd 1cbd bb25 d7bb e750 90bd
000000d0: 2484 69bc 4752 863d 087f fcbc 6e91 7fbb
000000e0: b09e 8d3c d3ec 20bd a5cf 513d 4e57 eabc
000000f0: 0dc0 3c3c ef9d b83b 14ea b7bd 52e3 4bbd

weight f4 [64, 64, 3, 3]
-0.07861478 -0.007972093 0.0414551 0.0012808604 0.02933437 0.037936933 -0.005494118 -0.02491006
-0.018969826 -0.020508125 0.023278642 0.03176714 -0.01014786 0.054610066 0.031808496 -0.037511196
0.023127697 -0.088007316 -0.013326673 0.017354524 -0.027410321 0.0032039173 -0.0015441546 0.046392307
-0.041486397 0.019451445 0.06577551 -0.024634385 -0.068304084 -0.056229122 0.033889458 0.024662325
-0.0015226806 -0.04209975 0.026664514 -0.054273333 -0.0020128512 -0.019832345 -0.04337914 0.032004945
0.02695618 0.012813614 0.04246678 0.07036003 0.059248332 0.007687057 0.018218828 -0.07040196
0.09744575 -0.05223267 -0.080548145 0.0028407797 0.03230706 0.029385833 -0.010707786 -0.012318867
-0.028920338 0.024047585 0.06159224 -0.060217526 -0.0686286 -0.050243665 0.042850256 -0.07041053
-0.017967958 -0.029521272 0.0022260894 0.04133785 -0.023799187 0.018132987 -0.025362063 -0.03720452
-0.08821464 -0.020172274 -0.006547064 0.06494659 0.032669097 0.043043923 -0.000105817264 -0.005880403
-0.0076790736 -0.016727488 0.024589514 0.030331533 0.018924613 -0.032363538 -0.04886982 0.028831676
0.0052920617 -0.018909492 -0.054235235 -0.071277626 -0.04945311 -0.004805383 0.029803937 -0.008712468
-0.061234374 -0.014174369 -0.061230496 -0.05149675 -0.026183352 -0.08417123 0.03728901 -0.031110965
0.027856031 -0.066811666 -0.070213936 -0.0032355043 0.01609335 -0.053746436 -0.0013104496 -0.017696392
-0.022893887 -0.03798899 -0.057972465 0.016958132 0.0050465195 -0.03777167 -0.04343958 0.03763307
0.06262622 -0.010690101 0.0146276895 -0.011265002 0.013998491 -0.04776489 0.019466301 -0.0053633386
0.024980465 0.02211697 0.10456118 0.034232885 0.004632629 -0.067127235 0.059244834 -0.023244085
-0.006076753 -0.02957629 0.03814451 -0.008796844 -0.0016793349 0.04422156 0.0007445352 0.023848426
-0.007994106 -0.039322946 -0.0049124546 -0.00014806371 0.050018024 -0.014207758 0.0042750207 -0.05577808
0.005840459 -0.032151844 -0.016750041 -0.07036894 0.06606116 -0.014521931 0.025968576 0.0022820581
-0.004051161 0.05830411 0.019681573 -0.024042817 0.010264645 0.06154137 0.023667077 0.038499452
0.015585734 -0.07310534 -0.032801032 -0.082206555 -0.025077865 -0.090806596 0.03935335 0.019088749
0.10089204 0.019690588 -0.01164346 0.026482232 -0.05023672 -0.019443016 -0.04383303 0.010868071
-0.038380355 -0.01065665 0.050569322 0.03643997 0.0074560614 -0.070251755 0.04400212 -0.018982965
-0.048466124 0.05347271 -0.032052066 0.03466985 -0.011691721 -0.04102407 0.007284958 0.0019144141
-0.065505706 -0.0731992 -0.015884932 -0.041963838 0.09431532 0.04683193 0.03415077 -0.037734956
0.009577345 0.02358375 0.014788111 0.030275619 0.02088047 -0.03336609 -0.07927631 0.037255913
-0.043975674 0.026762377 -0.023926703 0.04431834 0.01996731 0.00433124 -0.045485567 -0.07644922
0.040995754 0.0056589576 -0.0463839 0.0017300893 0.024219843 0.03845393 -0.012957751 -0.027039869
-0.013700502 -0.09590102 0.014554545 -0.019907681 -0.07587188 0.005092206 0.02760855 0.0006107562
-0.013213157 -0.042379685 0.051808245 -0.041654423 -0.02671987 -0.031562872 0.07540166 0.018073544
0.047053754 -0.0014505192 -0.04301123 0.04773591 0.042907525 -0.056832645 -0.022624204 -0.040381793
00000000: c900 a1bd 629d 02bc d3cc 293d 8be2 a73a
00000010: a24e f03c c263 1b3d 0108 b4bb 2f10 ccbc
00000020: 9c66 9bbc a800 a8bc dab2 be3c 431e 023d
00000030: 3643 26bc ceae 5f3d a049 023d 57a5 19bd
00000040: 4c76 bd3c 2e3d b4bd 1e58 5abc 132b 8e3c
00000050: 9c8b e0bc d0f8 513b 3b65 caba dc05 3e3d
00000060: a4ed 29bd a358 9f3c 50b5 863d 0dce c9bc
00000070: 03e3 8bbd 8250 66bd accf 0a3d a508 ca3c
00000080: af94 c7ba ca70 2cbd 8a6f da3c b74d 5ebd
00000090: 0aea 03bb 7177 a2bc 53ae 31bd 9e17 033d
000000a0: 35d3 dc3c 31f0 513c a5f1 2d3d eb18 903d
000000b0: 61ae 723d b5e3 fb3b a73f 953c e72e 90bd
000000c0: a391 c73d edf1 55bd 6df6 a4bd 602c 3a3b
000000d0: 6854 043d 8fba f03c b66f 2fbc 13d5 49bc
000000e0: 58ea ecbc 71ff c43c 2548 7c3d a7a6 76bd
000000f0: 278d 8cbd 4dcc 4dbd c083 2f3d 6533 90bd
00000100: 8a31 93bc 98d6 f1bc 95e3 113b e151 293d
00000110: 83f6 c2bc a18b 943c 1ac4 cfbc c463 18bd
00000120: e1a9 b4bd 5340 a5bc c188 d6bb b802 853d
00000130: 08d0 053d d34e 303d 36ea ddb8 65b0 c0bb
00000140: bda0 fbbb 1608 89bc f36f c93c d679 f83c
00000150: ca07 9b3c a18f 04bd b82b 48bd 6830 ec3c
00000160: 0869 ad3b 14e8 9abc c425 5ebd 01fa 91bd
00000170: 588f 4abd 7976 9dbb 6327 f43c bdbe 0ebc
00000180: e5d0 7abd 9d3b 68bc d4cc 7abd 42ee 52bd
00000190: 787e d6bc f761 acbd 5cbc 183d 6cdc febc
000001a0: 5532 e43c 8ed4 88bd 53cc 8fbd c10a 54bb
000001b0: 33d6 833c 3925 5cbd 64c3 abba 06f8 90bc
000001c0: f68b bbbc 589a 1bbd 8974 6dbd c8eb 8a3c
000001d0: 465d a53b 77b6 1abd b3ed 31bd 2225 1a3d
000001e0: 2d42 803d 8925 2fbc faa8 6f3c d890 38bc
000001f0: ed59 653c 1ea5 43bd cb77 9f3c f2be afbb
00000200: d5a3 cc3c a62e b53c 2c24 d63d c837 0c3d
00000210: 4fcd 973b 017a 89bd b6aa 723d 616a bebc
00000220: 801f c7bb fa49 f2bc 6b3d 1c3d a320 10bc
00000230: 211d dcba ab21 353d e92c 433a c65d c33c
00000240: b6f9 02bc 1911 21bd a8f8 a0bb 8d41 1bb9
00000250: b3df 4c3d a8c7 68bc 7915 8c3b 8e77 64bd
00000260: 5261 bf3b a7b1 03bd 6237 89bc 971d 90bd
00000270: 134b 873d 65ed 6dbc 0dbc d43c 958e 153b
00000280: 9abf 84bb 4ad0 6e3d 403b a13c 71f5 c4bc
00000290: 0b2d 283c ce12 7c3d 75e1 c13c 9ab1 1d3d
000002a0: 4e5b 7f3c 41b8 95bd 605a 06bd e95b a8bd
000002b0: 1870 cdbc cff8 b9bd fa30 213d 0260 9c3c
000002c0: 7ca0 ce3d 284e a13c 36c4 3ebc 44f1 d83c
000002d0: 05c5 4dbd f646 9fbc 438a 33bd fe0f 323c
000002e0: b834 1dbd 3b99 2ebc c721 4f3d 1442 153d
000002f0: fa51 f43b 27e0 8fbd 913b 343d 2a82 9bbc
00000300: 6a84 46bd 3306 5b3d 0749 03bd f901 0e3d
00000310: a28e 3fbc db08 28bd a8b6 ee3b 14ed fa3a
00000320: db27 86bd 76e9 95bd 1e21 82bc 46e2 2bbd
00000330: 6428 c13d d6d2 3f3d aee1 0b3d f88f 1abd
00000340: 4cea 1c3c b532 c13c d549 723c 9304 f83c
00000350: 850d ab3c e2aa 08bd 9e5b a2bd a899 183d
00000360: d61f 34bd c63c db3c ef01 c4bc 2687 353d
00000370: 7c92 a33c 13ed 8d3b 134f 3abd 6991 9cbd
00000380: 2aeb 273d c76e b93b 0bfd 3dbd 2ac4 e23a
00000390: b168 c63c de81 1d3d bf4c 54bc b782 ddbc
000003a0: 1278 60bc c167 c4bd 3076 6e3c 6f15 a3bc
000003b0: b762 9bbd 85dc a63b 532b e23c 281b 203a
000003c0: ff7b 58bc 5296 2dbd e234 543d d49d 2abd
000003d0: a1e3 dabc 1248 01bd 2f6c 9a3d f80e 943c
000003e0: 70bb 403d 591f beba 8b2c 30bd bb86 433d
000003f0: cdbf 2f3d 59c9 68bd 6556 b9bc 6167 25bd

bias f4 [64]
-0.028672012 -0.052480686 0.033385765 -0.053738534 0.023852166 -0.009643282 -0.005110767 0.007250294
0.04133521 0.04912841 0.0018080999 0.0042705005 -0.023885354 0.029384285 -0.020447819 0.028599992
0.0022910396 -0.018820282 0.052171342 0.030581411 -0.0007236189 -0.039393406 -0.002705563 0.009058979
0.03788271 -0.010033105 -0.008632662 -0.03422384 -0.020831233 -0.0386773 -0.027239412 -0.022344306
0.015722943 -0.05802239 -0.019534305 0.032710396 -0.026401637 0.0066272058 0.0044700345 -0.021607414
-0.06477173 0.012326266 -0.068943575 -0.05266723 -0.03107896 -0.017697837 0.030786917 0.079166144
0.027937593 0.0003785025 -0.013198147 -0.043083552 -0.006533653 -0.040696885 0.013891809 -0.035472553
-0.028760042 -0.062797025 -0.0022159757 -0.015161071 -0.032078046 0.05983783 0.028257342 0.007611205
00000000: 91e1 eabc fdf5 56bd 83bf 083d f01c 5cbd
00000010: 9e65 c33c dbfe 1dbc 3978 a7bb e093 ed3b
00000020: 1c4f 293d df3a 493d c4fd ec3a 8eef 8b3b
00000030: 38ab c3bc 50b7 f03c 2f82 a7bc 884a ea3c
00000040: 4425 163b fe2c 9abc 9eb1 553d de85 fa3c
00000050: 3eb1 3dba fb5a 21bd d14f 31bb 1d6c 143c
00000060: e72a 1b3d e461 24bc 0270 0dbc 4c2e 0cbd
00000070: 43a6 aabc 176c 1ebd 3025 dfbc 680b b7bc
00000080: 67cd 803c e3a8 6dbd 6806 a0bc 56fb 053d
00000090: 3f48 d8bc 0829 d93b 5e79 923b 0802 b1bc
000000a0: 0aa7 84bd 1bf4 493c 4a32 8dbd 98b9 57bd
000000b0: 4e99 febc 0efb 90bc d834 fc3c dc21 a23d
000000c0: 61dd e43c bf71 c639 0a3d 58bc 6178 30bd
000000d0: 4118 d6bb c7b1 26bd 789a 633c ab4b 11bd
000000e0: 2e9a ebbc ba9b 80bd e739 11bb 2466 78bc
000000f0: 4564 03bd 8318 753d f17b e73c 6a67 f93b

weight f4 [4, 3136]
0.008989133 -0.004480827 -0.0010013956 -0.0038722048 0.015064942 0.0065984544 -0.015663661 -0.0036317713
0.030686706 -0.031459723 -0.005663536 -0.017061247 0.03127076 -0.02622956 -0.031136999 0.025158389
-0.03307912 0.029420856 0.007465229 -0.04983322 0.0052151685 -0.08155739 -0.025773572 0.00095729105
-0.046108883 -0.012674229 -0.021753298 0.00341355 0.015965216 -0.045035068 -0.030064002 -0.025643647
0.01415454 -0.024561506 -0.058392227 0.03766137 -0.0022923038 -0.0126468465 0.04880111 0.022257587
-0.037834406 -0.04148677 0.031198971 0.019971957 -0.003390656 -0.03251607 -0.00925488 0.011885353
-0.03559681 -0.017832095 0.0037731768 -0.016861005 0.006142383 -0.0035314953 0.0055618 0.0053650867
-0.009663273 -0.0042222864 0.019803617 0.007230404 -0.0050002513 0.014788889 -0.015792783 -0.029271433
0.05293127 -0.008432326 0.003817012 0.010597194 0.009777237 -0.0014364938 -0.033115733 -0.012130026
-0.051569253 -0.032019958 -0.039400045 -0.0020218296 -0.08809855 -0.022351816 -0.015623001 -0.007119668
-0.0014938919 -0.012277658 -0.005527962 -0.051535424 0.013409112 -0.077099085 -0.05152717 -0.01704438
-0.021115968 -0.017002167 0.010455345 0.022465369 -0.050778814 0.035022013 0.006346138 0.0130982725
0.015034204 0.0076364283 -0.0060938927 0.013069003 0.013050719 -0.018079396 -0.0043081236 -0.006896825
-0.008078 -0.023967812 0.009740989 0.013834395 -0.009587812 -0.030208208 -0.006631533 0.020471046
-0.005717517 0.017649893 0.023006452 -0.016081044 -0.00946194 -0.041560415 -0.0034498058 -0.04187059
-0.023042047 -0.0069096726 -0.023061186 0.008486454 0.01792088 -0.03405033 0.0024225356 -0.040540405
0.031321906 0.040269848 -0.0046132263 -0.07767623 -0.0379265 0.041642956 0.016440328 -0.074048124
-0.023286313 -0.008667114 -0.029085813 0.006959276 0.064628184 0.02653436 -0.021766437 0.035898264
0.0048952852 0.01645622 0.005333905 0.005556758 0.0020408416 0.03227167 -0.016665947 0.012832182
0.015451983 0.0015228727 -0.047666255 0.0039182366 0.04821328 0.04989111 0.042458493 -0.024099417
-0.018115927 -0.023085292 0.0030369544 0.02063841 -0.031593695 -0.029540934 0.008501378 0.01604473
0.051633283 0.015647529 0.0054181237 -0.012269229 -0.017090915 -0.004943648 0.038030367 -0.039647825
-0.052019756 -0.009838386 0.02348296 -0.018099178 0.032941572 -0.023850925 -0.011521186 -0.05219407
-0.004653557 0.040271364 -0.019931383 0.030880194 -3.6038742e-05 0.024718985 0.079859994 0.034962147
-0.007383812 0.05323351 -0.0058393306 0.013300527 -0.019229207 -0.020372894 -0.0018693756 -0.0059767975
-0.004358934 0.012590876 -0.031784113 0.028028436 -0.009465632 -0.0043233335 0.0051278477 -0.010060265
0.0031961615 -0.011490926 -0.037639923 -0.012609206 0.0019812135 -0.060301263 0.021223618 -0.0015626997
-0.06321789 0.021461507 -0.029012518 -0.008579884 0.0619476 -0.04505161 -0.01158543 0.0060253507
0.017270628 -0.06136868 0.052400958 -0.03386106 -0.03675325 -0.0117977895 0.015067407 0.024067532
-0.010984025 -0.018633395 0.013818663 -0.0102765355 -0.006666946 0.012931352 0.0510469 -0.025510594
-0.0070826774 0.04172382 -0.05718555 0.061114546 -0.0020810282 0.0052039227 0.0029956684 -0.006119288
-0.029374203 0.016024668 -0.0073795305 0.00692968 -0.006156277 0.0060115415 -0.001262077 -0.0053590946
00000000: 2847 133c e7d3 92bb 4341 83ba d1c4 7dbb
00000010: f2d2 763c d937 d83b 1451 80bc 0303 6ebb
00000020: b062 fb3c e9db 00bd 2f95 b9bb 07c4 8bbc
00000030: c515 003d 60df d6bc 0513 ffbc f718 ce3c
00000040: f97d 07bd 0204 f13c e19e f43b eb1d 4cbd
00000050: 01e4 aa3b 9007 a7bd 1923 d3bc b7f2 7a3a
00000060: abdc 3cbd 92a7 4fbc f933 b2bc deb5 5f3b
00000070: 7cc9 823c b176 38bd c848 f6bc a012 d2bc
00000080: 72e8 673c 3635 c9bc b02c 6fbd cf42 1a3d
00000090: 7a3a 16bb b834 4fbc ace3 473d 8b55 b63c
000000a0: 40f8 1abd 08ee 29bd fc94 ff3c 3b9c a33c
000000b0: c535 5ebb 922f 05bd c8a1 17bc c9ba 423c
000000c0: f6cd 11bd 9d14 92bc 6747 773b 1720 8abc
000000d0: 0b46 c93b a970 67bb c33f b63b 9ccd af3b
000000e0: b452 1ebc 1b5b 8abb 323b a23c 06ed ec3b
000000f0: 26d9 a3bb 194d 723c de5f 81bc a5ca efbc
00000100: 76ce 583d bd27 0abc d626 7a3b da9f 2d3c
00000110: b430 203c bc48 bcba 5da4 07bd 04bd 46bc
00000120: 483a 53bd 5c27 03bd f161 21bd ac80 04bb
00000130: 036d b4bd 281b b7bc 9ef7 7fbc 1b4c e9bb
00000140: b2ce c3ba 3b28 49bc e823 b5bb cf16 53bd
00000150: e4b1 5b3c 20e6 9dbd 270e 53bd a8a0 8bbc
00000160: 65fb acbc 2148 8bbc e54c 2b3c 4b09 b83c
00000170: 72fd 4fbd 3e73 0f3d 44f3 cf3b 239a 563c
00000180: 0652 763c 013b fa3b 47af c7bb 5f1f 563c
00000190: afd2 553c 3e1b 94bc 292b 8dbb c3fe e1bb
000001a0: 9659 04bc 2558 c4bc ab98 1f3c a9a9 623c
000001b0: 3316 1dbc 3477 f7bc 554d d9bb e5b2 a73c
000001c0: 025a bbbb 8296 903c 0778 bc3c 65bc 83bc
000001d0: 4106 1bbc 413b 2abd 2316 62bb 7f80 2bbd
000001e0: adc2 bcbc 896a e2bb d0ea bcbc c50a 0b3c
000001f0: cfce 923c 5c78 0bbd 67c3 1e3b b20d 26bd
00000200: 664b 003d fff1 243d 8c2a 97bb b714 9fbd
00000210: d158 1bbd ce91 2a3d dead 863c 8ba6 97bd
00000220: f0c2 bebc 8300 0ebc 5f45 eebc a30a e43b
00000230: c85b 843d 965e d93c 874f b2bc 0f0a 133d
00000240: a168 a03b 32cf 863c 0ac8 ae3b 7715 b63b
00000250: a4bf 053b 4c2f 043d 0687 88bc 133e 523c
00000260: 502a 7d3c 219b c73a b13d 43bd 8d64 803b
00000270: 4a7b 453d 9f5a 4c3d f5e8 2d3d 246c c5bc
00000280: da67 94bc 5e1d bdbc a407 473b e211 a93c
00000290: 6468 01bd d4ff f1bc 5d49 0b3c 3d70 833c
000002a0: 6c7d 533d 3f2f 803c 848a b13b e004 49bc
000002b0: 3f02 8cbc 53fe a1bb bbc5 1b3d c265 22bd
000002c0: ab12 55bd 2f31 21bc 565f c03c ba44 94bc
000002d0: beed 063d 0463 c3bc 5bc3 3cbc 73c9 55bd
000002e0: de7c 98bb 96f3 243d 2447 a3bc 76f8 fc3c
000002f0: 4e28 17b8 787f ca3c a38d a33d 7834 0f3d
00000300: e8f3 f1bb 620b 5a3d db57 bfbb 74ea 593c
00000310: 9286 9dbc 0ee5 a6bc d605 f5ba 03d9 c3bb
00000320: 63d5 8ebb f649 4e3c 0f30 02bd e49b e53c
00000330: bd15 1bbc c0aa 8dbb 8107 a83b cfd3 24bc
00000340: b176 513b 7044 3cbc 522c 1abd d896 4ebc
00000350: 3fd7 013b 75fe 76bd 27dd ad3c 80d3 ccba
00000360: 6278 81bd 0bd0 af3c a9ab edbc a492 0cbc
00000370: c4bc 7d3d 0988 38bd d1d0 3dbc 4e70 c53b
00000380: 227b 8d3c ba5d 7bbd 63a2 563d e5b1 0abd
00000390: 938a 16bd 844b 41bc 49dd 763c 4629 c53c
000003a0: 57f6 33bc 10a5 98bc ac67 623c ea5e 28bc
000003b0: 6676 dabb 05de 533c 8e16 513d 98fb d0bc
000003c0: ce15 e8bb 99e6 2a3d 653b 6abd 3f53 7a3d
000003d0: dc61 08bb ab85 aa3b fa52 443b 4f84 c8bb
000003e0: 2ba2 f0bc 2a46 833c fdcf f1bb 5e12 e33b
000003f0: 98ba c9bb 77fc c43b 476c a5ba 589b afbb

bias f4 [4]
0.0058932444 -0.0090374155 0.0061449385 0.018672336
00000000: 1e1c c13b ab11 14bc 7b5b c93b baf6 983c

weight f4 [1, 3136]
0.013899213 0.009359164 -0.0048812837 -0.0038021305 -0.010983622 0.008076571 0.0012417565 -0.00056768657
-0.001112314 -0.00011410762 -0.0028270995 0.0072144894 0.006549159 0.0017408408 -0.0040287236 0.00036636583
0.004417297 -0.0029839645 0.0012517815 -0.0027539101 0.0014000615 0.00077103457 0.00084868865 -0.0008250545
-1.5176493e-05 0.0011998533 0.0002937243 0.0005075574 0.00050770404 0.0007742011 0.00059132633 0.0004648537
-0.001414997 -0.00020193531 -0.0004342618 -0.0012482653 0.00038227544 -0.0009574639 -0.00086277595 6.3434236e-05
-0.0007687042 -0.0001860561 -9.130722e-05 0.001735866 0.0006277464 0.00022975742 -0.00031193864 0.00015488615
-0.0009515077 0.00081619615 -0.0046844636 -0.0038992718 0.0057782643 -0.0042229136 0.005025853 -0.01069648
0.010683974 0.0011573981 0.000609175 -0.0052017486 -0.0052943584 0.006648706 0.004633544 0.0012187848
-0.00053904037 -0.0028677508 -0.0012942224 -0.0016613204 0.0020315894 -0.0038623458 -0.00089368667 0.0014165657
8.347626e-07 -0.000911957 0.00037123173 -0.000327311 -0.0012655609 -0.0028590448 -0.0029239685 0.0011795886
-0.0010971291 -0.00067035324 -0.0011877256 -0.00028573512 -0.0029291664 -0.0033864793 -0.00071082526 0.00032819965
-0.0010963589 -0.00079929567 -0.0006366911 -0.0012058897 0.000279793 0.00020119 -0.0013779815 -4.4249446e-05
-0.00025799486 4.659784e-05 0.0016216617 0.013216741 -0.0005873871 0.0047066943 -0.002691667 -0.0002899857
0.008210735 0.00204833 -0.00082349847 0.005022064 -0.00033486565 0.0010568462 -0.0047767023 0.0010520151
0.0020246482 0.0009813097 0.0011092412 0.0025179784 0.00028463305 0.00046186638 -0.0009126994 0.0016117743
0.0011047472 7.234927e-05 0.00059907784 0.0002428291 0.00213317 -0.0019292696 0.0024422642 -0.00026392957
-0.0015486844 -0.0003383456 0.00090391707 0.0015009438 -0.0007266557 0.0002987591 -0.0006376364 -0.00031353894
0.0008714445 0.0007946802 -0.00037981878 0.0016651965 0.0005711245 0.0005333672 -0.0001657128 0.00029815902
0.00024879677 0.0005833394 0.0029987413 0.004562467 -0.007183164 -0.009505339 0.0009850776 -0.0008474177
-0.0020015263 -0.009502581 2.3963523e-06 0.010879894 0.0008631149 -0.0010448055 0.017577898 0.007868638
-0.0044017117 0.004183021 -0.0015429952 0.00080078223 0.00038481993 -0.0003474134 0.0020090856 -0.0013666534
-0.0027054406 -0.0036899534 0.00041144268 -0.002349581 -1.527864e-05 0.0006466515 0.0025621818 0.0021723073
0.00061961747 0.00098413 0.0027370884 0.0017618086 8.988422e-05 0.0008376444 -0.000305192 0.0005154197
-0.00051108835 0.00047404968 1.8477507e-05 -0.00086491497 -0.0012523256 0.002273952 0.000291047 -0.00039570095
-9.935929e-05 -0.0005547954 -0.00023939385 -0.0005321463 0.0016855726 -0.0041724634 0.0029680664 -0.0019057946
0.002071018 0.0018916227 -0.0018955625 -0.0054922043 0.0012367987 -0.0044530095 -0.014412979 -0.006094295
-0.0066591827 -0.0045246673 0.006556593 -0.0026622503 0.0040542968 0.008302958 0.0046080267 0.009105577
0.0014544929 0.007297792 -0.0011644668 0.0053222687 0.0014823877 0.011973512 -0.0007654892 0.0010364137
-0.002442346 0.003055047 -0.0045892657 -0.0014883548 -0.0006361006 -0.0017413514 -0.0023355896 -0.0031804144
-0.0001664921 -0.0010624224 -0.0011969486 -0.00023603797 -0.0019570463 -0.0038070392 -3.0330304e-05 0.00063011923
-0.0007004798 -0.00044328163 5.622059e-05 -0.0009726464 -0.0004560688 0.013562934 -0.009837966 0.006244626
-0.0008664249 0.0017200939 0.0007930913 -0.0016067231 0.0033220593 0.004928418 -0.0032627224 0.0021910982
00000000: 86b9 633c 2e57 193c 2df3 9fbb 2a2d 79bb
00000010: a6f4 33bc 9853 043c 6fc2 a23a cdd0 14ba
00000020: 11cb 91ba 104d efb8 dc46 39bb 8667 ec3b
00000030: 549a d63b ed2c e43a 6203 84bb ca14 c039
00000040: f9be 903b 9e8e 43bb d112 a43a f27a 34bb
00000050: 4582 b73a 411f 4a3a 887a 5e3a 7848 58ba
00000060: 8b9e 7eb7 6544 9d3a 02ff 9939 9a0d 053a
00000070: 7117 053a c2f3 4a3a 3d03 1b3a 9cb7 f339
00000080: 6c77 b9ba 99be 53b9 a2ad e3b9 d59c a3ba
00000090: 246c c839 51fe 7aba ea2b 62ba ff07 8538
000000a0: de82 49ba 0e18 43b9 317c bfb8 ff85 e33a
000000b0: 598f 243a 0aeb 7039 b28b a3b9 ef68 2239
000000c0: 9a6e 79ba fff5 553a 2180 99bb ed8a 7fbb
000000d0: 9857 bd3b 5e60 8abb e9af a43b 4a40 2fbc
000000e0: d60b 2f3c d6b3 973a 0bb1 1f3a 6e73 aabb
000000f0: 4c7c adbb 63dd d93b fcd4 973b a2bf 9f3a
00000100: 634e 0dba e0f0 3bbb e6a2 a9ba aac0 d9ba
00000110: 6a24 053b 691f 7dbb 4c46 6aba 0fac b93a
00000120: 7314 6035 6610 6fba e1a1 c239 f09a abb9
00000130: 2de1 a5ba d05e 3bbb 0da0 3fbb 6d9c 9a3a
00000140: 8bcd 8fba a5ba 2fba 75ad 9bba b8ce 95b9
00000150: 42f7 3fbb b2ef 5dbb ad56 3aba 3612 ac39
00000160: b3b3 8fba d387 51ba 9ee7 26ba f20e 9eba
00000170: 2eb1 9239 88f6 5239 639d b4ba 7b98 39b8
00000180: 7c43 87b9 0d72 4338 f08d d43a 088b 583c
00000190: e2fa 19ba 9d3a 9a3b ae66 30bb 3909 98b9
000001a0: 5286 063c 463d 063b 0ce0 57ba 2090 a43b
000001b0: e890 afb9 e085 8a3a e285 9cbb c5e3 893a
000001c0: f6af 043b 4a9f 803a f563 913a ab04 253b
000001d0: cd3a 9539 a826 f239 3842 6fba 2c42 d33a
000001e0: 2acd 903a 38ba 9738 6f0b 1d3a f19f 7e39
000001f0: a7cc 0b3b 8cdf fcba 650e 203b 0760 8ab9
00000200: 3afd caba fa63 b1b9 d9f4 6c3a 51bb c43a
00000210: 0a7d 3eba c5a2 9c39 0e27 27ba 7c62 a4b9
00000220: a771 643a 1652 503a 6a22 c7b9 b942 da3a
00000230: 84b7 153a abd1 0b3a 31c3 2db9 3a52 9c39
00000240: f070 8239 3feb 183a 8886 443b bf80 953b
00000250: bf60 ebbb 48bc 1bbc b81d 813a 3d25 5eba
00000260: 0a2c 03bb b7b0 1bbc 05d1 2036 9541 323c
00000270: a942 623a dbf1 88ba 86ff 8f3c 76eb 003c
00000280: 3c3c 90bb b911 893b 543e caba 96eb 513a
00000290: a8c1 c939 0a25 b6b9 ddaa 033b 4721 b3ba
000002a0: c34d 31bb 25d3 71bb e7b6 d739 6efb 19bb
000002b0: a12a 80b7 0c84 293a 47ea 273b 455d 0e3b
000002c0: d36d 223a ecfd 803a b960 333b 7dec e63a
000002d0: 3980 bc38 5d95 5b3a 2d02 a0b9 3b1d 073a
000002e0: 8ffa 05ba df89 f839 2500 9b37 76bb 62ba
000002f0: 1325 a4ba 9506 153b ab97 9839 1576 cfb9
00000300: 1d5f d0b8 b06f 11ba cc05 7bb9 bc7f 0bba
00000310: 6eee dc3a 29b9 88bb e483 423b dbcb f9ba
00000320: ebb9 073b 53f0 f73a 8674 f8ba f3f7 b3bb
00000330: 141c a23a 8dea 91bb 6a24 6cbc a7b2 c7bb
00000340: 4635 dabb a943 94bb b0d8 d63b 2679 2ebb
00000350: e8d9 843b 2109 083c eefe 963b 8f2f 153c
00000360: afa4 be3a 5122 ef3b 06a1 98ba 6d66 ae3b
00000370: ad4c c23a 8d2c 443c 1cab 48ba 46d8 873a
00000380: c40f 20bb 2f37 483b 8d61 96bb e614 c3ba
00000390: fdbf 26ba 0f3e e4ba b110 19bb 806e 50bb
000003a0: 6294 2eb9 fb40 8bba eee2 9cba f680 77b9
000003b0: ca41 00bb 857f 79bb d56d feb7 962e 253a
000003c0: 67a0 37ba 4168 e8b9 66ce 6b38 32f9 7eba
000003d0: 851c efb9 1137 5e3c 6c2f 21bc b89f cc3b
000003e0: ca20 63ba c674 e13a 75e7 4f3a ae98 d2ba
000003f0: e8b6 593b 917e a13b 66d3 55bb 8798 0f3b
