PPO/Pacman/FINAL.MsPacmanNoFrameskip-v4.MODEL (torch_old, 455506 bytes, 9 tensors)

weight f4 [32, 4, 8, 8]
0	0xbceba88b	-0.028766891
1	0x3d0d88ce	0.034554295
2	0x3d26c88b	0.040718596
3	0x3c58e2af	0.013237639
4	0x3cb299df	0.021801887
5	0xbd2897e2	-0.04116047
6	0xbd1cf3a5	-0.038318295
7	0xbd3bfd4b	-0.045895856
8	0xbcae032e	-0.02124175
9	0x3cdb6895	0.026783267
10	0xbcd11e3f	-0.025527118
11	0x3c6a3349	0.014294454
12	0xbd87a9b6	-0.06624167
13	0xbcee93d9	-0.029123234
14	0x3c835ffe	0.016036984
15	0x3bdf9a4a	0.0068238126
16	0xbca2a94d	-0.01985612
17	0x3d3a1bbe	0.045436613
18	0x3d3ee60f	0.04660612
19	0x39746921	0.00023308817
20	0xbc1675e2	-0.009183379
21	0xbcece28c	-0.02891662
22	0x3d2f0648	0.0427306
23	0x3d0176a6	0.031607293
24	0xbd033eb0	-0.032042205
25	0x3c3fedc3	0.011714402
26	0xbd48ef11	-0.049056116
27	0xbd5abdda	-0.053403713
28	0xbd650d50	-0.0559209
29	0x3ca4fa40	0.02013886
30	0x3d910b5b	0.07082244
31	0x3cc23330	0.023706049
32	0x3c9d621d	0.019211823
33	0xbcfb3417	-0.030664487
34	0x3c1e12ee	0.009648068
35	0xbd7a6038	-0.061126918
36	0xbd985ad2	-0.074391976
37	0xbb8423e4	-0.004032599
38	0xbd2bc117	-0.04193219
39	0x3d39d464	0.045368567
40	0xbb05b09c	-0.0020399457
41	0xbc9bf792	-0.01903895
42	0x3c9e0b72	0.019292567
43	0x3cb39ae9	0.021924453
44	0xbd6601a7	-0.05615392
45	0xbd8f3dd1	-0.069942124
46	0x3c230ea2	0.009952219
47	0x3c2c9905	0.01053453
48	0xbd443cf9	-0.04790971
49	0xbd73ee25	-0.059553284
50	0x3c87b93e	0.016567823
51	0x3cf1c073	0.029510712
52	0x3caecc09	0.021337526
53	0xbcfd6630	-0.030932516
54	0x3d4e2d9c	0.050336465
55	0xbc746352	-0.014916258
56	0xbd072f61	-0.03300417
57	0x3cece4a6	0.028917622
58	0x3d04b39f	0.032397863
59	0xbd420ac5	-0.047373552
60	0xbd45493e	-0.048165552
61	0x3c9d2de4	0.019186921
62	0xbcfaa4ad	-0.030596102
63	0xbd866f8b	-0.06564244
64	0x3c2f078e	0.0106829535
65	0xbd689fec	-0.05679314
66	0xbc14938a	-0.009068379
67	0xbd37776e	-0.04479163
68	0xbd5900dd	-0.05297934
69	0xbd8f365c	-0.0699279
70	0xbd95e3f7	-0.073188715
71	0x3d27498c	0.040841624
72	0xbc64520e	-0.013935579
73	0xbd1c1aca	-0.038111486
74	0xbd6239c3	-0.055230867
75	0xbcedc245	-0.029023299
76	0x3c5d94b1	0.01352422
77	0x3c1ee372	0.009697782
78	0x3d3f535e	0.046710365
79	0x3c01c309	0.007920035
80	0x3c8839f6	0.0166292
81	0xbd7ba2ca	-0.061434545
82	0x3b8f7114	0.0043774936
83	0x3d05ef8b	0.03269915
84	0x3d20e44e	0.03928023
85	0x3cb214d8	0.021738455
86	0x3b55a1b8	0.0032597613
87	0x3d32e95b	0.043679576
88	0x3d739c72	0.05947537
89	0xbd3c125a	-0.04591594
90	0x3d14411f	0.036194917
91	0x3c806ef3	0.015677905
92	0x3cef8117	0.02923636
93	0xbd39e5f2	-0.04538531
94	0xbc2878ef	-0.010282739
95	0xbd8cc9db	-0.068744384
96	0xbd4dbb12	-0.050227232
97	0x3c532128	0.012886323
98	0xbc254fc6	-0.01008982
99	0xbcd0c4ad	-0.025484407
100	0xbaf7a8fe	-0.0018894968
101	0xbd2bcfda	-0.04194627
102	0xbcb8fd44	-0.022581704
103	0x3d4a4a81	0.04938746
104	0xbb118490	-0.0022204258
105	0xbc2690b8	-0.01016634
106	0x3cd84d53	0.026404059
107	0x3b6e20c8	0.0036335457
108	0xbcb00d8e	-0.021490838
109	0x3d0892f4	0.03334327
110	0xbd11e09c	-0.035614595
111	0xbced4226	-0.028962206
112	0x3ce98e9f	0.02851039
113	0xbbdce378	-0.0067409836
114	0xbcdd0530	-0.026980013
115	0x3cd4df27	0.025985314
116	0x3c557329	0.013027945
117	0x3ce06c82	0.02739549
118	0xbd123b89	-0.03570131
119	0x3ce889b4	0.028385974
120	0xbcd79f70	-0.026321143
121	0xbcf401b6	-0.029785972
122	0x3abe955d	0.0014540363
123	0xbbc856c0	-0.006113857
124	0xbd3e463a	-0.046453692
125	0x3d22ea96	0.0397745
126	0x3d85bb60	0.065298796
127	0x3b661091	0.003510509
128	0xbd023e6e	-0.03179782
129	0xba7b38d2	-0.0009583357
130	0x3cc250c4	0.023720153
131	0xbc7eba1f	-0.015547304
132	0xbd94e957	-0.072710685
133	0xbca5d8c5	-0.020244965
134	0x3cdba202	0.02681065
135	0x3c91098a	0.017704744
136	0xb880be3b	-6.138949e-05
137	0xbd742cf0	-0.05961317
138	0xbd6f7929	-0.058465157
139	0xbd96a05f	-0.07354807
140	0xba82a5bc	-0.0009967606
141	0xbd5a4fc3	-0.053298723
142	0x3cdf1b0d	0.027234579
143	0x3d28c5ca	0.04120425
144	0xbbf357e8	-0.0074262507
145	0xbd49d382	-0.049273975
146	0x3b8ee8ee	0.0043612635
147	0x3d225a97	0.039637174
148	0xbca9c67c	-0.020724528
149	0xbd918740	-0.07105875
150	0x3d2d51bf	0.042314287
151	0xbd11eb6e	-0.035624914
152	0x3d1649b2	0.036691375
153	0xbcc9258d	-0.024554038
154	0xbd40f485	-0.047108192
155	0x3d3efe13	0.046629023
156	0x3d2dfd8c	0.04247813
157	0x3d20c1d7	0.03924736
158	0xbac3a019	-0.0014925032
159	0xbd74d9bb	-0.059777956
160	0x3cc619e9	0.024182277
161	0x3a8b1ed2	0.0010614044
162	0x3d44a6af	0.048010524
163	0xbc98da17	-0.01865868
164	0x3c66962b	0.014073889
165	0x3c8610d6	0.01636545
166	0xbdb33630	-0.0875057
167	0xbd40d89a	-0.047081567
168	0xbcd4772d	-0.025935734
169	0xbcae3fd1	-0.021270664
170	0xbc593cf9	-0.013259166
171	0xbd209909	-0.039208446
172	0x3d40bf3b	0.04705737
173	0xbd3d8464	-0.046268836
174	0x3d2f1591	0.042745177
175	0x3ab9794d	0.001415053
176	0x3ce9fabf	0.028561948
177	0x3d4d4ee9	0.050124083
178	0xbd14a75b	-0.036292415
179	0xbae2cc78	-0.0017303368
180	0x3c8563b9	0.016282903
181	0xbcf96fc4	-0.030448802
182	0xbd3414ef	-0.043965276
183	0x3d5e8461	0.054325465
184	0xbc99ea87	-0.01878859
185	0xbc88a084	-0.016678102
186	0xbd042176	-0.032258473
187	0x3d03ab46	0.03214576
188	0xbd32e9b5	-0.04367991
189	0xbd3093e8	-0.043109804
190	0x3caa8143	0.02081359
191	0x3ac83444	0.0015274365
192	0x3ce7ea72	0.028310034
193	0xbca2fb02	-0.01989508
194	0xbcaf613e	-0.021408673
195	0x3c9306e9	0.017947631
196	0x3d204d90	0.03913647
197	0xbd4a00de	-0.049317233
198	0x3d570513	0.052495074
199	0xbd5ec0d1	-0.054383103
200	0xbc859a35	-0.016308883
201	0xbd7bd07d	-0.061478127
202	0x3c6c4e00	0.0144228935
203	0xbcdbbca7	-0.026823355
204	0xbd2dd861	-0.042442683
205	0x3d0e3789	0.03472093
206	0x3c106931	0.008814142
207	0xbd2a25e4	-0.04154004
208	0x3ce7fd25	0.02831895
209	0xbd6339a8	-0.055474907
210	0xbd17bdf0	-0.037046373
211	0x3bbaa070	0.005695395
212	0x3c8065f1	0.01567361
213	0xbd8f7dfb	-0.07006451
214	0x3bc7932c	0.0060905423
215	0xbc9b2138	-0.018936738
216	0xbcc37627	-0.02386005
217	0x3b04bc2c	0.002025376
218	0xbcc3f4c5	-0.023920426
219	0xbb89df86	-0.0042075543
220	0xbc7c3e51	-0.015395717
221	0xbc89e558	-0.016832992
222	0x3cd28ca6	0.025701832
223	0x3c3084ca	0.010773847
224	0xbd3bc643	-0.045843374
225	0x3d15fb77	0.03661677
226	0x3d31bed6	0.043394886
227	0xbd3a64ba	-0.045506217
228	0xbb41a2ea	-0.0029546567
229	0xbcb90a07	-0.02258779
230	0xbc45393c	-0.0120375715
231	0x3d415f20	0.04720986
232	0x3c3a9a9f	0.011389404
233	0xbd3fad86	-0.046796344
234	0x3d151bd0	0.036403477
235	0xbc6036d1	-0.013684944
236	0xbd43af94	-0.047774866
237	0x3c459a70	0.012060747
238	0x3c4003dc	0.01171967
239	0x3d701d4a	0.058621682
240	0xbce57468	-0.028009608
241	0xbd8cbb45	-0.06871656
242	0xbd80f370	-0.06296432
243	0xbd763d25	-0.060116906
244	0xbd7a1b28	-0.061061054
245	0x3ca50869	0.020145612
246	0x3d2b3de0	0.041807055
247	0xbd6bb178	-0.057542294
248	0x3d31aa30	0.043375194
249	0xbce7ddc5	-0.02830399
250	0x3d2a9211	0.041643206
251	0x3b492e8e	0.0030697915
252	0x3b8e04a9	0.0043340516
253	0x3cd0fee1	0.02551216
254	0x3cc5c39c	0.024141125
255	0xbcfb7648	-0.03069605

bias f4 [32]
0	0xbc78439a	-0.015152836
1	0xbc82c1e9	-0.015961604
2	0x3b258033	0.0025253415
3	0xbc35e801	-0.011102677
4	0xbc464b9c	-0.012102988
5	0xbc2e703e	-0.010646878
6	0x3c69b370	0.014263973
7	0xbcd2e5d7	-0.025744362
8	0xbcd3dc1e	-0.025861796
9	0xbd07f00a	-0.033187903
10	0xbc97c3f7	-0.01852606
11	0x3d8cdd1c	0.06878111
12	0x3db80052	0.08984436
13	0xbbc7edc3	-0.0061013415
14	0xbd625537	-0.05525705
15	0x39593d46	0.00020717559
16	0x3b9bf410	0.004759319
17	0x3bf2b117	0.0074063647
18	0xbc6b4b85	-0.014361267
19	0xbab69423	-0.0013929646
20	0x3d45a734	0.04825516
21	0x3d81eab9	0.06343598
22	0x3d04755c	0.032338485
23	0xbac4b972	-0.001500888
24	0xbc53c7db	-0.012926067
25	0xbb08550d	-0.0020802647
26	0x3cf7ac91	0.030233653
27	0xba110205	-0.0005531612
28	0xbcc0cfcf	-0.02353659
29	0xbb9b6161	-0.004741833
30	0x3c169b92	0.009192364
31	0xbc9e735a	-0.019342113

weight f4 [64, 32, 4, 4]
0	0xbcae1b9c	-0.0212534
1	0xbc773cb6	-0.015090158
2	0xbcad1bd7	-0.02113144
3	0xbc1ca5fb	-0.009561057
4	0xbc85f7a4	-0.016353436
5	0xbc1f66d2	-0.009729104
6	0x3cfca1ca	0.030838866
7	0xbd35e76b	-0.04441015
8	0x3c972c70	0.018453807
9	0xbd30343d	-0.04301857
10	0x3b16cafd	0.0023009174
11	0xbd62356f	-0.05522674
12	0xbc8a32b2	-0.016869877
13	0xbc342471	-0.010995016
14	0xbcce3e3c	-0.02517616
15	0x3c61ea1d	0.013788727
16	0x3c1d42eb	0.009598474
17	0xbbc05675	-0.0058696815
18	0x3b4bc33c	0.003109171
19	0xbc1b5c36	-0.009482434
20	0x3cd28d2a	0.025702078
21	0xbc5fbeb6	-0.013656309
22	0xbd41ea8f	-0.047342833
23	0xbb9ac973	-0.0047237216
24	0x3ce898a8	0.028393105
25	0xbc001d4b	-0.007819484
26	0xbcecec52	-0.02892128
27	0x3c85d340	0.016336083
28	0xbcbccc8f	-0.02304676
29	0xbcf838e8	-0.030300573
30	0xbd029f96	-0.031890474
31	0xbc77e885	-0.015131121
32	0xbbcab376	-0.006185944
33	0xbb6637eb	-0.0035128545
34	0xbc9751c3	-0.018471604
35	0x3c702031	0.0146561125
36	0xbccc3e08	-0.024931923
37	0xbb432e5f	-0.0029782278
38	0xbb84100e	-0.004030234
39	0x3a806bc0	0.0009797737
40	0xbd4ade41	-0.049528364
41	0x3cf3ab99	0.02974491
42	0x3c16aac8	0.009195991
43	0xbbdb40b2	-0.006691062
44	0x3c7ab642	0.015302243
45	0xbd105596	-0.03523787
46	0xbd305a84	-0.043055072
47	0x3cc289cc	0.023747347
48	0x3d0c2339	0.03421328
49	0xbd3e1bba	-0.04641316
50	0xbd1002cf	-0.03515893
51	0xbc14984d	-0.009069514
52	0x3cf01502	0.029306892
53	0x3c69089b	0.014223243
54	0x3b4d4990	0.0031324364
55	0x3d345b2c	0.04403226
56	0x3c792857	0.015207372
57	0x3b7893bd	0.0037929856
58	0x3d0c5aa6	0.034266137
59	0xbc9eed3c	-0.019400232
60	0xbcd396fe	-0.025828835
61	0x3b232722	0.002489515
62	0x3c786d13	0.015162724
63	0x3c45c836	0.01207166
64	0x3c93fc6e	0.018064704
65	0x3d03917d	0.03212117
66	0x3cd40739	0.02588235
67	0xbcca1fb2	-0.024673317
68	0x3c98ce77	0.018653138
69	0x3ce30fe9	0.027717547
70	0xbd075959	-0.033044193
71	0xbd04ccd1	-0.03242189
72	0xbd138846	-0.036018632
73	0xbcb92801	-0.022602083
74	0xbba5f420	-0.0050645024
75	0x3c928ce7	0.017889453
76	0x3d16f14e	0.03685122
77	0xbc1209ad	-0.00891344
78	0x3cecfa54	0.02892796
79	0x3c4a0cc7	0.012332148
80	0xbd08f898	-0.033440202
81	0xbd1d050a	-0.038334884
82	0xbd19344e	-0.037403397
83	0xbcc350cf	-0.023842243
84	0xbd1eb2e0	-0.038744807
85	0xbcbbb2d2	-0.022912417
86	0xbd82779d	-0.06370471
87	0xbcb1271d	-0.021625096
88	0x3c995291	0.018716129
89	0xbd74c68c	-0.05975966
90	0x3c6b72eb	0.01437066
91	0xbd349ff7	-0.044097867
92	0xbc6c533f	-0.014424144
93	0xbd53e0a2	-0.0517279
94	0x3c34362f	0.0109992465
95	0xbd2da1c2	-0.042390592
96	0xbd496c31	-0.049175445
97	0xbd280e7a	-0.04102943
98	0xbb51828c	-0.003196868
99	0xbd2e82e9	-0.042605314
100	0xbcade95f	-0.021229444
101	0x3d193201	0.037401203
102	0xbc095462	-0.008381935
103	0xbba20c73	-0.0049453317
104	0xbc1cfaf4	-0.009581316
105	0x3c4d48be	0.01252955
106	0xbbcbf4aa	-0.0062242346
107	0xbc4937b6	-0.012281349
108	0xbc415ea5	-0.01180235
109	0xbc835167	-0.016030027
110	0x3cc6939b	0.024240306
111	0xbc8f9f20	-0.017531931
112	0x3c653bea	0.013991335
113	0x3d1ed19f	0.03877413
114	0xbcd07c0a	-0.025449771
115	0x3aed6625	0.0018112106
116	0x3b76beae	0.0037650275
117	0x3c5bba80	0.013411164
118	0xbd5bdf15	-0.053679544
119	0x3cd21078	0.025642619
120	0xbc5c0bbb	-0.013430531
121	0x3b7d4fd8	0.0038652327
122	0xbc8d0aa9	-0.017216997
123	0xbba5c918	-0.0050593726
124	0x3d1055ee	0.0352382
125	0xbd12f3a3	-0.03587688
126	0xbb078754	-0.0020680027
127	0xbc2da625	-0.010598694
128	0xbc9dce45	-0.019263396
129	0x3ce20be9	0.02759357
130	0x3d0d1099	0.034439657
131	0xbcd318c2	-0.025768641
132	0x3c915758	0.017741844
133	0xbd1d8e7a	-0.038465954
134	0x3a62ec3b	0.0008656417
135	0xbd1841a8	-0.03717199
136	0xbc94bbbf	-0.01815593
137	0x3b908cd3	0.004411319
138	0x3ca2767c	0.019831888
139	0xbc9d5349	-0.019204753
140	0xbd3d3aae	-0.04619854
141	0xbab59897	-0.001385468
142	0xbd2fb9f8	-0.042901963
143	0xbc3ec9a2	-0.011644753
144	0xbb23239e	-0.0024893056
145	0xbd26898f	-0.04065853
146	0xbd3b8d7b	-0.045789223
147	0xbcb42922	-0.02199227
148	0xbb88047e	-0.004150926
149	0xbbb2b57b	-0.005453763
150	0xbd3ae1df	-0.045625564
151	0x3cc2357d	0.023707146
152	0x3cfe3571	0.031031342
153	0xbc918639	-0.017764198
154	0x3cd610c7	0.026131047
155	0x3c745ef7	0.0149152195
156	0xbd5541db	-0.052064758
157	0xbd266c0f	-0.040630396
158	0xbcd418fd	-0.025890822
159	0xbd35677a	-0.044288136
160	0x3bb9a962	0.005665944
161	0xbcbdd78a	-0.023174066
162	0x3ce64a88	0.028111711
163	0x3cc49f0f	0.024001626
164	0x3cca8af5	0.024724463
165	0x3cb4e9d0	0.022084147
166	0x3cf56e5e	0.029959854
167	0x3ce1c0d9	0.027557777
168	0x3c78d04b	0.01518638
169	0xbb97b082	-0.0046291957
170	0x3c9053f3	0.017618155
171	0x3aca2ac0	0.0015424117
172	0x3d0d7fc8	0.03454569
173	0xbd516e04	-0.05113031
174	0xbcd4d363	-0.025979703
175	0xbcda063c	-0.0266143
176	0x3b8cb8d7	0.0042944956
177	0x3d3bb753	0.04582913
178	0xbbb198a9	-0.00541981
179	0x3b347fe0	0.002754204
180	0x3bc8bb55	0.0061258473
181	0x3bd8b9d0	0.0066139475
182	0xbb0d788d	-0.0021586746
183	0xbc21e052	-0.009880142
184	0x3bdd92ad	0.00676187
185	0xbd2a63b6	-0.041598998
186	0x3d1ebce7	0.03875437
187	0x3d39e4cd	0.045384217
188	0xbd131f90	-0.035918772
189	0xbcf9656a	-0.030443866
190	0xbb0dab50	-0.0021617003
191	0xbc19c574	-0.009385455
192	0x3c41d598	0.01183071
193	0x3d4f519c	0.05061494
194	0xbd81e77e	-0.06342982
195	0x3d09c054	0.033630684
196	0x3c6e07e4	0.014528248
197	0xbd9783f8	-0.07398218
198	0x3c6bf4d1	0.0144016305
199	0xbcd4507b	-0.025917282
200	0x3c5b99d7	0.0134033775
201	0xbb206895	-0.0024476398
202	0xbc060593	-0.00818004
203	0xbcf770e2	-0.030205194
204	0x3cbe18c2	0.023205165
205	0xbcb1ba62	-0.02169532
206	0xbcf22b96	-0.029561799
207	0xbd8072ce	-0.06271897
208	0xbcb5e5e3	-0.022204345
209	0xbd1e4c59	-0.03864703
210	0xbd1a4362	-0.037661918
211	0x3cae120f	0.021248845
212	0x3cd1b4a0	0.025598824
213	0xbcc362e9	-0.023850875
214	0x395f78d4	0.00021311949
215	0xbabd5657	-0.0014445287
216	0x3baa4de8	0.0051972754
217	0x3c8f0e19	0.017462777
218	0xbcfd1914	-0.030895747
219	0xbd3aa448	-0.045566827
220	0xbceee30c	-0.029160999
221	0x3c6f365c	0.014600363
222	0xbcda8483	-0.026674515
223	0xbb468341	-0.0030290636
224	0xbcacaba0	-0.02107793
225	0x3cefcd0c	0.029272579
226	0x3ca14817	0.019687695
227	0x3cd8abfa	0.026449192
228	0xbd67e150	-0.05661136
229	0xbd5f6f2a	-0.054549374
230	0xbb54a679	-0.0032447858
231	0xbcb9f3fc	-0.022699349
232	0x3cfed83e	0.031108972
233	0x3b574003	0.003284455
234	0x3d05d24a	0.03267125
235	0xbd04bb48	-0.032405168
236	0x3aad547c	0.0013224031
237	0xbd4d4ee6	-0.05012407
238	0x3c1e0af0	0.009646162
239	0x3cf30576	0.02966569
240	0xbc42b563	-0.011884066
241	0xbcc75678	-0.024333224
242	0xbcabaefd	-0.020957464
243	0x3c9cc68e	0.019137647
244	0xba246cb1	-0.00062723
245	0xbd01a6b0	-0.031653106
246	0xbc1e05af	-0.00964491
247	0xbc249377	-0.010044924
248	0x3d081a40	0.03322816
249	0xbcc9e5bb	-0.024645677
250	0x3cd246e6	0.025668573
251	0x3ccb7d84	0.024840124
252	0xbb8ac725	-0.0042351657
253	0xbb23a1d6	-0.0024968288
254	0x3cca6e20	0.024710715
255	0xbd5e9de4	-0.054349795

bias f4 [64]
0	0xbca554b0	-0.020181984
1	0xbb974d14	-0.0046173427
2	0xbc33bf65	-0.010970925
3	0xbcff0cea	-0.031134088
4	0xbcda5819	-0.026653336
5	0xbc1628ba	-0.009164983
6	0xbce85e19	-0.028365182
7	0x3c4e1b07	0.012579686
8	0xbbfc17bd	-0.0076932595
9	0x3c02df71	0.007987843
10	0xbc9a745a	-0.018854309
11	0xbd948a8c	-0.07252988
12	0xbd71d4ce	-0.059040837
13	0xbd2d724b	-0.042345326
14	0xbc9257e8	-0.017864183
15	0xbc575129	-0.013141909
16	0xbda6dee9	-0.081479855
17	0xbd7249ee	-0.059152536
18	0xbc0f1990	-0.008734122
19	0xbb801133	-0.0039083003
20	0x3cb89a51	0.022534521
21	0xbcf8f7b5	-0.030391553
22	0xbbcf5430	-0.0063271746
23	0xbbe47e1d	-0.0069730417
24	0xbd14cba2	-0.036327012
25	0xbb9c204c	-0.0047645923
26	0xbcab368d	-0.020900035
27	0xbcfb254a	-0.03065743
28	0xbd647323	-0.055773865
29	0xbd28000e	-0.041015677
30	0xbd82e627	-0.06391554
31	0xb933a9a9	-0.00017133974
32	0xbcf58d86	-0.02997471
33	0xbd6a323f	-0.057176825
34	0xbd72d8b2	-0.059288688
35	0xbd13f26b	-0.03611986
36	0xbd4cea1c	-0.05002795
37	0xbd7f68d5	-0.062355835
38	0xbc5f70f7	-0.013637773
39	0xbccbd9f1	-0.024884196
40	0xbd0dd04f	-0.034622487
41	0xbbd0364b	-0.0063541285
42	0x3aded808	0.0017001638
43	0x3be05d8c	0.006847089
44	0xbc06a6c4	-0.008218471
45	0xbd1a0119	-0.037598703
46	0xbb9fc2b3	-0.004875505
47	0xbd2ab383	-0.041675102
48	0xbde29b6a	-0.11064799
49	0xbce653ba	-0.028116096
50	0x3c5b0e14	0.013370056
51	0x3bbd0f89	0.005769674
52	0xbd57c67b	-0.05267952
53	0xbc5fb40e	-0.013653768
54	0xbccabacb	-0.024747273
55	0xbd6f7420	-0.058460355
56	0xbcc69b1b	-0.024243882
57	0x3c8cc024	0.017181464
58	0x3d099205	0.03358652
59	0xbd40adb7	-0.047040667
60	0xbd60e137	-0.05490228
61	0xbb26bc4d	-0.0025441826
62	0xbd68845e	-0.05676686
63	0xbcf2906c	-0.029609881

weight f4 [64, 64, 3, 3]
0	0xba0643c6	-0.00051217934
1	0xbcad1ee3	-0.021132892
2	0xbd45105c	-0.048111305
3	0xbcbcd1a5	-0.023049185
4	0xbcdb7877	-0.02679084
5	0xbcd2a43e	-0.025713082
6	0x3cfcfcaf	0.030882208
7	0xbd0ef6f0	-0.034903467
8	0xbc3c617d	-0.011497852
9	0x3ce72c68	0.028219417
10	0xbcdb02f6	-0.02673481
11	0x3c88da4e	0.016705658
12	0x3d864e3b	0.0655789
13	0xbd067a03	-0.032831203
14	0xbd3ca2e6	-0.04605379
15	0xbdc05a18	-0.09392184
16	0xbd492913	-0.049111437
17	0xbb74db28	-0.0037362073
18	0xbc672aa3	-0.0141092865
19	0xbd45f896	-0.048332773
20	0x3cb8cf93	0.022559917
21	0xbc9adb0f	-0.018903283
22	0xbc3be98e	-0.011469258
23	0x3cac0334	0.020997621
24	0xbd01144b	-0.031513494
25	0xbcd451da	-0.025917936
26	0x3ba6df6f	0.0050925533
27	0x3ca07841	0.019588592
28	0x3c05139f	0.008122354
29	0xbc25ac16	-0.010111829
30	0xbcbdc176	-0.023163538
31	0x3b8fef7e	0.0043925634
32	0xbd01e661	-0.031713847
33	0x3d03cc23	0.0321771
34	0xbd612307	-0.054965045
35	0xbc1f1482	-0.009709479
36	0xbb487c6c	-0.003059174
37	0xbc6d49a6	-0.014482891
38	0xbb38073d	-0.0028080486
39	0xbce9ba36	-0.028531175
40	0xbc8afe19	-0.016966866
41	0x3ca14a40	0.019688725
42	0xbb56cc80	-0.00327757
43	0xbd9ed985	-0.07756332
44	0xbd0289c2	-0.031869657
45	0xbc9fa083	-0.019485718
46	0xbb42b17e	-0.0029707844
47	0xbd7bf7b3	-0.06151552
48	0xbd13cdc3	-0.0360849
49	0x3b1c78be	0.002387568
50	0xbd2fad14	-0.04288967
51	0xbc0755f6	-0.008260241
52	0x3d862102	0.065492645
53	0x3d00508f	0.031326827
54	0x3ac7ebeb	0.0015252804
55	0xbb836ba2	-0.0040106336
56	0xbc872918	-0.016499087
57	0x3c98783b	0.018612018
58	0xbd147154	-0.03624089
59	0x396d220b	0.00022614763
60	0xbcc6b268	-0.024254993
61	0x3c23811f	0.009979515
62	0x3cfc8979	0.03082727
63	0xbcaf3287	-0.021386398
64	0x3ccb92b4	0.024850227
65	0xbd87973b	-0.06620642
66	0x3c7073af	0.014676019
67	0xbaa50936	-0.0012591246
68	0xba3de8bf	-0.00072444597
69	0xbd2ff887	-0.042961624
70	0x3a9a9ea0	0.0011796542
71	0xbd2de3b3	-0.04245348
72	0xbd81871e	-0.063246
73	0xbd8c45ca	-0.06849249
74	0xbcf99007	-0.030464185
75	0x3c0d8576	0.008637777
76	0xbc20a60a	-0.009805212
77	0xbd268e0d	-0.040662814
78	0xbc1e675e	-0.009668199
79	0xbd5aa0a2	-0.053375848
80	0x3c0b92e6	0.00851891
81	0x3c4142d3	0.011795717
82	0xbcf9ab64	-0.030477233
83	0x3cd46719	0.025928067
84	0xbca3cd7f	-0.01999545
85	0xbcd0db37	-0.025495155
86	0xbd5fea67	-0.054666903
87	0xbd85c0ba	-0.065309
88	0xbcfb6e14	-0.030692138
89	0xbd1069c3	-0.035257112
90	0xbc9892ef	-0.01862475
91	0x3c006bfd	0.007838246
92	0xbd830357	-0.063971214
93	0xbd3de297	-0.04635867
94	0xbcb835d9	-0.022486614
95	0xbd333814	-0.043754652
96	0x3cdb30aa	0.026756603
97	0xbd0519f3	-0.03249545
98	0xbd409428	-0.047016293
99	0x3cceb6f3	0.025233721
100	0x3cca0ab3	0.024663305
101	0x3cc6969c	0.024241738
102	0xbd3e0837	-0.046394553
103	0xbd090543	-0.033452284
104	0xbcc8b464	-0.02450008
105	0xbbba1594	-0.005678842
106	0xbcc07694	-0.023494042
107	0xbd470c61	-0.04859579
108	0x3d00a522	0.031407483
109	0xbcaad125	-0.020851681
110	0xbd2bd36b	-0.04194967
111	0x3bc8f578	0.006132778
112	0x3c3d603c	0.011558589
113	0x3bd1a57b	0.0063979006
114	0x3d68dd72	0.05685181
115	0x3ce018c0	0.027355552
116	0xbca9e980	-0.020741224
117	0x3b8e5944	0.0043441374
118	0x3c0220ac	0.00794236
119	0xbc5f3ab4	-0.013624836
120	0xbca9fcf4	-0.0207505
121	0x3b00b99a	0.0019641877
122	0xbc52cd6f	-0.012866362
123	0xbcb7dfac	-0.022445522
124	0xbb9166bd	-0.004437296
125	0x3d029f81	0.031890396
126	0xbc070220	-0.008240253
127	0xbbf3481b	-0.007424367
128	0x3c47df4d	0.012199235
129	0x3cb40135	0.021973232
130	0xbcc27f0f	-0.023742227
131	0xbc4980e8	-0.0122988
132	0xbab00044	-0.0013427814
133	0xbc926da3	-0.017874544
134	0xbcee0d20	-0.029058993
135	0xbb80e1ea	-0.003933181
136	0xbc23b08d	-0.009990823
137	0xbd1db886	-0.038506053
138	0xbd1a48c2	-0.037667044
139	0xbd62c84a	-0.05536679
140	0xbbf736a8	-0.0075443573
141	0x3b6654aa	0.0035145679
142	0xbba9b64b	-0.0051792017
143	0xbd6abcf2	-0.0573091
144	0xbb4ec8ff	-0.0031552908
145	0x3c30c983	0.010790232
146	0xbcaa11a2	-0.020760361
147	0xbd4db224	-0.050218716
148	0xbbce4d13	-0.006295809
149	0x3c1e5a5d	0.009665099
150	0x3c502e5c	0.012706365
151	0xbc41ffab	-0.011840741
152	0x3cf570e0	0.02996105
153	0xbd1b95a1	-0.037984494
154	0xbcf14419	-0.029451417
155	0x3b82dea2	0.003993825
156	0x3ce378ec	0.027767621
157	0x3b1fbfed	0.0024375871
158	0xbb497221	-0.0030738192
159	0xbd109e56	-0.03530725
160	0x3cf55b9a	0.029950906
161	0xbb1298f3	-0.0022368997
162	0xbb9013a7	-0.004396874
163	0x3c41ece4	0.011836264
164	0x3c0720da	0.0082475785
165	0x3ca1cbc4	0.019750483
166	0xbbdc9074	-0.0067310873
167	0xbc647e9b	-0.013946201
168	0xbd51a3dc	-0.05118166
169	0xbc304e87	-0.01076091
170	0xbd1acb49	-0.037791524
171	0xbcaa8f2d	-0.020820225
172	0xbc91a9c9	-0.017781155
173	0xbc980f04	-0.018561848
174	0x3cddbff3	0.027069068
175	0xbc9e79fe	-0.01934528
176	0x3c5d67dc	0.013513532
177	0x3bae3807	0.0053167376
178	0x3cb1edfc	0.021719925
179	0xbce1c903	-0.02756167
180	0xbc4b40b4	-0.012405563
181	0xbd096941	-0.033547644
182	0x3c9fa021	0.019485535
183	0x3ca93c8b	0.020658752
184	0xbc3bec16	-0.0114698615
185	0xbd328785	-0.043586273
186	0xba8c4aae	-0.0010703409
187	0xbd962578	-0.07331365
188	0x3c11fe9b	0.0089108
189	0xbc699d02	-0.014258625
190	0x3c862787	0.01637627
191	0x3acefc3c	0.0015791724
192	0xbcaef658	-0.0213577
193	0xbd28ab30	-0.041178882
194	0x3c8df432	0.017328355
195	0xbd0a086d	-0.03369944
196	0xbd05cc88	-0.03266576
197	0x3c226f78	0.0099142715
198	0x3c0c1434	0.008549739
199	0xbcf8da13	-0.030377423
200	0x378dd5cd	1.6908069e-05
201	0xbb801495	-0.0039087036
202	0x3c989149	0.018623965
203	0x3c08ff5d	0.008361665
204	0xbb4e9123	-0.0031519614
205	0xbd128c83	-0.035778534
206	0x3d31531d	0.043292154
207	0xbcd6f222	-0.026238505
208	0xbc6ee018	-0.014579795
209	0x3d010563	0.031499278
210	0xbab8c6b7	-0.0014097308
211	0xbc05882c	-0.008150142
212	0xbd044ab8	-0.03229782
213	0xbd49dec0	-0.049284697
214	0xbd27f349	-0.0410035
215	0xbca75523	-0.020426339
216	0xbcd8296d	-0.02638694
217	0xbcb9143c	-0.022592656
218	0xbd43ff47	-0.047850873
219	0xbcdf62b8	-0.027268752
220	0xbc324a01	-0.010881902
221	0xbc4bf3c3	-0.012448254
222	0xbcde9268	-0.027169421
223	0x3cbdf1ae	0.02318653
224	0xbd2a10ea	-0.041520037
225	0x3c8ea3e2	0.01741213
226	0x3cc539df	0.024075447
227	0xbc444e3d	-0.011981544
228	0xbb8d9cec	-0.004321685
229	0xbd1fd339	-0.039019797
230	0xbb2b37a2	-0.002612569
231	0xbd52d79e	-0.05147516
232	0x3cae4938	0.021275148
233	0x3941f3ad	0.0001849669
234	0xbc66ebab	-0.014094274
235	0x3cb1617e	0.021652933
236	0xbb22038d	-0.0024721355
237	0xbbff91af	-0.0077993493
238	0xb9876775	-0.00025826288
239	0x3b8af4c7	0.0042406055
240	0x3cc24148	0.02371277
241	0xbcda7431	-0.026666733
242	0xbd5f8694	-0.054571703
243	0xbc1e344f	-0.009656026
244	0x3a306d27	0.0006730132
245	0xbca12ce9	-0.019674735
246	0xbd2f1d5a	-0.0427526
247	0xbb0ae694	-0.0021194564
248	0xbcc77dea	-0.024352033
249	0x3d4fce72	0.05073399
250	0xbd61af7e	-0.055099003
251	0x3cc5d91b	0.024151376
252	0xbbdee2fb	-0.0068019605
253	0x3bc2fcea	0.00595056
254	0x3cb253e1	0.021768512
255	0x3d038b3b	0.032115202

bias f4 [64]
0	0x3c811250	0.015755802
1	0xbbbeda7e	-0.005824386
2	0xbd455f3c	-0.048186526
3	0xbd246d9d	-0.040143598
4	0xbc58c0d2	-0.013229566
5	0x3c26f2d6	0.010189733
6	0x3d8deca0	0.06929898
7	0xbd8ec483	-0.069710754
8	0xbcf22e03	-0.029562956
9	0xbb2ea063	-0.002664589
10	0xbcb5fb5f	-0.02221459
11	0xbc2e0f79	-0.010623806
12	0x3bf0ee79	0.007352647
13	0xbc907bdc	-0.017637186
14	0xbbb444e0	-0.0055013746
15	0xbd5ed08c	-0.054398105
16	0xbbea330b	-0.007147198
17	0xbcd48757	-0.025943441
18	0xbc4be50d	-0.012444747
19	0xbcdd36c4	-0.027003653
20	0xbd0c989b	-0.034325223
21	0xbd02b2fa	-0.031908967
22	0x3b6ea45f	0.003641389
23	0x3b2caebe	0.0026349272
24	0xbd17881a	-0.03699503
25	0x3c3bf315	0.0114715295
26	0x3b939b47	0.0045045945
27	0xba68a209	-0.0008874243
28	0x3cf59766	0.029979419
29	0x3c815139	0.0157858
30	0xbc8d45f5	-0.017245272
31	0x3d2fc1d6	0.042909466
32	0xbc374a4b	-0.011187146
33	0xbb0e253f	-0.002168968
34	0xbcc02850	-0.023456722
35	0xbcdd51a9	-0.027016478
36	0xbd0d1979	-0.03444812
37	0xbd014510	-0.031560004
38	0x3c2e2a7c	0.010630246
39	0xbd70534d	-0.05867319
40	0xbca62f59	-0.020286249
41	0x3cf27490	0.029596597
42	0xbc3ae817	-0.011407874
43	0x3d070e12	0.032972403
44	0xbce370e2	-0.027763788
45	0xbb20ae5b	-0.0024517986
46	0x3d015d21	0.031582955
47	0xbcf285a6	-0.029604744
48	0xbc5c8128	-0.013458528
49	0x3d0fb680	0.035086155
50	0x3d44c776	0.048041783
51	0x3c939883	0.01801706
52	0x3c826653	0.015917933
53	0xbd1e07f0	-0.03858179
54	0x3b420c73	0.002960947
55	0xbd55cc50	-0.0521968
56	0x3d3f2e7b	0.046675187
57	0x3caeab7f	0.02132201
58	0xbc08f8cf	-0.008360102
59	0xbd718ce2	-0.058972247
60	0xbcd2e002	-0.02574158
61	0xbd19aa43	-0.03751589
62	0xbb995993	-0.0046798675
63	0xbcb9ce6c	-0.022681437

weight f4 [9, 3136]
0	0x3c7eae9c	0.01554456
1	0xbca8061b	-0.020510724
2	0x3c669443	0.014073434
3	0x3c845e69	0.0161583
4	0xbd08ef41	-0.033431295
5	0xb955af38	-0.00020378537
6	0x394a055c	0.00019266218
7	0xbc24e562	-0.010064455
8	0xbbc0237b	-0.0058636046
9	0xbbd271ed	-0.0064222724
10	0x3cabb2c0	0.020959258
11	0x3cd16430	0.025560468
12	0x3ca79f7e	0.020461794
13	0xba3ab806	-0.00071227585
14	0xbcd03f2b	-0.025420746
15	0x3bb41043	0.0054951026
16	0xbca5e04b	-0.020248553
17	0x3c76d2f4	0.015064944
18	0xbccc39bc	-0.024929874
19	0x3ca7e415	0.0204945
20	0x3ba5dad1	0.0050614853
21	0xbb82ad86	-0.0039879708
22	0xbca43de1	-0.020049037
23	0xbc0c78b1	-0.008573697
24	0xbba9fff7	-0.005187984
25	0xbae7da2e	-0.0017688924
26	0x3c6397be	0.013891159
27	0x3b9201e5	0.0044557923
28	0xbc885a53	-0.016644632
29	0xbb9c3c42	-0.0047679255
30	0xb9c897d2	-0.00038260088
31	0x3c7b719f	0.015346914
32	0x3b4280ca	0.0029678815
33	0xbc891f85	-0.016738662
34	0x3af560f1	0.0018720907
35	0x3ccc6e7d	0.024955029
36	0x3d5871d4	0.05284293
37	0x3cf01068	0.029304698
38	0x3b66f68e	0.0035242173
39	0x3c2a38ad	0.010389489
40	0xb88b7137	-6.6491244e-05
41	0x3c815d71	0.015791627
42	0xbc1d8198	-0.009613417
43	0xbcaa3a46	-0.02077974
44	0xbc70fc4b	-0.014708589
45	0xbbe98d38	-0.0071274303
46	0xbb698418	-0.0035631713
47	0xbaedf717	-0.0018155304
48	0xbbbac26f	-0.005699448
49	0x3c8ba6a6	0.017047238
50	0xbc7ed282	-0.015553119
51	0xbca5d0f7	-0.020241244
52	0xba672936	-0.00088180916
53	0xbc697e97	-0.014251373
54	0xbb578b70	-0.0032889508
55	0xbc96c648	-0.018405095
56	0xbb6907a0	-0.0035557523
57	0x3bde485e	0.006783529
58	0xbba2cdb1	-0.004968368
59	0xbbda8ebd	-0.0066698478
60	0xbb3c9c79	-0.0028779788
61	0x3cbbfaff	0.022946833
62	0xbba03425	-0.0048890286
63	0x3c042c96	0.008067271
64	0xbd0cd452	-0.034382172
65	0xbb1fd154	-0.0024386244
66	0xbba9d8b0	-0.005183302
67	0xbb9cd3fc	-0.0047860127
68	0xbb6efd9c	-0.003646708
69	0xb987dada	-0.00025912264
70	0x3cb346f1	0.021884413
71	0x3c5b99d3	0.013403374
72	0x3b88164c	0.0041530486
73	0xbc6fa487	-0.014626629
74	0xbc361e11	-0.011115567
75	0xbc0346ef	-0.008012517
76	0xb9b21011	-0.00033962776
77	0xbc2351da	-0.009968245
78	0xbc81cf1b	-0.015845826
79	0xbc317393	-0.010830778
80	0xbb7f8ea4	-0.0038994933
81	0xb9bdc857	-0.00036198154
82	0x3cb15b0e	0.021649864
83	0xbc653752	-0.01399024
84	0xbca4f83b	-0.020137897
85	0xbc54b60d	-0.012982857
86	0x3b071300	0.002061069
87	0xb9a9392b	-0.00032276785
88	0xbcdda717	-0.027057214
89	0xbb186707	-0.0023254768
90	0xbbf0b5a7	-0.0073458734
91	0x3cd916c1	0.026500108
92	0x3d23a8ea	0.03995601
93	0xbc2e95fb	-0.010655875
94	0x3986b9f8	0.0002569703
95	0x3cd8f306	0.02648307
96	0x3c0a3947	0.008436508
97	0x3bdffedc	0.0068358015
98	0x3c4e96c4	0.0126091875
99	0x3bfce999	0.0077182767
100	0x3c4e2dd8	0.012584172
101	0xbc399abc	-0.011328395
102	0x3d0f483f	0.03498101
103	0x3b86b957	0.0041114497
104	0xbb0671e6	-0.0020514666
105	0xbc8663fd	-0.0164051
106	0x3be9187e	0.0071135154
107	0xbc024ab7	-0.007952384
108	0xbc2e1d2f	-0.010627075
109	0x3c958332	0.018251035
110	0x3c3319bb	0.010931428
111	0xbbe6dc72	-0.007045322
112	0x3a1c9d73	0.00059743895
113	0x3bf5b2e4	0.007498132
114	0xbce25ba3	-0.027631586
115	0x3c161617	0.00916054
116	0xbb08e69a	-0.0020889402
117	0xbabd8468	-0.0014459016
118	0xbc0a6119	-0.008446001
119	0x3c0e3cf4	0.008681525
120	0x3c1cc92d	0.009569448
121	0x3b8d3cce	0.004310227
122	0xbb8f9329	-0.0043815565
123	0xbb1259d4	-0.0022331374
124	0xbad389e1	-0.0016139114
125	0xbb9bb2fe	-0.004751562
126	0xbc9f6445	-0.019456992
127	0x3c4ccbfd	0.0124998065
128	0x3c5871ba	0.013210708
129	0xbb25bf83	-0.0025291152
130	0x3bd695ef	0.006548635
131	0x3d1118ca	0.03542403
132	0xbc8bc2d3	-0.017060673
133	0xbb871259	-0.0041220603
134	0x3c79ae26	0.015239274
135	0xbb73773b	-0.0037149924
136	0xbbaf2745	-0.0053452575
137	0xbc45a92f	-0.012064262
138	0x3b80323a	0.0039122375
139	0x3cab4e7c	0.020911448
140	0x3c5c1077	0.01343166
141	0xbc238c5c	-0.009982195
142	0x3cadd78c	0.021220945
143	0xbc88170d	-0.016612554
144	0x3abaa223	0.0014238994
145	0x3c9b6795	0.01897029
146	0x3c4bcdda	0.012439216
147	0xbc16f14a	-0.009212801
148	0x3c8b4826	0.017002176
149	0x3d0bdd4f	0.034146603
150	0x3c143fdc	0.009048428
151	0xbc16e8ef	-0.009210809
152	0x3ca662d8	0.020310804
153	0x3b8af282	0.004240335
154	0x3c3590ee	0.011081917
155	0xb95cd1b4	-0.00021058955
156	0xbb29163b	-0.0025800604
157	0x3c38c41c	0.011277225
158	0x3ba6c82d	0.005089781
159	0x3b80f082	0.0039349208
160	0xbcbf7077	-0.023369057
161	0x3bb5b411	0.005545147
162	0x3c28abcc	0.010294866
163	0xbd078ee2	-0.033095248
164	0xbb1dbaee	-0.0024067718
165	0x3c6bc359	0.014389836
166	0xbc27f1f5	-0.010250558
167	0x3c7af700	0.015317678
168	0x3be40289	0.00695831
169	0x3b68f21b	0.0035544697
170	0xbc42aa59	-0.011881434
171	0xbbd2b093	-0.0064297407
172	0xbc139b34	-0.009009171
173	0x3c5b0de0	0.013370007
174	0x3cc1fe62	0.02368087
175	0xbca05a9d	-0.019574458
176	0x3b822932	0.003972196
177	0xbc7faff0	-0.015605912
178	0xbc81bc2a	-0.015836794
179	0xbc6299f5	-0.0138306515
180	0x3b987f72	0.0046538645
181	0xb91555f2	-0.00014241764
182	0xba863211	-0.001023831
183	0x38b09a4f	8.421076e-05
184	0xbb932313	-0.004490265
185	0x3cb97a3d	0.022641296
186	0x3cadf9da	0.021237303
187	0xbb86c376	-0.004112656
188	0xba61b3fb	-0.0008609888
189	0xbb4b589a	-0.0031028152
190	0xbc49e8aa	-0.012323538
191	0xbb36336f	-0.0027801653
192	0xbb0d9798	-0.002160525
193	0xbe055420	-0.13020372
194	0x3b047be4	0.0020215446
195	0x3aa8fa58	0.0012891991
196	0x3acbcfb2	0.0015549569
197	0x3c7c4365	0.0153969275
198	0xbb450adc	-0.0030066287
199	0x39047fd3	0.00012636119
200	0x3c02876e	0.007966859
201	0x3c0346ec	0.008012515
202	0xbc9b78ae	-0.018978443
203	0x3c83e9ec	0.016102754
204	0x3c1bb9e2	0.009504767
205	0xbc0e87f6	-0.008699408
206	0x3c56f9ac	0.01312105
207	0x3bce362c	0.006293079
208	0x3c0a27fb	0.008432384
209	0x3ac579f6	0.0015066254
210	0x3c6c73ab	0.014431874
211	0xbbcad75c	-0.0061902236
212	0x3c947283	0.01812101
213	0x3c9a2b68	0.018819526
214	0xbb85be5f	-0.004081532
215	0x3c57941d	0.013157872
216	0x3c828e30	0.01593694
217	0x3c4575cf	0.012052014
218	0x3b95908d	0.004564351
219	0x3bd0f449	0.0063767773
220	0xbcc0206d	-0.023452962
221	0xbc0a6d44	-0.0084489025
222	0x3cff0ac9	0.031133072
223	0x3b06c49b	0.0020563963
224	0x3c73a320	0.014870435
225	0xbc748925	-0.014925276
226	0xbb3fdf2e	-0.0029277313
227	0xbc0d9102	-0.00864053
228	0x3c8ab484	0.01693178
229	0xbbac6b7c	-0.0052618366
230	0xbb001b3b	-0.001954748
231	0xbcbba34b	-0.022905013
232	0xbd03984f	-0.032127675
233	0x3d09503f	0.033523794
234	0x3b2c4380	0.002628535
235	0x3c385aaa	0.011252085
236	0xbc8b0f6f	-0.016975133
237	0xbbaffb74	-0.0053705517
238	0x3d1e94d2	0.038716145
239	0x3c6c853c	0.014436062
240	0x3b2674c3	0.0025399185
241	0xbdab1548	-0.083536685
242	0xbc4065c7	-0.011743016
243	0xbb849545	-0.0040461146
244	0x3c968454	0.018373646
245	0x3b68498a	0.0035444223
246	0x3c4eee04	0.01262999
247	0x3c16181f	0.009161024
248	0x3c673016	0.014110586
249	0xbb614ce1	-0.0034378099
250	0x3d28c5ad	0.041204143
251	0xbc29bd81	-0.010360123
252	0xbc18a43a	-0.009316498
253	0x3c9779ba	0.018490661
254	0x3aac8a0d	0.0013163701
255	0x3afb3151	0.0019164478

bias f4 [9]
0	0x3bf5ad17	0.0074974406
1	0xbb4155b2	-0.0029500541
2	0x3c78aa0c	0.015177261
3	0xbca654bc	-0.020304076
4	0xbccfc524	-0.025362559
5	0x3cfef60a	0.03112318
6	0x3bc12890	0.005894728
7	0xbbb3b624	-0.0054843593
8	0xbc13947e	-0.009007571

weight f4 [1, 3136]
0	0x3a50dc34	0.0007967383
1	0xbc3e1837	-0.011602453
2	0xbc66312f	-0.014049812
3	0x3c59c46c	0.0132914595
4	0xbc33ca46	-0.010973519
5	0x3b4d5fcb	0.0031337615
6	0xbaad9fa1	-0.0013246426
7	0x3bd8bfd3	0.006614664
8	0xbc6f9fad	-0.014625472
9	0x3cb2b523	0.021814888
10	0x3b71d771	0.0036902095
11	0x3aa3ca9c	0.0012496295
12	0x3b1c1f91	0.0023822526
13	0x3c94d0af	0.018165914
14	0x3cb35a04	0.021893509
15	0x3c4bf712	0.012449043
16	0xbc80343b	-0.015649905
17	0x3c973e0b	0.018462202
18	0xbca43f50	-0.020049721
19	0x3c1b9624	0.0094962455
20	0xbaaced7d	-0.0013193336
21	0x3b9a3672	0.0047061974
22	0xbc1f75bd	-0.009732661
23	0x3acdf180	0.0015712231
24	0xbc9baefb	-0.019004336
25	0xbb888564	-0.004166292
26	0x3ce0255a	0.02736156
27	0xbb0bfef2	-0.0021361676
28	0x3c708fc9	0.014682719
29	0x3ba78bf2	0.0051131183
30	0x3b90eaaa	0.0044225054
31	0x3b2be95a	0.0026231618
32	0xbaa08f14	-0.0012249672
33	0xbc42eb36	-0.011896899
34	0x3bc35a6a	0.005961706
35	0x3cb1271e	0.021625098
36	0xbc62c52e	-0.013840957
37	0x3c3ad6c3	0.011403742
38	0x3a96d8ba	0.0011508681
39	0xbc33db31	-0.010977552
40	0xbc254559	-0.010087335
41	0xbbd04267	-0.006355572
42	0x3c45492b	0.01204137
43	0xbb6c6e31	-0.0036076421
44	0x3b171551	0.0023053477
45	0xbab9aa58	-0.0014165146
46	0xbcc4b121	-0.024010243
47	0x3b8b76b1	0.0042560925
48	0xbbbb9444	-0.0057244617
49	0xbc5d4f7c	-0.01350772
50	0xbc36d039	-0.011158043
51	0x3bce87ac	0.0063027944
52	0xbca32d6b	-0.019919118
53	0xbc95770d	-0.018245244
54	0xbc25c295	-0.010117193
55	0x3c692481	0.014229895
56	0x3bf86a7a	0.0075810524
57	0xbc9dd33d	-0.019265765
58	0x3ce1a55c	0.02754467
59	0xbc2deaf0	-0.0106150955
60	0x3cf50859	0.029911207
61	0xbb3ec917	-0.0029111558
62	0x3aa41e26	0.0012521192
63	0x3cb7b177	0.022423489
64	0x3ca3b79b	0.01998501
65	0x3bb230b4	0.005437935
66	0xbb0604ef	-0.0020449718
67	0x3b49bff1	0.0030784572
68	0xbc42a22c	-0.011879485
69	0xbca50dc7	-0.020148171
70	0x3c6016c7	0.013677306
71	0xbc353ae0	-0.0110614
72	0x3c893199	0.016747283
73	0xbb49e096	-0.003080403
74	0xb9ee3b8f	-0.00045439272
75	0xbb2fb88e	-0.0026812884
76	0xbcdc4f11	-0.02689317
77	0xbb943f08	-0.0045241155
78	0xbcad6c2f	-0.02116975
79	0xbca2ccaf	-0.019872991
80	0x3bbedbbf	0.0058245356
81	0xbbb6dc4b	-0.00558046
82	0x3bb3a7ab	0.005482634
83	0x3c200ff1	0.009769426
84	0xbc77fb49	-0.015135595
85	0x3cc7ba98	0.024380967
86	0xbabd253e	-0.0014430655
87	0x3ca0ddc8	0.019637004
88	0x3bc450ed	0.0059910924
89	0x3cc7a643	0.024371272
90	0x3c4a389f	0.012342601
91	0xbc069c84	-0.008216027
92	0xba83d31b	-0.0010057421
93	0x3b75b386	0.0037491038
94	0xbc3e2689	-0.011605867
95	0xbca60a64	-0.020268627
96	0xbb317b77	-0.0027081647
97	0xb9f8d62e	-0.00047461822
98	0xbb242a39	-0.002504958
99	0xbb242404	-0.002504588
100	0x3c7272cd	0.014797878
101	0x3c4e67bb	0.012597973
102	0xba7d724f	-0.00096682174
103	0xbb9e4c65	-0.0048308843
104	0xbc65214c	-0.013984989
105	0xbc13550a	-0.008992443
106	0xbc126deb	-0.008937339
107	0xbb1b76ca	-0.0023721927
108	0x3c67e5c9	0.014153906
109	0x3c105212	0.00880863
110	0x3a1aa8d6	0.00058997923
111	0x3aee3324	0.00181732
112	0xbb9764f6	-0.00462019
113	0xbc9772f7	-0.018487437
114	0xbbd20a5e	-0.0064099273
115	0x3c554fb8	0.013019495
116	0xbb1a5138	-0.0023546945
117	0xbaceb59e	-0.0015770679
118	0xbc693f17	-0.014236233
119	0x3acc67c3	0.0015594888
120	0xbc0f8b6f	-0.008761271
121	0x3c5469dc	0.012964692
122	0xbb20eef3	-0.0024556487
123	0x3b2f3952	0.0026737046
124	0x3a7be9c2	0.0009609723
125	0xbbf71162	-0.007539914
126	0xbbc5b7ac	-0.0060338583
127	0x3bbaf929	0.0057059717
128	0xbc104554	-0.008805592
129	0xbbf51610	-0.0074794367
130	0x3c69dff2	0.014274584
131	0xbc8a7e68	-0.016905978
132	0x3cccdb74	0.025006987
133	0x3bc6cec0	0.006067127
134	0xbc65ba85	-0.0140215205
135	0x3c1030a9	0.008800664
136	0x3c6833dc	0.0141725205
137	0xbc2fea32	-0.010736989
138	0x3c42352b	0.011853497
139	0xbb1fc872	-0.002438095
140	0xbb74a883	-0.0037331886
141	0x3c580469	0.013184645
142	0xbadeffa2	-0.001701344
143	0xba7ac171	-0.0009565568
144	0x3c0f6e2f	0.008754297
145	0x3940b43e	0.00018377692
146	0xbb554337	-0.0032541284
147	0xbd0b2c1e	-0.03397762
148	0x3be85ab4	0.007090891
149	0x3c8b818b	0.017029544
150	0xbb662029	-0.0035114384
151	0x3bb8ef0b	0.0056437305
152	0xbd194210	-0.037416518
153	0x3c60eb73	0.0137280105
154	0x3d08229c	0.03323613
155	0x3c3468d7	0.011011324
156	0x3a7c9e4c	0.0009636625
157	0xbbfe1f81	-0.0077552204
158	0x3c53cdb8	0.012927465
159	0x3c0608cf	0.008180811
160	0x3c7afa1b	0.015318419
161	0x3c1fbbd2	0.00974937
162	0xbad80b10	-0.0016482789
163	0xbb942c42	-0.0045218775
164	0xbc6042e8	-0.013687827
165	0x3b07de99	0.0020732044
166	0xbc3ce3de	-0.011528937
167	0xbc9c5cd2	-0.019087229
168	0x3a9f4956	0.0012152593
169	0x3b056b04	0.0020357976
170	0x3c9f7463	0.019464677
171	0xbba4c7ff	-0.005028724
172	0xbb1810b7	-0.0023203322
173	0xbc0e4d51	-0.008685426
174	0xbb1e5cce	-0.0024164203
175	0x3bb169f9	0.0054142443
176	0xbb343a9e	-0.002750076
177	0xbbc5743e	-0.00602582
178	0xbbf331a3	-0.0074216886
179	0xbcb4ae74	-0.022055842
180	0x3c86199a	0.01636963
181	0x3cd82e5f	0.026389299
182	0xb8a6b8a0	-7.949886e-05
183	0x3c6d0e4e	0.014468743
184	0xbcea3e87	-0.028594268
185	0xbaf462a7	-0.0018645123
186	0x3c1dd41d	0.009633091
187	0x3c6a4c35	0.014300396
188	0x3c57ee14	0.013179321
189	0xbc38ffe9	-0.0112914825
190	0x3c86bf47	0.01644863
191	0xbc8b65df	-0.01701635
192	0x3b57583b	0.0032858986
193	0x3c8b0761	0.016971292
194	0xbb2e0225	-0.0026551571
195	0x3977f832	0.00023648216
196	0x3bc89a91	0.0061219414
197	0x3bdd82ff	0.0067600007
198	0xbb148816	-0.0022664121
199	0xbb0c31ca	-0.0021391981
200	0xbca761d8	-0.020432398
201	0x3b776563	0.003774964
202	0x3b8450a8	0.0040379353
203	0xbc1f4869	-0.009721854
204	0x3b9c91ff	0.0047781463
205	0xbbb3adea	-0.0054833787
206	0xbc1db542	-0.009625735
207	0xbc83d221	-0.016091408
208	0xbcf93cd1	-0.030424507
209	0xbc251eb3	-0.01007812
210	0xbbefea60	-0.007321641
211	0xbb116a43	-0.002218858
212	0xbb3df6f6	-0.0028986312
213	0x3c477e35	0.012176086
214	0xbcd867f3	-0.026416754
215	0xbb7b88b9	-0.0038381054
216	0x3b82a440	0.0039868653
217	0x3c863866	0.016384315
218	0x3c871729	0.016490536
219	0xbc612f19	-0.013744139
220	0xbc3be346	-0.01146776
221	0xbcc83c04	-0.02444268
222	0x3c5d0e18	0.01349213
223	0x3a2e5d9a	0.0006651521
224	0xbc5ebd2e	-0.013594909
225	0xbc029fe8	-0.007972695
226	0xbc96728e	-0.01836517
227	0x3d03e14a	0.032197274
228	0x3a9e9788	0.0012099603
229	0xbae8d666	-0.0017764091
230	0xbc6d16ea	-0.014470795
231	0xbc9d5bd5	-0.019208828
232	0xbc0868b3	-0.0083257435
233	0x3c851e6b	0.016249856
234	0x3c0c27cd	0.008554411
235	0xbc0d851c	-0.008637693
236	0xbcbb7ca9	-0.022886591
237	0x382788de	3.994337e-05
238	0xbd255e6f	-0.040373262
239	0xbc505f4c	-0.012718033
240	0x3bdc2760	0.006718561
241	0x3a714d95	0.0009204981
242	0x3bc87052	0.0061169052
243	0x3c3447c9	0.011003443
244	0x3c0ed62a	0.008718053
245	0x3c3f1704	0.011663202
246	0xbbcc08da	-0.006226641
247	0x3c7ae115	0.015312453
248	0x3bfb0b6c	0.0076612737
249	0x3ca88634	0.020571806
250	0xbb972ff4	-0.0046138708
251	0xb9c036c9	-0.00036661912
252	0xbbfc63ea	-0.0077023404
253	0xbb3e3b9d	-0.0029027232
254	0x3c491e1e	0.012275247
255	0xbc4c063c	-0.012452658
