ICM/Pacman/FINAL.MsPacmanNoFrameskip-v4.MODEL (torch_old, 455504 bytes, 9 tensors)

weight f4 [32, 4, 8, 8]
000000 37 ee 9c bd 32 2b 35 bc bc ef 1d 3e 16 e2 da bd
       -0.076626234 -0.011057662 0.15423483 -0.10687654
000010 02 db 0f bd fe 2b ad bd 73 b6 e1 bd 83 3a 20 bc
       -0.03512097 -0.084556565 -0.110211276 -0.009779575
000020 69 22 8e 3d 12 a9 78 3d 9d 38 9e 3d 13 6e 38 bd
       0.06940157 0.060708113 0.07725642 -0.04502685
000030 d8 96 b4 bd 6b 50 c3 3d 44 80 0a 3d 0c c2 0b be
       -0.08817834 0.09536823 0.03381373 -0.13648242
000040 4a f2 5b 3d 81 1c b1 bd 6e 31 8c bc 7c 07 fb bd
       0.05369786 -0.08648015 -0.017113414 -0.12257287
000050 e5 6d 8b bd 7e 66 86 bd 8b bf c8 bd 43 5d ef 3d
       -0.0680807 -0.065625176 -0.09802159 0.1168771
000060 ab 4d 6e bd 6d 90 c4 bd 95 c5 1f bd 8b fb 7b bd
       -0.05817954 -0.095978595 -0.03900679 -0.061519187
000070 d7 6e ed bd 1c 1a 07 3d a8 95 b8 bd 5c 49 07 be
       -0.11593407 0.032983884 -0.0901292 -0.13211578
000080 d2 b0 7b 3d 66 51 03 3d c0 ea b9 bd fd 2c 0f 3d
       0.061447926 0.03206005 -0.09077978 0.034955014
000090 94 dd 54 bd f1 82 2f bd 3a 20 84 bd c3 bb f6 bc
       -0.051969126 -0.042849485 -0.06451459 -0.030118829
0000a0 2a 04 0a 3e bb d2 df 3d 7d 25 be 3d 90 9f 25 be
       0.13478151 0.109288655 0.09284494 -0.1617415
0000b0 89 8a 84 3d 6c 1b 8d bd b0 bf 1e bc 3e 28 66 bc
       0.06471736 -0.06889996 -0.009689257 -0.01404768
0000c0 3d 77 af 3d 14 de 75 3d 5b 22 08 3e 8f 62 9a 3c
       0.08567665 0.060026243 0.13294356 0.018845825
0000d0 be f3 df 3d ea a6 1a 3d e1 f8 ec bd 58 0e ae 3d
       0.10935162 0.037756838 -0.115709074 0.084988296
0000e0 21 99 5b bd dd b4 b7 bd 3c a2 f0 3c c0 43 d5 bd
       -0.053612832 -0.08970044 0.029374234 -0.10413313
0000f0 36 85 2a 3d 27 28 b2 bd 52 ca ba 3d 88 40 e8 bd
       0.041630946 -0.08699065 0.09120621 -0.11340433
000100 fc a7 f9 3d fe 7d 17 3e 93 24 ad 3d de e9 9b 3d
       0.121902436 0.14794156 0.084542416 0.07612966
000110 43 42 5c bd 61 7f c9 3d 81 f6 76 3d a1 19 04 be
       -0.05377413 0.09838749 0.06029368 -0.12900402
000120 c2 ed ca 3d b3 13 49 3d 4f df e5 3d 70 11 a1 bd
       0.0990863 0.049091052 0.11224233 -0.07864654
000130 4c f5 94 3c c2 86 c0 bc ee 01 15 3e 88 db c8 bc
       0.018183373 -0.023501758 0.14551517 -0.024518743
000140 7f 2f 03 bd ec 89 2b 3d 26 08 6e 3d 88 67 ab bd
       -0.032027718 0.04187958 0.05811324 -0.083693564
000150 b8 11 8b 3c 76 b2 d2 bd d4 6f 26 be c0 38 df bd
       0.016976222 -0.10287945 -0.16253597 -0.10899496
000160 18 92 ff bd b5 44 65 bc d5 88 72 bd 4f b0 59 3d
       -0.12479037 -0.013993432 -0.059212524 0.053146657
000170 ec d0 ff bd fe aa d1 3d 0b 76 30 be 0e a8 f9 bd
       -0.124910206 0.10237692 -0.1723253 -0.12190257
000180 83 a9 3d bc 46 05 0a be 05 52 07 be c7 c4 8f bc
       -0.011576059 -0.13478574 -0.13214882 -0.017549885
000190 5d 2d 8a bd ed d8 06 3c 1a 9d b9 bd 8d d1 9b 3d
       -0.067469336 0.00823043 -0.09063168 0.07608328
0001a0 a2 9b d7 3d 02 fd d5 3d 9d 92 f5 3d 93 70 b0 bd
       0.105277315 0.10448648 0.11990855 -0.08615222
0001b0 82 40 a8 bd e0 46 7e 3d f5 99 a4 bd b1 6d bf bd
       -0.08215429 0.06207931 -0.080371775 -0.09347094
0001c0 6c 08 02 3e 2d a3 03 be 99 3d 23 bd a7 2c 5f bc
       0.12698525 -0.12855215 -0.039853666 -0.013621486
0001d0 f0 43 fa bd eb 8c b0 3d 54 84 bb bc 13 93 58 bd
       -0.12219989 0.08620628 -0.022890247 -0.052874636
0001e0 24 e9 b9 bc a4 71 ce bc 84 29 d3 3c 46 82 89 3d
       -0.022694178 -0.025200672 0.025776632 0.06714301
0001f0 a0 a4 ae bd 7c f5 a2 3d a2 99 81 3d d7 78 b5 3d
       -0.085274935 0.07956979 0.06328131 0.08860939
000200 3e 78 b2 3c df ca c1 3d 6f 57 88 bd 14 c5 48 bb
       0.021785852 0.09462523 -0.06657302 -0.0030635046
000210 14 a6 15 3e ee fb f9 3d 1a 60 fb bd fb 4e bf bd
       0.14614135 0.12206255 -0.12274189 -0.09341236
000220 73 08 4e bd eb 9f eb 3d aa 64 20 3d a1 97 b2 bd
       -0.050301027 0.11505111 0.0391585 -0.08720327
000230 d9 5f ca bd 1c 32 22 be 13 91 d6 3c 8e 08 3b bc
       -0.09881563 -0.15839428 0.026192224 -0.011415614
000240 f4 f4 fc bd 0a cf a8 bc de 71 8f 3d 8b 2e 27 be
       -0.123514086 -0.020606536 0.0700414 -0.16326348
000250 19 7f af 3c ed 78 3d bd dc 94 36 be d7 41 9b bd
       0.02142291 -0.046257902 -0.17830223 -0.07580917
000260 98 93 13 3e dc a4 00 3d 00 69 91 bd 89 45 df ba
       0.14411771 0.031407222 -0.07100105 -0.0017034273
000270 d8 be a7 bc 5c 5c 95 bd 7d 37 86 bc d8 8c be bd
       -0.020476744 -0.07293007 -0.01638388 -0.093042076
000280 b8 00 05 3e 98 cb 1e be 9d 9f 48 3d 31 9a 95 3d
       0.12988555 -0.15507352 0.048980344 0.073048
000290 d9 25 ab bd 21 a5 c1 bc 42 48 89 bd f4 cb 13 be
       -0.08356828 -0.02363831 -0.06703235 -0.1443327
0002a0 0b 73 e4 3d 26 b5 b4 3d 94 f0 2f bd 85 ba 08 be
       0.11154755 0.08823614 -0.042954043 -0.13352402
0002b0 2d 1d 51 bd 76 17 fb bd e4 2b 16 be 42 d1 ad 3d
       -0.051053215 -0.12260334 -0.1466518 0.084871784
0002c0 49 ef 8d 3c 1b 9f bf bc 97 49 08 3e 74 9a 96 bd
       0.017326014 -0.023391297 0.13309322 -0.07353678
0002d0 a9 5d 4c bc bf a2 d9 ba 06 b2 fe bd b9 33 5b bc
       -0.012473502 -0.0016604288 -0.12436299 -0.013379031
0002e0 2e e0 b8 3d 75 52 cb 3d eb f1 64 bd e1 53 70 3d
       0.09027134 0.09927837 -0.055894773 0.058673743
0002f0 54 0f 96 3d 99 3e a9 3c b5 90 0d 3e 76 c8 86 bd
       0.07327142 0.020659732 0.13824733 -0.06581204
000300 06 20 16 bd f5 9a ed bd ed 4b 53 bd a2 c1 e2 3d
       -0.036651634 -0.11601821 -0.05158608 0.11072089
000310 74 87 ed bd 22 e3 50 bc 1b aa ea bd 42 4b 87 3d
       -0.11598101 -0.012749465 -0.11458226 0.06606151
000320 2d aa 3b 3b 57 0a fa 3d eb 63 0e be c4 09 a3 3d
       0.0028635368 0.122090034 -0.13905303 0.07960847
000330 10 e7 26 be f1 ce 14 be 11 5a 61 3d 2c cc 9e bd
       -0.16299081 -0.14532067 0.055017535 -0.077537864
000340 00 cc 17 bd 50 19 0d 3e 76 ff 06 3e 0b aa 80 bd
       -0.037059784 0.13779187 0.13183388 -0.06282433
000350 a0 4b 49 3c ca 15 d1 bd f5 f4 8b 3d 26 40 e1 bb
       0.012286097 -0.10209234 0.06833831 -0.006874102
000360 3a 58 81 bd 19 1f 0f bd 3c 0b 03 3e f6 0b e7 bd
       -0.06315656 -0.034941766 0.12797254 -0.11281578
000370 7f c3 08 be 46 a4 f8 3d 7f a9 2e be 3f 1f 53 3c
       -0.13355826 0.12140708 -0.17056845 0.012885868
000380 98 08 89 3d 49 00 8f bd 6f 02 4a bd 58 12 3d bd
       0.06691092 -0.06982476 -0.049318727 -0.046160072
000390 2f 37 01 bd 68 b5 1e be 42 5d 19 3d 25 fd b4 3c
       -0.031546768 -0.15498888 0.037442453 0.022093365
0003a0 42 2a f9 3d 2c 37 bd 3d 98 dd 8b 3c 0d 69 03 be
       0.12166263 0.09239039 0.017073438 -0.12833042
0003b0 8c 02 68 3d c0 0b e8 3c 83 1a 1e be c2 a4 a9 3c
       0.056643054 0.028325915 -0.15439801 0.020708445
0003c0 bc ad 08 bd 22 21 a7 3d 47 f1 5f bd 92 19 ed bd
       -0.03336881 0.081606165 -0.05467346 -0.11577143
0003d0 41 38 df 3d 08 56 31 be a3 0c c1 3c 44 65 53 bc
       0.108994015 -0.17317975 0.023565596 -0.012902562
0003e0 92 91 83 bd c9 1d 3a 3c 49 53 dd 3d d4 b5 1f 3e
       -0.0642425 0.01135964 0.10806901 0.15596706
0003f0 2e 77 7d bd b0 80 32 bd 37 fe 64 bd f4 96 c0 3a
       -0.061881237 -0.043579757 -0.0559065 0.0014693425

bias f4 [32]
000000 2c b1 00 3d 7d c7 cc 3c a8 17 cc 3c db 13 3f 3c
       0.031418964 0.024997467 0.024913624 0.011662449
000010 b7 4c 1c 3c 2c 43 fa 3c d8 5c 94 3c a7 04 b1 3c
       0.009539775 0.030549608 0.018110678 0.021608664
000020 75 dd 88 3c 16 7b a6 3c 8f cf 38 3d 7b f2 78 3c
       0.016707161 0.020322364 0.04511982 0.015194531
000030 29 48 84 3c 76 d9 4d 3c e1 69 b6 3c 4f 64 9a 3c
       0.01614769 0.012564054 0.022267284 0.018846659
000040 79 69 a7 3c cc ae bf 3c 81 2c dc 3b aa 55 91 3c
       0.020436035 0.02339878 0.0067191725 0.017741043
000050 25 fe d1 3c 96 16 d9 3c 9d 21 bd 3c d9 7d a7 3c
       0.02563388 0.026500028 0.023087317 0.020445751
000060 19 da ab 3c 29 03 6c 3c 06 13 98 3c da a7 1e 3c
       0.02097802 0.01440505 0.018563759 0.009683574
000070 a7 06 d5 3c 62 da c6 3c 17 be a2 3c ef 0c bd 3c
       0.026004149 0.024274055 0.019866033 0.023077456

weight f4 [64, 32, 4, 4]
000000 cb 84 a1 3d 85 aa c8 3c a4 f0 ce 3c fc 48 82 3d
       0.078866564 0.024495373 0.02526123 0.06361577
000010 ee f6 bf bd 59 f7 8e 3b dc 85 1f bb 6b c7 da bd
       -0.0937327 0.004362982 -0.002434126 -0.10682567
000020 87 5a c2 3d 93 cd cc 38 41 e5 32 bd 0c a9 2c bd
       0.09489923 9.765769e-05 -0.043675665 -0.042153403
000030 d1 df 00 bc a9 d7 d9 bc 44 17 9f 3d 12 56 6b bc
       -0.007865862 -0.026592093 0.077681094 -0.0143637825
000040 95 56 fb 3d cb 92 ea 3d e8 f5 54 3c 26 16 81 3d
       0.122723736 0.1145378 0.012998082 0.063030526
000050 af d5 3f 3d db dc 8b 3d 23 c1 15 3c f6 d8 c5 3d
       0.046834644 0.06829234 0.009140286 0.09660523
000060 f1 87 d6 3d 93 eb 5c bc 86 c7 fd 3c 45 62 1f 3d
       0.104751475 -0.0134839 0.03097893 0.038912077
000070 13 42 64 3d 5e 84 22 bc 82 3c 63 bd 30 07 a2 bd
       0.055727076 -0.009919254 -0.055477627 -0.07911527
000080 92 33 63 bd 2e c0 a1 3d 5e fd 8a bd f4 a9 2c bd
       -0.055469103 0.078979835 -0.06786607 -0.042154267
000090 19 ed 37 bd 76 9c 7b bc 15 b3 86 bc fb 9b 77 3d
       -0.04490385 -0.015357127 -0.016442815 0.06045149
0000a0 c6 30 de 3d df 48 ae 3d 15 f8 bd bc a1 9b e1 3d
       0.108491465 0.08509993 -0.023189584 0.11016012
0000b0 0d 91 a0 bd fd 28 87 3d 2e 1d 07 3c 89 39 e0 3d
       -0.07840166 0.06599615 0.008246703 0.10948474
0000c0 7f dc 98 3c 15 5f 34 bd d9 36 85 bd 11 f1 4a 3d
       0.018659828 -0.04403599 -0.06504602 0.049546305
0000d0 03 ea 8a 3c 92 77 80 bc 4e ba 6c 3d 96 39 28 3d
       0.016957289 -0.015682016 0.05779486 0.041070543
0000e0 f4 01 cc 3d a8 7e 39 bd 38 3a 46 bd 3f 61 d8 3d
       0.0996131 -0.045286804 -0.048395365 0.10565423
0000f0 30 5b f5 bc ad 75 9f bc f6 98 bb bc 8a 03 06 bd
       -0.029950708 -0.019465292 -0.022900086 -0.03271822
000100 c3 fe 19 bc 5c 71 00 bd 92 58 bf 3d 59 46 ea 3d
       -0.009399119 -0.031358108 0.09343065 0.11439199
000110 cc e6 b9 3d 4d e3 45 bd 94 12 ab 3d 3d a0 bf bd
       0.09077224 -0.048312474 0.08353153 -0.09356735
000120 90 34 d4 3d 51 18 8f bc c7 15 98 3d f4 64 ae bd
       0.10361588 -0.01746765 0.07426029 -0.08515349
000130 67 a1 85 bd 82 fe ad bc 3a 29 0c 3d 8b 46 42 3d
       -0.06524926 -0.021239523 0.034219004 0.047430556
000140 70 cf 8c 3d 42 1b a8 bd ee 55 a3 bd 74 0b e8 bd
       0.06875503 -0.08208324 -0.07975374 -0.113303095
000150 a9 9a 36 bd 46 82 97 bd 0d 44 af 3d dc 59 fd bc
       -0.04458109 -0.073978946 0.085579015 -0.030926637
000160 8a cf d9 bd c7 a1 ca 3d 60 f5 c7 bb 30 4b 88 bd
       -0.10635288 0.09894138 -0.006102249 -0.06654966
000170 ac 25 cf bc 47 61 bd bd 79 44 65 bd dd 22 8f 3d
       -0.025286518 -0.0924707 -0.055973504 0.069890715
000180 55 df dc 3c 9e 2d 45 bd 9d ee 9c bd b8 dd 90 bd
       0.026961962 -0.048139207 -0.07662699 -0.070735395
000190 ad 9d 88 bd 49 de a9 bc f4 50 8d 3d c5 85 84 3d
       -0.06670699 -0.020735877 0.06900206 0.06470827
0001a0 ab e4 78 bd 81 52 81 3d 1b f1 12 bd 62 ba a3 3d
       -0.06076495 0.063145645 -0.035874467 0.07994534
0001b0 0f 90 e3 3d a5 06 c2 3d e0 86 27 bc 82 56 e5 3c
       0.11111461 0.094739236 -0.010225028 0.027995352
0001c0 c2 50 e1 bd 4f 12 64 3c 64 65 ce bd 45 e0 1c bd
       -0.110017315 0.013920381 -0.100779325 -0.038299818
0001d0 f7 97 ad bd c3 be 5e bd f9 75 ba 3d b3 35 a1 bd
       -0.084762506 -0.054381143 0.09104533 -0.078715704
0001e0 e7 81 8f 3b 89 97 66 3d 24 4b 84 3c 87 52 d5 3b
       0.0043794992 0.05629686 0.016149111 0.006510082
0001f0 a4 8d 4d bd 78 01 b2 3c f6 86 97 bd a2 5e 87 3b
       -0.050183907 0.021729216 -0.07398789 0.004131154
000200 c8 1c 81 3d 66 e9 44 bd f0 50 c5 3d 62 25 2d bd
       0.06304318 -0.04807415 0.09634578 -0.04227198
000210 94 ae a1 3b 9d e3 8e bd 91 4d 38 3d b1 34 82 3d
       0.0049341414 -0.069770075 0.044995848 0.06357706
000220 ed 4a 8e ba 58 d1 09 bd 91 59 d8 3d ce 32 6e bd
       -0.001085607 -0.03364691 0.105639584 -0.05815392
000230 da 33 bb bd 10 5b 7b 3d f6 18 71 3d e0 69 1b 3d
       -0.09140749 0.06136614 0.058861695 0.037942767
000240 33 37 69 3c 60 48 79 bd bc a3 fd 3d 72 ee c0 bc
       0.014234352 -0.060860038 0.123847455 -0.0235512
000250 0a 0e 87 bd ac 9c d5 bc bc a3 e2 3c 78 9c a7 3d
       -0.065944746 -0.026075684 0.027665965 0.08184141
000260 27 8d 4f bd 70 07 89 bd fd 94 cc 3d 2c ee 46 ba
       -0.050671723 -0.06690872 0.09989355 -0.0007588591
000270 52 9f c7 3d 6e 87 53 3d df e9 62 3d 4e ed bc 3d
       0.09747185 0.051642828 0.055398818 0.0922495
000280 a7 df 8c 3d 8b 86 65 bd 72 04 3c bd 00 dc 52 3d
       0.06878596 -0.056036513 -0.045902677 0.05147934
000290 1c 6e b1 3d 7a ce 37 bd 93 9d bd bd fb fd 7e bd
       0.0866358 -0.044874646 -0.092585705 -0.062253933
0002a0 97 fb bb 3c bb 49 90 bd 8b cf 8c 3d 84 ed 03 bc
       0.022947116 -0.07045313 0.06875523 -0.008052234
0002b0 19 53 b0 bd a3 be 9a 3d 93 67 a5 3c 01 a7 95 3d
       -0.086095996 0.07555892 0.02019099 0.07307244
0002c0 8d 5d 99 bd bc 2c 58 bc 49 52 a3 3c 11 79 85 bc
       -0.074885465 -0.013194259 0.019936698 -0.01629308
0002d0 04 c5 a1 3d bc ce b8 bc 5c e9 a6 bd b2 0b 5f bb
       0.07898906 -0.022559516 -0.081499785 -0.003403407
0002e0 bd ba ce ba 77 f4 85 3d a1 21 8b 3d ed 8c b0 3c
       -0.0015772205 0.065407686 0.067935236 0.021551574
0002f0 6f d2 3b 38 79 1a 25 bd cb 7f 68 bd 46 22 8f bd
       4.4780256e-05 -0.04030845 -0.056762498 -0.06988959
000300 aa 58 e3 bd 12 5f 22 bd af 69 99 bd 65 95 21 bd
       -0.11100896 -0.039641447 -0.07490861 -0.039449114
000310 88 55 a8 bd 3b 35 1d 3d e8 c8 b7 bc 12 c4 79 bd
       -0.08219439 0.038380843 -0.022434667 -0.060978003
000320 07 80 4c 3d 75 94 d1 bd f7 50 57 3d 93 ee a9 3d
       0.049926784 -0.10233394 0.05256745 0.082974575
000330 94 31 d4 bd 1e 5e 3d 3b bb 1d bb 3d 4a b7 3c 3c
       -0.10361019 0.002889521 0.0913653 0.011518309
000340 e9 a7 ce 3d 4e 65 a9 3d 98 69 bf bc 0c b8 9e bc
       0.1009062 0.082712755 -0.02336578 -0.01937487
000350 38 ea a8 3c 0c 1f 48 3d 62 5e e6 3d ff c7 f0 3d
       0.020619497 0.048857734 0.11248471 0.11756896
000360 8d 8a 67 3d d9 0e 6c bd b4 55 a7 3d 03 c0 d3 bc
       0.056528617 -0.057631347 0.081706434 -0.025848394
000370 eb a9 0a 3d e9 f2 85 3d 68 64 b3 3d aa ee 91 bd
       0.033853453 0.06540472 0.08759385 -0.071256
000380 6a 1c 37 bd 78 5b fb 3c c9 58 cb 3d d5 07 07 bd
       -0.044704832 0.030683264 0.09929044 -0.032966454
000390 fa d7 a8 3c a8 f2 b0 bc 0d db 83 bc 1b 55 c9 3d
       0.020610798 -0.021600083 -0.016095662 0.09830686
0003a0 f2 a9 62 bd 89 da 8e bd ff a9 b6 bd 85 0e 97 3d
       -0.055337854 -0.06975276 -0.08919143 0.07375816
0003b0 2c c4 a7 3d 85 04 8b 3d 17 e4 b2 bd 43 98 b1 bd
       0.08191714 0.067879714 -0.08734911 -0.0867162
0003c0 b5 79 a1 3c 63 1b 2c bd 6d 2d 8d bd 65 af d0 3d
       0.019711355 -0.042018306 -0.0689343 0.10189704
0003d0 40 d5 94 3d b2 36 b7 bc 79 1f ff 3d 47 06 81 bd
       0.07267237 -0.022364948 0.12457175 -0.063000254
0003e0 3f 36 99 bc 10 92 60 3d 86 2f b8 bd 74 bb 26 bd
       -0.018702624 0.054826796 -0.089934394 -0.040706113
0003f0 1c 2b b5 bd af 93 8d 3d 89 88 04 3b d8 ef 1e bd
       -0.08846113 0.06912934 0.0020222983 -0.03880295

bias f4 [64]
000000 50 4e 81 3c 63 04 6c 3c 1f d5 3a 3c b4 d6 52 3b
       0.015784413 0.014405343 0.011403351 0.003217143
000010 3a c6 6d 3c 4c ab d0 3c 2a 82 41 3c c9 eb 58 3c
       0.014512593 0.025472306 0.011810819 0.013239809
000020 a4 5e b1 3c 0a 5a 36 3c f6 29 d0 3c 50 08 10 3c
       0.021651573 0.011129865 0.025410634 0.008791044
000030 5f 8e 34 3c 72 6e 9f 3b 7d 66 58 3c 5d fe c1 3c
       0.011020272 0.004865461 0.013208029 0.02368086
000040 a1 53 7e 3c b4 d3 82 3c 3a 23 a7 3c ef 9d 27 3c
       0.015522868 0.015970089 0.02040254 0.010230525
000050 32 36 86 3c 52 53 06 3c 59 49 ae 3c 82 3e 82 3c
       0.016383264 0.008198576 0.02127521 0.015898947
000060 a0 3a 5b 3c 6d d8 8c 3c d0 f3 10 3c 03 84 3c 3c
       0.0133806765 0.017193044 0.008847192 0.011506083
000070 8b e6 24 3d 95 ef c3 3c 56 2a e6 3c 0a 6f 31 3c
       0.040258925 0.023917953 0.02809636 0.010829696
000080 5c 6c 8e 3c 30 8c d4 3b 5c 84 a9 3c 29 6b 9b 3c
       0.017385654 0.006486438 0.020692997 0.018971996
000090 83 b8 cd 3c c1 2c 9a 3b 43 2a 8c 3b 7e 57 8e 3c
       0.025112396 0.004705042 0.004277499 0.017375704
0000a0 7b cd 0b 3c ae 17 77 3b 93 08 93 3c ba 28 b7 3c
       0.008532877 0.0037703323 0.017948424 0.022358287
0000b0 6b 90 70 3c e4 c5 4c 3c 9e 1e 9c 3c b6 28 32 3c
       0.014682869 0.012498353 0.019057568 0.010873964
0000c0 42 80 00 3b a6 35 86 3c 04 b0 5a 3c af be b0 3c
       0.0019607698 0.016383003 0.013347629 0.0215753
0000d0 a1 f3 73 3c 35 bb 3b 3c c0 a9 db 3c f4 4f 06 3c
       0.014889629 0.011458208 0.026814342 0.008197773
0000e0 ad 53 8b 3c 9d 4f 2f 3c 06 33 0c 3d f5 20 4e 3c
       0.017007673 0.010700134 0.034228347 0.0125811
0000f0 74 48 83 3c 3e 87 ad 3b a0 23 95 3c ae 59 5f 3c
       0.01602576 0.005295663 0.018205464 0.013632221

weight f4 [64, 64, 3, 3]
000000 e1 57 e4 bc 69 37 21 bd be 3e 43 3d e0 0f ac bc
       -0.027873935 -0.039359484 0.047667257 -0.021003664
000010 0a b0 61 3d ac 7a 80 3c 28 3f 71 bd 37 4b af bc
       0.055099525 0.015683495 -0.05889812 -0.02139817
000020 0f 57 81 3c 89 db 35 bd 98 ad f4 3d 36 e8 01 bd
       0.015788583 -0.04439882 0.11947173 -0.031715594
000030 eb cf e9 3a 55 e5 96 3d b7 31 9b bd e9 d5 c1 3d
       0.0017838454 0.0736796 -0.07577842 0.09464628
000040 a5 22 1a bd 58 8b 9c bc 60 68 cb bd 50 90 7e 3d
       -0.037630696 -0.019109413 -0.09932017 0.062149346
000050 25 cc 39 bd 11 0f b9 bc 17 97 84 b8 42 db bd 3d
       -0.045360703 -0.022590192 -6.322393e-05 0.09270336
000060 98 0e 94 bd 85 d2 79 3d 5d ef 39 3d c8 d2 eb 3c
       -0.07229346 0.060991783 0.04539429 0.028787032
000070 9d 26 ac 3c 78 13 98 39 97 dc c1 3d fc a0 1b 3d
       0.021014506 0.00029006205 0.09465902 0.037995324
000080 94 17 a5 3d 9e c7 86 3d 5e 83 e9 3b 8f 68 c9 bd
       0.08061138 0.06581043 0.007126256 -0.09834396
000090 f8 0f 3a bc 20 02 a9 bc 70 41 50 3b 1f 0a 39 3d
       -0.011356346 -0.020630896 0.0031777285 0.045175668
0000a0 11 aa 4a bd 71 1b 4d bc a7 14 c1 3d 39 39 bb 3d
       -0.049478594 -0.01251875 0.09427767 0.09141774
0000b0 aa d5 b4 bd 35 61 a6 3d e4 be 44 3d cb 12 da 3b
       -0.08829816 0.081240095 0.04803361 0.0066550723
0000c0 e8 62 de 3c db 1e 27 bd 9c ea ea bd 52 8b d8 bc
       0.027146772 -0.04080091 -0.114705294 -0.02643362
0000d0 ee 72 99 bc 83 73 ba bd 28 d8 ad 3d f7 6c 04 3d
       -0.01873156 -0.09104063 0.08488494 0.03233048
0000e0 20 ed 23 bd 48 eb 91 bb fa 38 77 bd 69 5f 4e 3c
       -0.040021062 -0.0044530965 -0.06035707 0.01259599
0000f0 93 34 fd bc 12 a3 b2 3d 54 5b 10 bc 03 a0 df bc
       -0.030908858 0.087225094 -0.008810837 -0.02729798
000100 00 a9 17 bd bb ad c1 3d 23 b3 c2 3d 9f f6 4c 3c
       -0.037026405 0.094569646 0.09506824 0.012509971
000110 f3 72 73 bd ec 1d 42 3d 5e d6 e3 bd 2e e4 a8 3d
       -0.059435796 0.047391817 -0.11124872 0.08246647
000120 1e 9c 30 bb 79 b5 ed 3d 76 19 d0 3c fe 44 9b bd
       -0.0026948522 0.11606879 0.025402766 -0.075815186
000130 6f d1 dd 3d 74 4f 92 bd d6 63 96 bd 11 05 a0 bd
       0.10830962 -0.07144061 -0.07343261 -0.07813466
000140 cf de 75 3d ea 23 9c bd e7 7c 12 bd 8c f5 2a 3d
       0.06002694 -0.076240376 -0.035763647 0.041738078
000150 60 fb 69 bc 4f e2 9c bd ef 13 62 bc 32 b5 8e bb
       -0.014281124 -0.076603524 -0.013798698 -0.0043550963
000160 7c f5 3f bc c9 66 a0 bd 71 c4 1b 3d a4 b7 62 3d
       -0.011716243 -0.07832105 0.038029138 0.055350915
000170 e8 52 a2 3d ee 76 76 3d 01 32 60 bc 84 66 43 3d
       0.07925969 0.060172014 -0.013683797 0.04770519
000180 d4 de 35 3d 1e 1d 69 3d bd 8a 7f ba 5f 53 00 bd
       0.04440196 0.056912534 -0.00097481516 -0.03132951
000190 51 76 bd 3c e9 34 6a bd 70 55 a2 3d 62 78 1d bc
       0.023127707 -0.057179365 0.07926452 -0.009611221
0001a0 ef 3b ba bd 4e 71 af bd 34 59 69 bd ad fe ad bd
       -0.09093463 -0.08566533 -0.056969836 -0.08495841
0001b0 69 0b 36 3d 1a 09 95 bd 2e fb d7 3b 44 13 c9 3c
       0.044444475 -0.072771266 0.0065912222 0.02454532
0001c0 ef 0b c9 bc ca aa 8c bd 54 2e c4 3d 14 20 9c bc
       -0.024541823 -0.06868513 0.09579149 -0.019058265
0001d0 1b f7 cc bc 18 3c ad 3d 5f 8e ac bd cb 2f 24 3d
       -0.025020173 0.084587276 -0.08425593 0.04008464
0001e0 f8 47 9c bd cf 70 37 bd 50 95 a2 3d b3 78 da 3d
       -0.076309144 -0.044785317 0.07938635 0.10667553
0001f0 9c 1d e5 3c 4a 89 0d bd 93 2d c3 3c 4a d6 36 bd
       0.02796822 -0.034554757 0.023825442 -0.044637956
000200 15 df c1 bd 8f 9b 1c bd ae 4b 8e bd 9f 2c e6 bd
       -0.09466378 -0.03823429 -0.069480285 -0.112389795
000210 49 9c 74 bd 2b ba 00 bd 86 8a 39 bd 20 90 92 3c
       -0.059719358 -0.031427544 -0.045298122 0.01789099
000220 65 f0 8a 3d 4d 30 ce bd 1f 5a 32 3d f5 d6 8a 3d
       0.06784133 -0.100678064 0.043542977 0.06779281
000230 0b a4 80 bb f3 03 7a 3c 60 dc 9f bd be c9 c0 bd
       -0.0039258054 0.015259731 -0.07805705 -0.09413479
000240 2a 38 c2 bd ae df 23 3d 93 73 9e 3d 56 38 eb bd
       -0.09483369 0.04000824 0.07736888 -0.114853546
000250 7f 69 85 bd e5 18 ac bd 02 53 99 bd bb 8f 9e 3d
       -0.065142624 -0.08403186 -0.074865356 0.07742258
000260 41 87 65 3d 20 b8 f9 bc 3f 5e ac bd 8e 2b fb 3b
       0.05603719 -0.030483305 -0.084164135 0.007665104
000270 b3 fd 2c 3c 6c 95 3d bd 06 1f bc 3d 65 ad c7 bc
       0.0105585335 -0.046285078 0.09185605 -0.024374673
000280 a8 1b ae bc 80 2f db 3b 33 ef b4 bd 01 4b 4b 3d
       -0.021253422 0.006689012 -0.08834686 0.049632076
000290 82 f3 b0 3b 15 c1 ce 3d 5c 00 eb 3c e2 19 82 3c
       0.005400122 0.10095421 0.028686695 0.015881483
0002a0 08 f4 1e 3c 7f 5e 88 bd 52 a4 b4 bd dc 8f b9 bd
       0.009701736 -0.06658649 -0.08820404 -0.09060642
0002b0 6d 5c aa bd 7e 3d 4f 3d 60 3e 99 3d 9c 29 06 3d
       -0.0831841 0.050595753 0.074826 0.032754526
0002c0 08 0e ce bc f5 b7 13 bd c1 88 3f bd d0 7f 0c bd
       -0.025153175 -0.036064107 -0.046761278 -0.03430158
0002d0 44 96 1e bc 7c fd 4f 3d a6 02 00 bc c2 d5 6a bd
       -0.009679381 0.05077885 -0.007813131 -0.05733276
0002e0 73 ed b7 3d 89 10 27 3d 6d 56 36 3c 12 7c 84 bd
       0.08980837 0.040787254 0.011129004 -0.06468977
0002f0 47 46 f0 bc 7c b7 77 3d 2b e4 a9 bd 5a e9 b0 bd
       -0.029330386 0.06047772 -0.08295473 -0.08638258
000300 c0 f0 2c bd 4f e1 e6 bd 01 d1 a7 3c 80 9e ac 3c
       -0.042221785 -0.11273443 0.020485403 0.021071672
000310 d5 06 0e bd 29 11 e8 bc 73 84 f6 bc 4a 61 19 bd
       -0.034674484 -0.028328495 -0.030092454 -0.037446298
000320 e0 b7 cd bd 89 e0 c0 3d 97 1c e6 3b c9 92 c2 ba
       -0.10044837 0.09417827 0.007022451 -0.0014844771
000330 55 59 2d bd 73 d2 c6 3d 19 4a b9 3d 8b eb 89 3d
       -0.04232152 0.09708109 0.09047336 0.067343794
000340 a3 02 16 bd 0e 9d f7 bb c1 7e c5 3d 3f b3 c1 bd
       -0.03662361 -0.007556564 0.09643317 -0.094580166
000350 9b fc 87 bd 92 ba b9 bd 31 79 6f 3d 40 05 cb bb
       -0.066399775 -0.090687886 0.058465187 -0.006195694
000360 ef ad 9c bd dd 2a d3 3d 78 0e ce 3d 6d 0e 9b bd
       -0.07650363 0.1031091 0.100613534 -0.07571111
000370 85 32 6e 3c 2f 25 b1 3c 25 f9 84 3d 44 b8 99 bc
       0.014538412 0.021624176 0.06492833 -0.018764623
000380 19 d9 29 3d d1 f7 89 bd 98 63 d9 3c f6 38 26 bd
       0.041466806 -0.0673672 0.026536748 -0.040581666
000390 47 e3 ae bb 91 96 d6 bd 5f e7 1c 3d a4 ef 02 bd
       -0.005337152 -0.10477937 0.03830659 -0.03196682
0003a0 99 01 0d bb bf 29 9f bd c0 52 94 bd 1a 9b 6d bd
       -0.0021515845 -0.07771634 -0.07242346 -0.058009245
0003b0 e1 16 08 3d 75 dc d7 bd 5c f2 15 bd e7 7b b3 3b
       0.033224944 -0.10540096 -0.036608085 0.005477417
0003c0 59 26 3c bd 45 7b 44 bc 8d 10 7e 3d 65 e4 1c bd
       -0.04593501 -0.01199228 0.062027503 -0.03830375
0003d0 fb 3a 62 bd 33 f4 07 3d df 5f 6e bd 0a cc 0a 3d
       -0.05523203 0.03319187 -0.0581969 0.033885993
0003e0 2c 05 16 3d c1 5d 88 3c c6 98 eb 3c 01 44 9b bd
       0.036626026 0.016646268 0.028759371 -0.0758133
0003f0 8f 07 96 bd 6a f1 5c 3d e6 93 bb bb 51 7d c2 3c
       -0.073256604 0.053941168 -0.005724418 0.023741396

bias f4 [64]
000000 8f 0f 7a 3c 84 20 9e 3c 25 2f 99 3c 13 a4 65 3c
       0.0152624985 0.019302614 0.018699238 0.014016169
000010 f1 e6 6b 3c a5 6c 62 3c a6 52 1c 3c 12 b8 68 3c
       0.014398322 0.013819848 0.009541189 0.014204042
000020 cf d7 55 3c 10 88 38 3c 9c 34 d0 3b 04 19 8c 3c
       0.013051941 0.011262909 0.006353928 0.017101772
000030 b2 4a 53 3c e7 62 60 3c c2 2e 7d 3c 5c ba 7e 3c
       0.012896227 0.013695455 0.015453042 0.015547361
000040 22 f3 da 3b 1e 48 8b 3c 40 e5 a5 3c 6f bc 68 3c
       0.0066818157 0.017002162 0.020250916 0.014205082
000050 c3 41 54 3c 39 a5 c2 3b 19 99 7d 3c ee 88 87 3c
       0.012955132 0.005940106 0.015478396 0.016544785
000060 5e b9 82 3c 62 65 4a 3b 39 0c 64 3c 3a 5a 63 3c
       0.01595753 0.0030883183 0.01391893 0.013876492
000070 94 fd 0b 3c 1a 72 6b 3b 6e fd 07 3c 2d 67 8e 3c
       0.008544344 0.0035926164 0.008300168 0.017383182
000080 ef 3d 55 3c 31 f8 29 3c 2a 89 e3 3c ae c0 aa 3c
       0.013015254 0.010374115 0.027775366 0.02084383
000090 6e e6 9c 3c cd 3b f4 3b 08 c3 e9 3b 3f d1 e3 3b
       0.019152846 0.007453418 0.0071338452 0.0069524343
0000a0 2a fb 43 3c 8d 64 c6 3c c3 29 f9 3b cc bd 80 3c
       0.011961738 0.024217868 0.0076038553 0.015715502
0000b0 0e 66 61 3c 10 5c 33 3c 16 6f 2e 3c 8c 9e a5 3c
       0.013757242 0.010947242 0.010646602 0.020217203
0000c0 46 4d e1 3c b0 54 51 3c 28 90 6a 3c 51 0b 8c 3c
       0.027502667 0.012776539 0.014316596 0.01709524
0000d0 fc 09 4e 3c 9f 85 ce 3a ad 70 40 3c dd 5d 5d 3c
       0.012575623 0.0015756375 0.011745614 0.013511148
0000e0 f0 3f f7 3c c7 ea c3 3c 89 84 c1 3c 8d 07 3b 3d
       0.030181855 0.023915661 0.023622768 0.045661498
0000f0 8c 07 61 3c bf 5e 67 3c df 91 b8 3c 86 fa 1b 3c
       0.0137347095 0.01412171 0.022530494 0.009520179

weight f4 [9, 3136]
000000 ea bd 23 bd 9b 72 10 bd 99 80 bf bc 22 9b 31 bc
       -0.039976038 -0.035265546 -0.02337675 -0.010840209
000010 02 e3 ba 3b 01 7c b9 bb 95 63 18 bd 0d d7 ce 3a
       0.005703331 -0.0056605344 -0.037204344 0.0015780643
000020 68 13 8b 3c f1 ca b7 3c 64 8b f4 3c d3 29 bb 3c
       0.016977027 0.022435637 0.029851623 0.022847092
000030 db 09 20 bd 33 8d ce 3b a1 ae e0 3b 18 58 97 3c
       -0.0390719 0.0063034534 0.006856755 0.018474624
000040 45 e7 06 3d 4e a8 e0 ba da b7 95 bc ee 1b 9d 3c
       0.0329354 -0.0017140002 -0.018276144 0.019178357
000050 e5 8c 1b 3d 37 73 c3 3c 14 5c ae 3a f2 24 34 bb
       0.037976164 0.02385865 0.0013302588 -0.0027487841
000060 11 3e 41 3c 5f 75 ad bc 9b 64 9e bc 58 ce 03 bd
       0.011794583 -0.021174131 -0.019335082 -0.032179207
000070 fe b4 b3 3c 23 d5 ff ba 03 75 8e 3a 5d f1 4b bd
       0.02193689 -0.0019518476 0.0010868612 -0.04979073
000080 f1 13 f5 3c f0 a6 e3 bc c2 08 ce bc c0 c6 c4 3c
       0.029916735 -0.027789563 -0.02515066 0.024020553
000090 a0 d4 03 3c a4 f4 d5 bc d1 75 68 bb f7 32 ce 3b
       0.008046299 -0.02611763 -0.0035470615 0.0062926966
0000a0 4e a2 b8 3c 32 dc 0a bd fb 7c 2f 3d 9c 88 0c 3c
       0.02253833 -0.0339014 0.0428438 0.008577492
0000b0 30 ba 33 bc a8 77 1a bd 45 8e bc 3c b8 68 e8 3c
       -0.0109696835 -0.03771177 0.023017058 0.028370246
0000c0 7f 3e 91 bc b3 53 2f bb c6 80 dd 3c bb f7 4f bc
       -0.017729996 -0.002675277 0.027038943 -0.012693341
0000d0 52 7b 0d bd d6 45 8d 3c c3 d8 eb bc d7 ea ca bc
       -0.034541436 0.017245214 -0.028789883 -0.024770183
0000e0 20 12 17 3d 4c e7 8e bc a7 52 bc 3c 02 9b 02 bc
       0.03688252 -0.017444275 0.02298863 -0.007971527
0000f0 8a b9 17 3d cd 47 bb 3c fd 32 7b 3c 50 a8 8b bc
       0.03704218 0.022861386 0.015331981 -0.017048031
000100 c5 a6 1c 3d f6 63 cc 3c b1 e9 b4 bc 7a 45 2a bd
       0.03824498 0.024950009 -0.022084089 -0.041570164
000110 89 dd 9a bc ae 24 b7 bc 7a a1 a3 3c 75 f1 56 3c
       -0.018904464 -0.022356357 0.019974459 0.013119091
000120 46 2f ea 3c 97 e8 2a bc d9 34 62 3c 3f 9c 02 3c
       0.028586995 -0.01043143 0.013806545 0.007971822
000130 7f e1 fb bc 88 93 91 3c ef 53 97 bc 7b e7 f0 3c
       -0.030747173 0.017770544 -0.01847264 0.029407253
000140 88 9b d5 bc 13 c6 1b 3d 7f 39 5f 3c ec 7c d8 bc
       -0.02607514 0.038030695 0.013624548 -0.026426755
000150 a8 83 36 bc 0d cb 14 bb d1 f0 44 bc 5e b5 a4 bc
       -0.011139788 -0.0022704036 -0.012020306 -0.020106014
000160 c5 3a 8a bc c8 8e 0e bd 53 cc e7 3c af b0 b6 bc
       -0.016873727 -0.034804136 0.028295672 -0.022301046
000170 13 cd a7 3b f8 ee cc 3c 5f c1 7b 3c ec 1f 98 3c
       0.0051208823 0.025016293 0.0153659275 0.018569909
000180 be 69 03 bd c0 d4 5e bb 84 e2 e5 3c 45 e3 a7 bc
       -0.032083265 -0.003400132 0.028062113 -0.020494113
000190 e3 bd 38 bd 61 75 cc bc 46 30 11 bd fc 64 ce bc
       -0.045102965 -0.024958314 -0.035446428 -0.025194637
0001a0 39 08 04 3d 44 4b 93 3c 2d c6 0c bd d7 b2 c5 3a
       0.032234404 0.017980225 -0.034368683 0.0015083206
0001b0 f1 b7 d2 bc d0 c2 30 3c f7 e9 17 3d 9b a8 84 bc
       -0.025722476 0.010788634 0.03708836 -0.016193679
0001c0 80 29 0d bd 4f 34 c5 bc b6 0c 91 3c 3a fc 99 bc
       -0.034463406 -0.024072794 0.017706256 -0.018797029
0001d0 e9 8e 4a bb 34 ee fd bb 6b 64 9a 3b 4f 8d f1 bc
       -0.0030907935 -0.0077493433 0.004711678 -0.029486327
0001e0 55 ec c6 3b 0c e6 27 3c 2e 76 09 bd 45 f5 d8 3c
       0.0060706534 0.010247719 -0.03355997 0.026484141
0001f0 2d 17 50 3c a2 80 eb 3b f2 7e 07 3c 36 43 21 bd
       0.012700838 0.007186965 0.008270012 -0.039370738
000200 7b 3a a5 3a f6 01 59 3c b1 3a fd 3c cb e8 08 3d
       0.001260593 0.013245096 0.030911775 0.033425134
000210 cf 26 1e bd 23 7c 6c 3c e2 61 f5 bb 98 7e be bc
       -0.03861123 0.014433893 -0.007488475 -0.023253724
000220 2d 8b 0b bd d9 f1 17 bc 06 a7 39 3d ef 41 01 3d
       -0.034068275 -0.00927397 0.0453253 0.03155702
000230 45 fe 0b 3b 33 e9 26 bc 98 a5 a2 bc 45 e0 0f bd
       0.0021361273 -0.010187435 -0.019854352 -0.03512599
000240 b3 e5 bd 3c 8f 4b 02 bd c5 65 2e 3c f4 fa ab bc
       0.023180818 -0.03181034 0.010644381 -0.020993687
000250 b8 9d 5f 3c b0 e1 b5 b9 5c 72 36 3b 4b 2a bb 3c
       0.013648443 -0.0003469116 0.002783916 0.022847315
000260 13 6e 84 3c 0b 9b 73 bc 1d 53 22 3d 6d 33 ce 3c
       0.016165769 -0.014868508 0.039630044 0.025171006
000270 f9 1d 52 bb 0d a8 51 3c 87 be 94 bc 86 3f b1 bc
       -0.0032061322 0.012796414 -0.018157257 -0.021636736
000280 5a 51 b8 bc 17 10 31 3c 03 c7 1d 3c b8 c9 9b 3c
       -0.022499729 0.010807059 0.009629968 0.019017085
000290 9d 9c 28 3c 15 e4 c1 3c 43 f8 13 bc cf 3f 51 3b
       0.010291246 0.023668328 -0.009031358 0.0031928902
0002a0 c5 e3 9c bc 67 9d 86 bc bd 4f 56 bc 3f c1 d6 3c
       -0.019151578 -0.016432477 -0.0130805345 0.026215194
0002b0 da 9e 7f 3b 64 36 18 bd 8d 46 3e bc f5 94 5a bc
       0.0039004595 -0.037161246 -0.0116135 -0.013341178
0002c0 62 32 a1 3c 2e 5c 22 3c 79 50 f7 3c 0b 9e 1d bc
       0.019677345 0.009909673 0.03018974 -0.0096202
0002d0 0a d3 08 bd 7b 09 05 bb 14 24 97 bc 76 61 e7 3c
       -0.033404388 -0.002029984 -0.01844982 0.028244715
0002e0 f3 43 6f 3c 63 6d 5a b9 32 5c 12 bd fa 94 95 bc
       0.014603603 -0.0002083085 -0.035732456 -0.018259514
0002f0 d5 5d 80 bc ef 31 e2 bc de 65 cb 3c 26 22 05 bc
       -0.015669743 -0.0276117 0.024828847 -0.008125817
000300 9c c7 02 bd 9d ac 04 3c a0 15 d8 bb 83 0e 84 bb
       -0.031928644 0.008097795 -0.006594375 -0.0040300502
000310 79 7e 89 3c 4e 01 e2 3c 3d 43 89 3c 8c 0a 41 bd
       0.01678394 0.027588513 0.016755695 -0.0471292
000320 23 9b 8a 3c 9e 8a b7 bc 45 2a 07 3d 33 fe a5 3c
       0.016919678 -0.022404965 0.032999296 0.020262813
000330 5c 2c a8 3c f4 1d bc bb bc 35 66 ba 2e c4 ff 3c
       0.020528965 -0.0057408754 -0.0008781811 0.031221475
000340 12 72 1d 3d d8 79 1c bd 3b 8a 83 3b c4 78 96 bc
       0.038438864 -0.038202137 0.004014281 -0.018368132
000350 fa 02 10 3d 19 b4 ef bc b5 aa c1 ba 8e 84 55 3c
       0.03515909 -0.029260682 -0.0014775606 0.013032092
000360 50 50 17 3d 24 2e 83 3b 12 3b 8f 3c fd ac 0d bd
       0.036941826 0.004003303 0.017484222 -0.034588803
000370 f7 be b2 bc 06 c4 a2 3b 63 63 a7 3c 73 8a d9 bc
       -0.021819575 0.0049672155 0.020433133 -0.026555276
000380 83 2a 94 3b cf f5 0c bc b5 5d 29 3d 9c 7e 28 3c
       0.0045216694 -0.008603527 0.04134913 0.010284092
000390 14 60 a0 bc e0 4e 2f 3d be 04 a2 bb 9d 18 24 3d
       -0.019577064 0.04279983 -0.004944413 0.040062536
0003a0 71 63 ce bc 36 3d 8c bc ff 17 d8 bb e6 e6 81 bb
       -0.025193902 -0.017119031 -0.0065946574 -0.003964293
0003b0 1b 91 28 3c 2e 6d e7 bc 11 15 8c bc 8e 82 55 3b
       0.010288502 -0.028250303 -0.017099889 0.0032579037
0003c0 c9 3c 4b bc b6 66 09 bc 5b a2 2b 3d 8f 65 a8 3c
       -0.012404629 -0.008386305 0.04190288 0.02055624
0003d0 db 2a 68 3c fc 02 20 bd f0 5c 8e ba 2c 0a 3d bc
       0.014170374 -0.039065346 -0.0010861438 -0.01153807
0003e0 f1 a1 0a 3c 74 2c 45 3c 58 fe 27 3c 67 13 08 bd
       0.008461461 0.012034524 0.010253511 -0.03322163
0003f0 60 d0 14 bd 20 e6 43 bc 5d 85 14 3b 11 fe 95 3c
       -0.036331534 -0.011956722 0.0022662499 0.018309625

bias f4 [9]
000000 b7 64 45 3c b3 6f 57 3c a2 32 88 3c da ed 10 3c
       0.012047938 0.01314919 0.016625706 0.008845771
000010 bd 3e ca 3b d5 b2 5a 3c be 3f 44 3c 9c 13 84 3c
       0.00617203 0.013348301 0.011978088 0.016122632
000020 d5 81 f8 3b
       0.0075838366

weight f4 [1, 3136]
000000 fb 7c d6 3c 4c 90 bd bc 19 1f 0b bd 45 57 17 3b
       0.026182642 -0.023140095 -0.033965204 0.0023092788
000010 a2 85 03 3d ad 42 7f bb ff 11 98 3c 2c a2 eb bc
       0.032109864 -0.0038949654 0.018563269 -0.028763853
000020 6f 8f af 3b 29 4e 4f bd 68 a2 12 39 08 81 db 3c
       0.005357675 -0.05061165 0.00013984146 0.026794925
000030 9b 20 e1 3c 73 61 20 bd 40 dc 92 3c 0f 23 92 3c
       0.027481368 -0.039155435 0.017927289 0.017838983
000040 4c 78 a5 3a b1 86 10 3b 80 7b 94 3c fc 2f 39 3d
       0.0012624352 0.0022052939 0.018125296 0.045211777
000050 07 ee ee bc 5a e6 e7 3c 73 48 e6 bc 2f 2b 20 bd
       -0.029166235 0.028308082 -0.028110718 -0.039103683
000060 c3 0d 04 bc eb 14 4c 3d cb a5 36 bd 5e c4 92 3c
       -0.008059922 0.049824636 -0.044591706 0.0179159
000070 5d 4b 35 bd 41 e9 15 3d 4b b9 05 ba d7 87 2c 3d
       -0.044261325 0.0365994 -0.0005101158 0.042121734
000080 ee 05 0f bd 88 d5 f1 3c 13 12 38 bd bc 23 dc bc
       -0.034917764 0.029520765 -0.044939112 -0.026872508
000090 d6 ec 86 3c da 6b b5 bb e8 87 91 3d 7e f4 a6 bc
       0.016470354 -0.0055365385 0.07106 -0.020380255
0000a0 71 91 1b 3c 38 42 b9 3c 7c 9c 7d bb 7d 1c 20 bd
       0.009495125 0.022614583 -0.0038698008 -0.03908967
0000b0 ef ab 45 bd 75 13 09 bd a9 78 2d bd fe 1f 52 3b
       -0.04825967 -0.03346582 -0.0423514 0.0032062526
0000c0 10 6b ef 3b 5f db 4d 3d c0 81 22 bd b2 52 01 bc
       0.007306464 0.050258037 -0.03967452 -0.007893251
0000d0 d5 2a ab 3b 46 22 3b bd 09 4c a6 bb c4 5a 51 3c
       0.005223612 -0.045686983 -0.005074982 0.012777988
0000e0 b9 83 ec 3c d9 5c a6 3c c7 8f 2a bd 7f d4 33 3d
       0.028871404 0.020307945 -0.041641023 0.043903824
0000f0 29 8e 3d bd 70 a0 fc bc 4d 4d e2 bb 24 57 15 3c
       -0.046278153 -0.030838221 -0.0069061876 0.009115014
000100 fd 7e 0e bd 37 92 0c 3c c0 64 bb 3c 66 ce 0d bd
       -0.034789074 0.008579782 0.02287519 -0.034620665
000110 37 79 37 3d 72 cd fa 3c 72 2f 78 3d 96 81 14 3c
       0.044793334 0.030615542 0.060592122 0.009064099
000120 1f d6 1c bd 9e 5d e2 3b b8 44 2d bd d0 2e c5 3b
       -0.03829014 0.0069081327 -0.042301863 0.0060175434
000130 4c a0 35 bd 7c 05 bc 3c db f8 06 bd d0 2d 94 3a
       -0.044342324 0.022951834 -0.03295217 0.0011305157
000140 e3 34 53 bc 33 97 00 bd 2d 1b 76 bb 5f 9a 44 bc
       -0.012891027 -0.031394195 -0.003755282 -0.011999696
000150 16 a9 23 3b 57 17 10 bd 68 45 ab 3b cc d0 09 3d
       0.002497261 -0.03517851 0.0052267797 0.03364639
000160 b0 fb 3b 3d 2b d7 d5 bc ed 49 22 bd fa bd c8 bb
       0.045894325 -0.026103577 -0.039621282 -0.0061261626
000170 7f 01 d5 3c cb b5 be 3c 06 cb 38 bd f5 de ab bc
       0.02600169 0.023280045 -0.045115493 -0.020980338
000180 8b f1 dd 3c 27 5d 4d bc 10 63 99 bc c0 68 38 3d
       0.027092716 -0.012534416 -0.018723994 0.045021772
000190 7a 5f d6 bc de 90 06 bd 2d a6 13 ba 35 e6 c8 bc
       -0.026168574 -0.032853 -0.0005632367 -0.024523834
0001a0 af 1c d5 3c 7c 95 9c 3c 71 80 ba bb a8 5b 43 bc
       0.026014654 0.019114248 -0.005691581 -0.011923708
0001b0 12 e9 03 3d dc f3 e9 3b f2 46 91 bc 97 4a 16 bb
       0.032204695 0.007139666 -0.017734025 -0.0022932643
0001c0 27 45 c3 3b 39 12 7e 3d 8e 09 52 bc 22 c0 cf 3a
       0.0059591713 0.062029097 -0.012819661 0.0015850107
0001d0 07 94 5e 3c 05 ac 23 3d b6 3e 91 bc f5 42 12 3d
       0.013585097 0.039958972 -0.017730098 0.035708386
0001e0 75 9b 72 bc 7f 24 11 3d dd 4d 92 bc 89 47 f0 3c
       -0.014807572 0.035435196 -0.017859394 0.029330986
0001f0 80 b3 0b bc a0 c4 13 3d 65 67 1a 3d 66 4b ff bc
       -0.008526683 0.036076188 0.03769626 -0.031163882
000200 b9 df 1b 3d 95 eb d5 bc f5 da bc bc d0 af c3 3b
       0.038055155 -0.02611331 -0.023053626 0.005971886
000210 25 11 d1 bb 9d f4 60 3d d8 6d c8 3c 38 7e 99 bc
       -0.0063802176 0.05492078 0.02446644 -0.018736944
000220 08 c4 79 3b 89 70 54 3b 6f 24 6a bb bc 7d 26 3d
       0.0038111228 0.003241571 -0.0035727283 0.040647253
000230 b7 75 39 3d d4 56 ec bc de 64 d3 bc 51 07 3c 3c
       0.045278277 -0.028849997 -0.025804933 0.011476354
000240 35 a5 36 3d e5 18 6e bc dd 7b 1d 3d 1b 90 0d 3d
       0.044591147 -0.0145323025 0.038448203 0.034561258
000250 32 c5 c3 bc 7f ea 16 3d 31 0a 1c bc 4c db f5 3b
       -0.023897741 0.036844727 -0.009523914 0.007502949
000260 45 3a 28 bd d3 74 af bb 01 57 21 3d fe 08 58 3c
       -0.041071195 -0.0053545027 0.039389614 0.013185738
000270 83 c3 40 3d df e5 2d bd b2 44 2d bd 4b 65 2f 3d
       0.047061455 -0.04245555 -0.04230184 0.04282121
000280 23 3b 2e 3d f9 4e 65 3c 2d 17 3b bd 7e 7a 2b bc
       0.042536866 0.013995879 -0.0456764 -0.010466216
000290 f0 00 e3 3c 08 ee 18 3d 4d c8 ac bc fe cd 00 3d
       0.027710408 0.03733638 -0.021091605 0.03144645
0002a0 35 ad 01 3d d2 69 b2 bc ab ea d8 3a 26 75 ca 3c
       0.031659324 -0.021778975 0.0016549429 0.024714064
0002b0 17 bc e0 3b 1d d5 4c bb 78 37 9f 3b 3c 8c 2e 3c
       0.0068583596 -0.0031254955 0.0048589073 0.010653552
0002c0 1f 56 4d 3d 09 34 a4 3c a2 de d2 bc 0e 89 14 3d
       0.05013096 0.020044344 -0.025740925 0.036263518
0002d0 d1 6a e0 3b d9 f0 08 3d 81 b9 0a 3d 1c fb 24 bd
       0.006848671 0.033432815 0.033868317 -0.04027854
0002e0 7f 4b 04 bd 30 ec e6 3c 89 95 f0 3c 96 31 7d ba
       -0.03229856 0.028188795 0.029368179 -0.0009658573
0002f0 cf 90 db 3b 55 52 1e bc 08 93 ca 3b ac 32 d1 3c
       0.006700612 -0.009663184 0.0061820783 0.025536858
000300 55 ad 2c 3d ee 1f ce bc 49 1e 87 bc f8 a0 38 3d
       0.04215749 -0.02516171 -0.016493933 0.045075387
000310 24 e2 4b 3d 76 38 45 3d 58 fc ca ba 86 01 98 3a
       0.04977621 0.04814955 -0.0015486581 0.0011597134
000320 45 10 83 bc bd 03 98 bc f4 fe 64 3d 01 98 8b bc
       -0.015998969 -0.01855647 0.055907205 -0.017040255
000330 d5 c7 9d 3c b9 82 bf 3c d9 a5 0c 3a d4 7c 88 ba
       0.019260326 0.023377763 0.00053652894 -0.0010413178
000340 2c 39 c6 ba 1e d3 cd 3c 81 ed 21 bc a5 73 3c 3c
       -0.001512324 0.025125083 -0.0098832855 0.011502181
000350 fa ca ba 3a 75 23 6a bb d7 9f 25 3d 22 db 9d 3c
       0.0014251166 -0.00357267 0.04043564 0.01926953
000360 31 c7 09 3d 05 bd 3f 3d 7b 20 32 3b cd 3e 54 3d
       0.03363723 0.046811122 0.0027180004 0.051817704
000370 e1 10 c6 3c e5 d7 f4 3c 07 aa 47 3d 26 eb a4 3c
       0.02417797 0.029888103 0.048746135 0.020131659
000380 40 11 bf bc 65 d1 96 3c 39 e4 0d 3d e3 63 e3 3c
       -0.023323655 0.018410394 0.03464148 0.02775759
000390 8b 0a 69 3d 35 b1 15 bc 5b 7c 1c bd 50 a2 d3 bc
       0.05689482 -0.009136488 -0.038204532 -0.025834233
0003a0 ca 36 0a bd 40 94 50 3d ee 7a ed bc c4 c3 98 3c
       -0.033743657 0.050922632 -0.028989282 0.018648036
0003b0 b7 3e 31 3d 48 25 90 3c 51 72 c0 3c fc 76 56 3d
       0.0432727 0.017595902 0.02349201 0.052359566
0003c0 0b 2d 92 3c 34 ae b3 3c 3c 9a 89 bc 14 41 2c bd
       0.017843744 0.021933652 -0.016797177 -0.04205425
0003d0 40 31 eb 3b f2 aa ca 3c 89 7b b8 bc ae 7b fb bc
       0.007177502 0.024739716 -0.022519844 -0.030698624
0003e0 7d 68 aa bc cc b0 41 3d 70 91 1b bd f0 2b 67 3b
       -0.020801777 0.047287747 -0.037980497 0.0035273992
0003f0 44 de ca bc 44 bc c9 bb e0 44 06 3c a5 bc 88 3a
       -0.024764188 -0.006156476 0.008195132 0.0010432197
