PPO-GAE/SpaceInvaders/FINAL.SpaceInvadersNoFrameskip-v4.MODEL (torch_old, 417862 bytes, 9 tensors)

weight f4 [32, 4, 8, 8]
-0.03384285 -0.042470746 0.059197403 0.06366955 0.06013092 -0.0241319 0.0676266 0.046612702
0.023898324 0.026675353 -0.029659694 0.043665342 0.006089727 0.013495479 -0.02129037 -0.010040209
0.021792898 0.047253914 -0.05058338 -0.012005967 -0.06460775 -0.03292234 0.02586868 -0.06213881
-0.033315208 0.05055268 0.019938903 0.043396126 -0.011296332 -0.013527232 -0.02008454 -0.054863814
0.029193856 -0.07078985 0.043108705 -0.05126038 -0.055741653 0.0020938292 -0.080803126 -0.05206639
-0.07291798 -0.053903796 0.037368234 0.012502 0.0708648 0.02587415 0.039939944 0.018290773
-0.012435274 -0.008873903 0.02909496 -0.015780507 -0.059081934 0.058847506 -0.050259918 0.0085019395
-0.09956736 -0.014168848 -0.013211283 -0.04442792 -0.0216173 -0.0015146029 0.03479568 0.032044485
-0.0039332304 -0.06689381 0.012775919 -0.015365292 -0.044216085 -0.016893141 -0.021652294 -0.007977447
0.0731384 -0.00091106805 -0.05017616 -0.0033857685 -0.008457634 -0.02106513 -0.034802776 0.05156592
-0.037919357 0.044414256 0.04238113 -0.064366326 0.018277334 -0.027744494 0.020970313 -0.06720263
0.06274967 0.0028101983 0.00044907889 -0.006620886 -0.03126714 -0.07507727 0.054384157 -0.08111839
0.013141915 0.033349015 0.011743837 -0.045107946 0.019068252 -0.04081397 0.0059997616 -0.061716102
-0.07047951 -0.005100085 0.020275127 -0.0023952099 0.07318952 0.010791553 0.054479316 0.036237445
0.0035122046 -0.04712864 0.04159697 -0.015555542 -0.043615248 0.0455165 -0.06278984 0.012537276
-0.031929392 -0.030526701 -0.069707476 -0.029786197 0.0031954597 0.007794033 0.03599652 0.011646754
0.0552438 0.034412976 -0.02916857 0.05506995 0.0011922874 0.05520395 0.007471085 0.02939274
-0.030409344 -0.037334852 -0.040759858 0.024495788 -0.023244217 0.028479094 -0.029812833 0.05151358
-0.05874156 -0.033494025 -0.0026009528 -0.038293846 -0.023370039 -0.015615187 0.010788982 -0.05830983
0.07505458 0.01492327 0.085596755 -0.05653889 -0.04648918 0.023070166 0.04546221 -0.04238837
0.015382819 0.029896384 -0.0244577 0.07171568 0.012807429 0.026070088 0.04384465 -0.064183004
0.043153383 -0.0330352 -0.03599395 0.014160106 -0.011524725 0.011025415 0.031988602 0.055181682
-0.06977544 -0.0052322927 -0.01272704 -0.043671418 -0.024976945 0.0043199873 -0.00091757934 -0.028907727
-0.031367164 -0.0072152633 0.031161206 -0.036759205 -0.014583 -0.045938924 0.035638828 -0.041831065
-0.03815082 -0.00856752 0.051756024 -0.03090338 -0.04486997 0.042044345 -0.049143173 0.0041132746
-0.019492332 -0.020233111 -0.048636656 -0.038837276 0.06934787 0.032147035 -0.026290936 -0.061593484
-0.026006412 0.047219522 0.03332683 -0.08440837 -0.0347161 -0.062492065 -0.022480873 -0.061913475
-0.037618432 0.03672175 -0.04138336 -0.0071695074 -0.040149692 -0.02922436 -0.048345286 -0.013376984
-0.01395534 -0.0575992 0.01819827 -0.028504932 0.043793157 -0.0639793 -0.04291782 -0.068899766
-0.021515634 -0.026872959 0.07136586 -0.03427719 0.07502152 -0.03117405 -0.05043283 0.047073506
-8.30426e-05 0.0010832894 -0.061225187 -0.006656281 -0.014024608 0.067921594 -0.045050584 0.045007106
0.033403367 -0.11415282 -0.015749153 -0.05434323 -0.0070691276 -0.013323208 -0.0064411685 -0.063243024
00000000: cd9e 0abd cef5 2dbd fa78 723d 2e65 823d
00000010: d74b 763d 43b0 c5bc d17f 8a3d f6ec 3e3d
00000020: 6bc6 c33c 4586 da3c e3f8 f2bc 6eda 323d
00000030: 558c c73b 241c 5d3c 2469 aebc b07f 24bc
00000040: 0587 b23c 528d 413d 8530 4fbd adb4 44bc
00000050: 1151 84bd 93d9 06bd 8eea d33c 4485 7ebd
00000060: 8775 08bd 5410 4f3d e956 a33c 23c0 313d
00000070: 4014 39bc 53a1 5dbc 5588 a4bc e1b8 60bd
00000080: f427 ef3c 45fa 90bd c192 303d 67f6 51bd
00000090: 5c51 64bd a038 093b 1c7c a5bd 9143 55bd
000000a0: 0656 95bd 3aca 5cbd 6f0f 193d 30d5 4c3c
000000b0: 9021 913d 07f6 d33c 1198 233d 88d6 953c
000000c0: 52bd 4bbc d963 11bc 8e58 ee3c 1f46 81bc
000000d0: e6ff 71bd 150a 713d 58dd 4dbd b84b 0b3c
000000e0: f9e9 cbbd 7524 68bc 2374 58bc 0dfa 35bd
000000f0: c416 b1bc a485 c6ba ea85 0e3d 1441 033d
00000100: 54e2 80bb 9fff 88bd 1752 513c b5be 7bbc
00000110: ed1b 35bd 7c63 8abc 2760 b1bc d6b3 02bc
00000120: 96c9 953d bed4 6eba 8485 4dbd c5e3 5dbb
00000130: e391 0abc c890 acbc 5b8d 0ebd c936 533d
00000140: 5451 1bbd b9eb 353d d697 2d3d 7ed2 83bd
00000150: 59ba 953c 6c48 e3bc efc9 ab3c 88a1 89bd
00000160: e682 803d 4e2b 383b 5972 eb39 04f4 d8bb
00000170: f911 00bd 1dc2 99bd ecc1 5e3d 6621 a6bd
00000180: 3051 573c fa98 083d 3969 403c 1cc3 38bd
00000190: 0635 9c3c 8d2c 27bd a699 c43b 06ca 7cbd
000001a0: 9057 90bd 9d1e a7bb 0618 a63c f4f8 1cbb
000001b0: 63e4 953d 0ecf 303c b425 5f3d b76d 143d
000001c0: 042d 663b f609 41bd 9661 2a3d acdc 7ebc
000001d0: e7a5 32bd 826f 3a3d f697 80bd 2669 4d3c
000001e0: 65c8 02bd 2213 fabc cbc2 8ebd 2f02 f4bc
000001f0: eb6a 513b 1665 ff3b 1671 133d 07d2 3e3c
00000200: 5347 623d 9ff4 0c3d edf2 eebc 0791 613d
00000210: 8746 9c3a 891d 623d 01d0 f43b 0bc9 f03c
00000220: 041d f9bc 6eec 18bd cff3 26bd 64ab c83c
00000230: a86a bebc fd4c e93c 0b3a f4bc e7ff 523d
00000240: fd9a 70bd 0831 09bd bf74 2abb 02da 1cbd
00000250: 8672 bfbc d7d6 7fbc 45c4 303c 4ad6 6ebd
00000260: 37b6 993d bb80 743c 5a4d af3d 5395 67bd
00000270: 706b 3ebd a5fd bc3c 9536 3a3d 6d9f 2dbd
00000280: 3808 7c3c 43e9 f43c 845b c8bc acdf 923d
00000290: 40d6 513c f090 d53c 7396 333d 6172 83bd
000002a0: 9ac1 303d eb4f 07bd 646e 13bd caff 673c
000002b0: 33d2 3cbc f1a3 343c 7b06 033d 3006 623d
000002c0: 6de6 8ebd a773 abbb 1385 50bc cde0 32bd
000002d0: 739c ccbc ae8e 8d3b b589 70ba e6cf ecbc
000002e0: db7a 00bd 046e ecbb c945 ff3c d290 16bd
000002f0: 89ed 6ebc 742a 3cbd 05fa 113d 0d57 2bbd
00000300: 0944 1cbd c95e 0cbc 20fe 533d 1629 fdbc
00000310: 93c9 37bd b136 2c3d 5a4a 49bd a6c8 863b
00000320: 62ae 9fbc e9bf a5bc 3b37 47bd d613 1fbd
00000330: 4206 8e3d 9cac 033d 1760 d7bc 7349 7cbd
00000340: 660b d5bc 4269 413d b781 083d 4cde acbd
00000350: 7832 0ebd aef7 7fbd cf29 b8bc fc98 7dbd
00000360: c915 1abd 8c69 163d 9981 29bd 30ee eabb
00000370: 0174 24bd ed67 efbc b505 46bd 232b 5bbc
00000380: f0a4 64bc 24ed 6bbd 8a14 953c 2d83 e9bc
00000390: 7460 333d 9407 83bd 99ca 2fbd 521b 8dbd
000003a0: 8e41 b0bc ae24 dcbc 4428 923d 3d66 0cbd
000003b0: e2a4 993d b960 ffbc a892 4ebd 26d0 403d
000003c0: 2827 aeb8 29fd 8d3a 43c7 7abd ef1c dabb
000003d0: 78c7 65bc 7a1a 8b3d f686 38bd 5f59 383d
000003e0: f8d1 083d f4c8 e9bd 5e04 81bc 0297 5ebd
000003f0: 24a4 e7bb 9649 5abc 7010 d3bb 8f85 81bd

bias f4 [32]
-0.052485313 -0.035627015 -0.025223678 0.013375423 -0.02271755 -0.07806959 -0.08244089 0.0028310823
0.004165335 -0.052852098 0.01483584 -0.005504715 -0.009753665 -0.015547582 -0.036824718 0.0034909735
0.016395023 -0.01492753 -0.01372081 -0.06812917 -0.06666614 -0.009811184 0.04546083 0.0076441797
-0.04900499 0.01607556 -0.0027193665 -0.004598862 -0.017525133 -0.0033950566 -0.027767632 0.0030410413
00000000: d7fa 56bd a2ed 11bd e3a1 cebc 9724 5b3c
00000010: 281a babc f3e2 9fbd c5d6 a8bd ae89 393b
00000020: 5d7d 883b 717b 58bd 0612 733c e560 b4bb
00000030: d6cd 1fbc 49bb 7ebc 84d5 16bd d1c8 643b
00000040: db4e 863c 9992 74bc 40cd 60bc 4e87 8bbd
00000050: 4288 88bd 17bf 20bc 2335 3a3d 077c fa3b
00000060: 75b9 48bd e5b0 833c 6637 32bb 0db2 96bb
00000070: de90 8fbc 997f 5ebb f278 e3bc 354c 473b

weight f4 [64, 32, 4, 4]
0.004890972 0.036706053 -0.043213245 -0.011742375 0.030101351 0.019682225 -0.033274353 0.03195886
-0.03543972 0.007681738 0.009152171 0.021988984 -0.0077592623 -0.019342577 0.013157868 -0.012885578
0.0025285378 0.009374861 -0.058916338 0.013083636 -0.036375362 0.011242178 0.009359934 0.05190029
-0.02934797 -0.008024543 0.037757546 -0.005513773 0.023330372 0.004098583 0.03395508 -0.026650418
-0.022581238 -0.046171337 0.050584536 -0.025142198 0.026996791 0.039369084 0.017289178 -0.008146326
-0.038755435 0.018466607 -0.036711175 -0.053443227 -0.012708927 -0.043686785 -0.027293887 0.037128028
-0.042577706 0.035511583 -0.0114960335 0.0016817966 -0.026603663 0.051074672 0.029787771 0.039063845
0.030628141 0.043591835 -0.057888094 0.035993375 0.021297257 0.034232866 -0.04523411 -0.012161882
-0.025708359 0.022647625 -0.01989428 -0.040376317 -0.029777994 0.003347407 -0.03528987 -0.010266869
-0.0059494823 0.029288037 -0.013055759 0.02166703 -0.013556332 0.00020827718 -0.009905198 0.0017360236
0.006606686 -0.0028176012 0.03957388 0.06241242 -0.028366324 0.009139356 -0.003296505 -0.024031032
0.0028108929 -0.042361572 0.022008412 -0.02016577 0.022986233 0.03933193 0.0077074314 -0.0013280497
0.032440905 -0.042308528 0.030520918 0.004594716 0.019448234 0.026128873 -0.044009734 -0.04065065
0.028222246 -0.025311792 0.009175419 -0.027226623 -0.018302402 -0.037178412 -0.04963794 -0.018940598
0.020341797 0.015437384 -0.048662048 0.016427618 0.011400278 0.018846897 -0.04822536 0.044241216
-0.029689213 0.04714563 -0.02882906 -0.006440214 -0.015843913 0.010589742 -0.0034691826 0.02054327
-0.014213862 -0.01834232 0.010586621 -0.013169715 0.021588756 -0.049473688 0.03576884 -0.045280717
-0.018301165 -0.02631313 0.009067315 -0.011924785 0.05277269 -0.03639033 0.04794746 0.027391436
0.046963777 -0.018524613 0.019227793 -0.016676795 0.06336372 -0.050648928 0.018139886 0.008116271
0.024571914 -0.0027480666 0.014590366 0.037623946 0.07720276 -0.011086813 -0.007853452 0.0140104275
-0.00582428 -0.010718462 0.013039178 0.007715667 -0.04027421 -0.024491629 -0.035631068 0.01160133
-0.033919618 -0.032121714 -0.011976966 0.053449623 -0.0064861192 0.010800466 -0.03673073 0.043374967
0.0071974886 -0.034872685 0.03454735 -0.035911784 0.06607559 -0.008026655 0.073926546 -0.039635427
0.051629167 -0.028399365 0.03512023 -0.02346141 -0.05598553 0.029396923 -0.03858406 0.024281822
-0.063689955 0.0077279503 -0.013091011 0.06514313 0.027115993 0.026725873 -0.045297585 -0.03123088
0.06501924 0.033615086 -0.011968191 0.00789033 -0.045800697 0.04733289 -0.050762225 0.030782448
0.022189803 0.013637242 -0.010545094 0.0062677287 -0.027348623 0.026544878 -0.041307896 0.03908073
-0.037125044 0.026625553 -0.036004454 0.021086993 -0.032672755 -0.009848693 -0.011092043 0.045895696
-0.022157183 -0.0122482525 -0.052667886 -0.022453032 -0.036528666 -0.020561663 -0.05606156 -0.04788353
-0.035993718 -0.019572718 0.026270846 -0.044495434 0.012666124 -0.050453156 0.03035405 -0.007776929
0.008686131 -0.028673973 0.006228388 -0.010763693 0.007711404 -0.020721426 -0.013492039 0.03096376
-0.05065269 -0.005821147 -0.04656773 -0.030477898 -0.028589092 0.01073913 -0.00019074707 0.05808983
00000000: 7244 a03b 1659 163d 5f00 31bd 1763 40bc
00000010: 1c97 f63c 9e3c a13c b04a 08bd 4be7 023d
00000020: 3d29 11bd 17b7 fb3b fdf2 153c 3e22 b43c
00000030: 6941 febb 5374 9ebc 1994 573c 081e 53bc
00000040: d3b5 253b 0499 193c 4252 71bd bf5c 563c
00000050: 55fe 14bd 1d31 383c 695a 193c 6695 543d
00000060: 276b f0bc 5f79 03bc a8a7 1a3d e1ac b4bb
00000070: 561f bf3c 684d 863b 7b14 0b3d fa51 dabc
00000080: 4afc b8bc 281e 3dbd bb31 4f3d 03f7 cdbc
00000090: 6028 dd3c 7a41 213d 09a2 8d3c 2b78 05bc
000000a0: 05be 1ebd 4847 973c 755e 16bd 49e7 5abd
000000b0: 1a39 50bc eaf0 32bd 6e97 dfbc 8f13 183d
000000c0: f665 2ebd 9874 113d dc59 3cbc bb6f dc3a
000000d0: edef d9bc ad33 513d 7c05 f43c 6901 203d
000000e0: dee7 fa3c 5a8d 323d 111c 6dbd ca6d 133d
000000f0: 9677 ae3c c337 0c3d 6747 39bd a142 47bc
00000100: 569a d2bc 8387 b93c 54f9 a2bc a361 25bd
00000110: fbf0 f3bc 2c60 5b3b 1c8c 10bd 5f36 28bc
00000120: e0f3 c2bb 77ed ef3c d2e7 55bc 0e7f b13c
00000130: 611b 5ebc fb64 5a39 6949 22bc 498b e33a
00000140: e67c d83b 81a7 38bb 3918 223d 2aa4 7f3d
00000150: 7e60 e8bc 3dbd 153c 2d0a 58bb badc c4bc
00000160: f536 383b 5483 2dbd fc4a b43c af32 a5bc
00000170: a04d bc3c 851a 213d 9f8e fc3b f411 aeba
00000180: c1e0 043d b54b 2dbd 0107 fa3c 458f 963b
00000190: e751 9f3c 380c d63c 8d43 34bd 4c81 26bd
000001a0: 5732 e73c ad5a cfbc 7f54 163c 5e0a dfbc
000001b0: ebee 95bc 6448 18bd 2751 4bbd 5029 9bbc
000001c0: d7a3 a63c 15ed 7c3c db51 47bd 3693 863c
000001d0: 3bc8 3a3c cf64 9a3c f587 45bd 4736 353d
000001e0: cb36 f3bc c71b 413d ec2a ecbc 6e08 d3bb
000001f0: 18cb 81bc 9980 2d3c 3a5b 63bb 5c4a a83c
00000200: 42e1 68bc a242 96bc 8273 2d3c cac5 57bc
00000210: e7da b03c eca4 4abd 5982 123d 4678 39bd
00000220: 53ec 95bc a28e d7bc 138f 143c 2c60 43bc
00000230: 2d28 583d 070e 15bd 8e64 443d 0164 e03c
00000240: 175d 403d eec0 97bc 9b83 9d3c c69d 88bc
00000250: d7c4 813d 4075 4fbd 199a 943c 1cfa 043c
00000260: 0a4b c93c e818 34bb 6e0c 6f3c 911b 1a3d
00000270: 7b1c 9e3d 77a5 35bc c4ab 00bc fe8b 653c
00000280: 9ad9 bebb 7d9c 2fbc 47a2 553c b5d3 fc3b
00000290: 92f6 24bd aba2 c8bc e2f1 11bd 8113 3e3c
000002a0: 4cef 0abd 0f92 03bd 093b 44bc feed 5a3d
000002b0: 8389 d4bb 70f4 303c f672 16bd f3a9 313d
000002c0: e9d8 eb3b a9d6 0ebd 8681 0d3d 3c18 13bd
000002d0: a452 873d 3b82 03bc cd66 973d c258 22bd
000002e0: 1b79 533d c9a5 e8bc 3bda 0f3d 2532 c0bc
000002f0: 1551 65bd d1d1 f03c 520a 1ebd acea c63c
00000300: e16f 82bd bf3a fd3b ae7b 56bc c369 853d
00000310: 5c22 de3c 38f0 da3c f689 39bd e7d7 ffbc
00000320: cf28 853d f9af 093d 3b16 44bc 7146 013c
00000330: 8399 3bbd 22e0 413d 0dec 4fbd 792b fc3c
00000340: 64c7 b53c bd6e 5f3c 54c5 2cbc 8561 cd3b
00000350: 380a e0bc a574 d93c 7832 29bd 1e13 203d
00000360: 6e10 18bd d51d da3c 6879 13bd a1be ac3c
00000370: ded3 05bd 6a5c 21bc 66bb 35bc 20fd 3b3d
00000380: fb82 b5bc e5ac 48bc 48ba 57bd 6cef b7bc
00000390: 159f 15bd ef70 a8bc cea0 65bd 8521 44bd
000003a0: 266e 13bd f756 a0bc f535 d73c d840 36bd
000003b0: 9385 4f3c f8a7 4ebd 0fa9 f83c 9cd5 febb
000003c0: 4650 0e3c aee5 eabc 8117 cc3b 335a 30bc
000003d0: f2af fc3b fbbf a9bc b70d 5dbc b6a7 fd3c
000003e0: 3279 4fbd 52bf bebb cebd 3ebd c9ac f9bc
000003f0: ac33 eabc 2df3 2f3c 4703 48b9 9aef 6d3d

bias f4 [64]
0.03536641 -0.04632371 -0.03518804 -0.032944433 -0.03069168 0.004761976 0.037884135 -0.020720772
-0.0077697327 -0.057510644 -0.0168576 0.03819587 -0.008210503 0.029893361 -0.05572714 -0.03593955
-0.011387081 -0.01674103 -0.032009825 -0.033879694 -0.015168442 -0.032494858 0.033920564 0.0030372562
0.01533535 -0.013795846 -0.024246264 -0.04168761 0.019635657 0.0011512672 -0.013739592 -0.05823387
-0.010515086 -0.043705482 0.058628537 -0.023172159 0.0042310185 0.011138268 -0.03409551 0.010349822
-0.037908122 -0.019440351 -0.034402482 -0.043035593 0.025457034 -0.058348008 -0.014110851 0.018078558
-0.043079123 -0.038373914 0.041450217 -0.038614113 0.0046891407 -0.060075074 0.03928694 0.038197275
-0.02467259 0.04289603 0.024044555 -0.067649044 0.041788828 0.0020221842 0.06551502 -0.020245312
00000000: 5edc 103d eebd 3dbd 5621 10bd bef0 06bd
00000010: 1e6d fbbc 5a0a 9c3b 652c 1b3d 9cbe a9bc
00000020: 3e99 febb 4890 6bbd f318 8abc 4673 1c3d
00000030: 5885 06bc ece2 f43c 2442 64bd 5935 13bd
00000040: e190 3abc 7c24 89bc bc1c 03bd 6fc5 0abd
00000050: 0f85 78bc 5419 05bd 4af0 0a3d b40c 473b
00000060: 1f41 7b3c f907 62bc 1aa0 c6bc a1c0 2abd
00000070: f5da a03c 1ee6 963a 071c 61bc a386 6ebd
00000080: 7847 2cbc 8504 33bd 7a24 703d 8ad3 bdbc
00000090: 5ba4 8a3b 487d 363c bca7 0bbd 4d92 293c
000000a0: 8c45 1bbd 5f41 9fbc 9ee9 0cbd 1746 30bd
000000b0: 458b d03c 52fe 6ebd 3331 67bc 7c19 943c
000000c0: bc73 30bd f72d 1dbd b4c7 293d d529 1ebd
000000d0: 5da7 993b 4811 76bd 58eb 203d bf74 1c3d
000000e0: 2c1e cabc bfb3 2f3d 16f9 c43c 958b 8abd
000000f0: c32a 2b3d 9f86 043b bd2c 863d 7fd9 a5bc

weight f4 [64, 64, 3, 3]
-0.05614301 -0.03953041 0.025662225 -0.0027130765 -0.0070162625 0.04154485 -0.009968241 0.0039282558
0.0007854422 0.03080959 -0.023192814 -0.044533867 -0.014756597 0.037181735 -0.01692344 -0.050041158
0.015953036 -0.006155552 -0.06430585 -0.079033665 -0.048059132 0.011920302 0.022486975 0.027505443
-0.060730536 -0.09340521 0.02533191 0.06494992 0.012029136 -0.041918315 -0.022448367 -0.0061143744
-0.008930896 -0.019561516 0.039639696 -0.0031117492 -0.042970844 -0.015136295 0.0018550209 -0.008717669
0.0131082265 0.0063563916 0.008264919 0.037640642 0.0154353315 -0.034630507 0.02277813 -0.03647832
0.048133712 0.04140907 -0.017713735 -0.053206723 -0.043931488 0.025514828 0.053925354 -0.0072845574
-0.020764526 0.0028694381 0.002432279 0.013955337 0.018447397 0.018862324 -0.040433258 -0.048293993
-0.05847178 0.019159384 -0.00084402657 0.0064412137 0.022730354 -0.021028308 0.008163761 -0.05929918
-0.020328544 0.03116862 0.033525586 -0.03219939 -0.019033628 0.00886712 -0.040582474 -0.022282103
0.019502357 -0.007088169 0.01924331 0.039388448 0.03386131 7.727701e-05 0.052172303 -0.017015126
-0.01306022 0.03422711 -0.0072563775 0.010136875 -0.020706238 0.0543163 0.013263611 0.008813789
0.021930221 -0.023837069 -0.026672611 0.057392884 0.02203352 0.035519894 0.020658445 0.016878778
-0.04257305 -0.024793448 0.03816536 -0.003291752 -0.029305054 -0.0060611907 0.020562146 -0.082665704
-0.047690168 -0.00064112595 -0.071620695 -0.0029188932 -0.05455801 -0.037208103 0.021577815 -0.028551366
-0.04343113 -0.0682896 0.072096184 -0.0032241289 -0.022778789 0.05808141 0.009248386 -0.032437183
0.022274645 -0.0023973144 0.026751425 -0.032868847 -0.03436061 0.012132098 0.030449059 -0.0018154925
0.020336052 -0.045664534 0.026342675 0.032058302 0.012196878 -0.011928778 -0.0074484507 -0.011256699
-0.027113313 -0.01701284 0.002657076 0.025918921 0.0059969197 0.05388264 0.020380752 -0.06600364
-0.0026837436 -0.00901677 -0.0024321156 -0.030093126 0.03944483 -0.01715046 -0.07671248 -0.013285232
-0.024790449 -0.023322579 0.0039376016 -0.0012767985 0.022301279 0.024395859 0.043553114 -0.036173154
0.03334658 -0.01989003 0.016738385 0.009722914 0.028149966 0.029542584 0.037891477 0.004695065
-0.01751735 -0.01949463 0.009246433 0.025395896 -0.03192091 -0.010122799 -0.015747074 0.022408647
-0.046132248 0.06239601 0.015039627 -0.0269188 0.05039829 0.02869343 -0.026260003 0.031151477
0.028783465 -0.010546991 0.011660531 -0.02822155 0.008561533 0.044433303 0.026377715 -0.0033263192
0.028785406 -0.04331374 0.030135872 -0.041665684 0.021124866 -0.018417623 -0.003998144 -0.008047188
-0.084897146 -0.031075316 0.009788666 -0.028075017 0.019316703 -0.013790657 -0.013113913 -0.020164741
-0.013316478 -0.047753826 -0.06667 -0.036078773 -0.034622155 -0.027338855 -0.031234458 -0.040371507
-0.02151948 -0.014847388 -0.038927387 0.009362494 0.009970667 -0.06269346 -0.054958753 -0.035038598
-0.054174118 -0.0148984315 0.022843657 -0.045822427 0.0021473602 0.033137318 0.04029817 0.028522654
0.011625814 -0.02346334 -0.033597797 0.0087457625 -0.045828875 0.02905933 -0.015086191 0.022032417
-0.03321467 0.058407914 -0.006166944 -0.021146545 0.0033138895 -0.028452888 0.010487316 0.010911328
00000000: 36f6 65bd a4ea 21bd 9639 d23c dfcd 31bb
00000010: ade8 e5bb ef2a 2a3d d551 23bc 99b8 803b
00000020: 22e6 4d3a 6564 fc3c dbfe bdbc 2569 36bd
00000030: a7c5 71bc e04b 183d 07a3 8abc f5f7 4cbd
00000040: f1af 823c 83b4 c9bb c9b2 83bd 67dc a1bd
00000050: a7d9 44bd 5f4d 433c 9b36 b83c 1853 e13c
00000060: 95c0 78bd 3b4b bfbd de84 cf3c 7704 853d
00000070: da15 453c 8ab2 2bbd a3e5 b7bc 175b c8bb
00000080: e552 12bc 793f a0bc 3c5d 223d 7dee 4bbb
00000090: 3202 30bd 39fe 77bc 2c24 f33a 8ed4 0ebc
000000a0: e3c3 563c 4749 d03b 9569 073c 132d 1a3d
000000b0: 79e4 7c3c b8d8 0dbd 3399 ba3c 4a6a 15bd
000000c0: db27 453d 8f9c 293d 651c 91bc 4bef 59bd
000000d0: 81f1 33bd 7904 d13c d5e0 5c3d 4cb3 eebb
000000e0: 5e1a aabc 2f0d 3c3b df66 1f3b eda4 643c
000000f0: ff1e 973c 2985 9a3c 589d 25bd eccf 45bd
00000100: 1b80 6fbd 24f4 9c3c aa41 5dba d110 d33b
00000110: 0235 ba3c 8f43 acbc 4cc1 053c b2e3 72bd
00000120: 0c88 a6bc 5555 ff3c 2052 093d 82e3 03bd
00000130: 69ec 9bbc 6647 113c cf39 26bd f588 b6bc
00000140: 68c3 9f3c df43 e8bb 25a4 9d3c c855 213d
00000150: 28b2 0a3d c70f a238 a0b2 553d 4e63 8bbc
00000160: 88fa 55bc ba31 0c3d e8c6 edbb 2315 263c
00000170: 21a0 a9bc c57a 5e3d 9e4f 593c b667 103c
00000180: 02a7 b33c f545 c3bc 8580 dabc cd14 6b3d
00000190: a47f b43c 4f7d 113d e63b a93c 5d45 8a3c
000001a0: 1461 2ebd a11b cbbc 4853 1c3d 6fba 57bb
000001b0: 2711 f0bc f49c c6bb f271 a83c a34c a9bd
000001c0: c456 43bd 3c11 28ba dfad 92bd e74a 3fbb
000001d0: 3878 5fbd 8667 18bd f5c3 b03c 8ee4 e9bc
000001e0: d7e4 31bd 6bdb 8bbd 2aa7 933d e84b 53bb
000001f0: 959a babc c6e6 6d3d 8b86 173c dadc 04bd
00000200: 5179 b63c 431c 1dbb ce25 db3c 7ca1 06bd
00000210: b6bd 0cbd b5c5 463c 4e70 f93c d2f5 edba
00000220: cb97 a63c bc0a 3bbd 98cc d73c 914f 033d
00000230: 6ad5 473c ec70 43bc 2212 f4bb 056e 38bc
00000240: bd1c debc 835e 8bbc 5722 2e3b eb53 d43c
00000250: cf81 c43b 0bb4 5c3d 89f5 a63c eb2c 87bd
00000260: bfe1 2fbb 13bb 13bc 2164 1fbb dc85 f6bc
00000270: e790 213d 1f7f 8cbc 6f1b 9dbd 4daa 59bc
00000280: 5715 cbbc fe0e bfbc ff06 813b 405a a7ba
00000290: 2cb1 b63c d3d9 c73c c064 323d 4d2a 14bd
000002a0: 6c96 083d 6bf0 a2bc f01e 893c db4c 1f3c
000002b0: c29a e63c 4a03 f23c 1834 1b3d 0fd9 993b
000002c0: 8c80 8fbc 34b3 9fbc 5a7e 173c 0e0b d03c
000002d0: 80bf 02bd 19da 25bc 0200 81bc 5792 b73c
000002e0: 2bf5 3cbd f592 7f3d c568 763c d184 dcbc
000002f0: 706e 4e3d 7c0e eb3c 381f d7bc 6231 ff3c
00000300: 4dcb eb3c 49cd 2cbc d00b 3f3c e130 e7bc
00000310: ac45 0c3c b2ff 353d 1416 d83c 60fe 59bb
00000320: 5fcf eb3c c069 31bd 81df f63c a3a9 2abd
00000330: 0e0e ad3c 8ee0 96bc dd02 83bb 5ad8 03bc
00000340: 8ede adbd a991 febc a460 203c 94fd e5bc
00000350: 103e 9e3c 35f2 61bc bddb 56bc 8730 a5bc
00000360: 5b2d 5abc 8499 43bd 488a 88bd 56c7 13bd
00000370: f6cf 0dbd bcf5 dfbc 68df ffbc 985c 25bd
00000380: 9f49 b0bc 7542 73bc 5372 1fbd 2565 193c
00000390: 025c 233c 6e65 80bd 6e1c 61bd a284 0fbd
000003a0: aee5 5dbd 8d18 74bc 9f22 bb3c 4cb0 3bbd
000003b0: baba 0c3b ffba 073d b20f 253d 57a8 e93c
000003c0: 337a 3e3c 3136 c0bc d89d 09bd 634a 0f3c
000003d0: 0fb7 3bbd d50d ee3c 122c 77bc 547d b43c
000003e0: 1b0c 08bd 233d 6f3d 1314 cabb 853b adbc
000003f0: d72d 593b 0816 e9bc fed2 2b3c 6dc5 323c

bias f4 [64]
-0.0020819502 -0.049735256 0.008642362 -0.014413123 0.008998509 -0.0169883 -0.049851716 -0.0014398843
-0.012064583 -0.005127929 0.010937864 -0.02238085 -0.022837078 0.0646498 0.0224454 -0.037948493
-0.023031706 -0.029649885 -0.016629929 -0.021748694 -0.02551435 0.00801007 -0.037429433 0.041331023
-0.028593874 -0.03175814 0.026967209 0.024948684 0.012140725 0.009272056 0.03568962 0.010762572
-0.006194998 0.028400213 0.039651237 0.00802325 -0.014559221 -0.044142455 0.04144844 -0.022601303
0.056468997 0.005054229 0.0066964696 -0.038063545 -0.062597714 -0.01073167 0.03354215 -0.022060456
-0.028693244 0.004336343 -0.034465898 -0.052534897 -0.046089843 -0.056249876 -0.045708593 0.028192492
0.0076357424 0.008037936 0.034290604 -0.027306769 0.04097804 -0.043836202 -0.032269638 0.050832722
00000000: 5471 08bb 32b7 4bbd b298 0d3c 0525 6cbc
00000010: 7b6e 133c 0c2b 8bbc 5031 4cbd 80ba bcba
00000020: 87aa 45bc 3008 a8bb ba34 333c 0b58 b7bc
00000030: d314 bbbc 1d67 843d 6adf b73c e16f 1bbd
00000040: fdac bcbc 51e4 f2bc 7d3b 88bc 512a b2bc
00000050: 7803 d1bc ab3c 033c 9b4f 19bd b84a 293d
00000060: b33d eabc d314 02bd 56ea dc3c 2f61 cc3c
00000070: e4e9 463c d2e9 173c 472f 123d 8055 303c
00000080: 69ff cabb 90a7 e83c 5669 223d f373 033c
00000090: cd89 6ebc b8ce 34bd d7c5 293d 5e26 b9bc
000000a0: 094c 673d f29d a53b 0f6e db3b 85e8 1bbd
000000b0: 3b33 80bd e3d3 2fbc 7e63 093d 21b8 b4bc
000000c0: 180e ebbc e217 8e3b 1d2c 0dbd d52e 57bd
000000d0: b4c8 3cbd 4566 66bd ef38 3bbd f1f3 e63c
000000e0: 4035 fa3b 8cb1 033c 4e74 0c3d 72b2 dfbc
000000f0: 97d8 273d 978d 33bd 2b2d 04bd f935 503d

weight f4 [6, 3136]
-0.010499201 -0.03509586 -0.0071331565 0.040952973 0.032444622 0.02666398 0.020728048 -0.030999122
-0.02069292 0.036222734 0.04326236 0.062122717 0.020384317 0.017072827 0.009945714 -0.054745805
-0.017059734 -0.022371862 -0.025730021 -0.037892416 -0.015058248 0.010949978 -0.02282229 -0.034341637
0.0069771307 -0.021165675 -0.047472816 0.019509787 -0.04648439 0.027849695 -0.04251409 -0.06658327
0.0031954672 -0.019384116 0.02760214 -0.0073205614 0.0061630392 -0.00587666 -0.012880851 -0.03662862
-0.008386686 -0.022259742 0.013363492 0.008024484 -0.014614033 0.02021189 -0.014320655 0.025749767
-0.02520578 0.0047729397 -0.003928008 -0.004671545 -0.05550479 -0.0520074 0.0325813 0.023177568
-0.066192485 0.027966037 -0.0059524593 -0.0291651 -0.011618865 -0.00960235 -0.028777096 -0.044527084
-0.010358829 -0.05282377 -0.0016638362 -0.012133942 0.013781951 -0.012499011 -0.016194016 -0.0049286
0.0010248406 -0.05715618 -0.0616242 -0.031023465 -0.0006228929 -0.058946226 0.015165322 0.027173059
0.03604248 0.019872447 0.026126444 0.022412928 0.0062406613 -0.0037730788 -0.007737235 0.011683086
0.027510125 -0.035906628 0.025796985 -0.032713715 -0.020525424 0.0068488256 0.0031843167 0.006629884
0.009856302 0.017890211 0.014853221 0.013254367 -0.0020712293 0.032543916 0.032428034 0.0057773464
0.04556123 0.0042557875 0.013331475 0.030735796 -0.021308033 -0.037467413 -0.03024729 -0.01643698
0.02878683 -0.045231298 -0.041407645 -0.064744495 -0.009591951 0.036878843 0.062078808 -0.0043513044
-0.008046869 -0.022657672 0.007867316 -0.0014169867 0.01659602 -0.0046882303 -0.008354085 0.039357018
-0.057889655 -0.0069882255 -0.0005677975 0.01090125 -0.03405631 -0.004645733 -0.0052471296 0.02300577
-0.010998114 0.022418115 -0.01068175 -0.03998958 0.030282693 0.014050124 0.017270511 0.027911909
0.032984532 0.0031759108 0.02673747 -0.011183645 -0.0049502724 -0.012653545 -0.036616005 -0.026460005
0.0033881192 0.018096002 0.016806588 -0.013067193 -0.018153097 0.0078002675 0.018605344 -0.04532578
0.008631683 -0.035708424 -0.026774704 -0.030998265 -0.026668403 0.021302141 -0.009076867 0.018346949
-0.03962725 0.003987901 0.03884402 0.009379886 0.016650783 -0.00871538 -4.1858002e-05 -0.014741732
-0.0019446168 -0.0028494804 0.0123976655 0.011070203 -0.05087691 -0.0040505505 0.03189586 0.038862042
0.007921524 0.0068529993 0.0015849855 -0.020389492 -0.046691943 -0.0015052782 0.008342003 0.014599022
-0.0054193498 0.012189336 0.009458114 0.016288312 -0.0052804663 -0.0001417728 -0.039901752 -0.03706404
0.048221823 -0.023574209 0.059751578 -0.027359413 -0.02903681 -0.005669332 -0.020335402 0.016323153
-0.00045566267 0.026942259 -0.0141735 0.0053533074 0.0074581318 -0.030776836 0.021781953 -0.046676908
0.02138821 -0.011299968 0.026389165 0.041588694 0.0109994775 -0.010641241 0.024653722 0.012638172
0.043859515 0.0066447565 0.04503166 -0.0006974482 -0.013401885 0.03408384 0.008451609 0.013984495
0.015830169 0.031808782 -0.009600572 -0.054143965 0.019881744 0.012339219 0.052497055 0.02888392
-0.010060232 -0.01559845 -0.011993689 0.010234704 0.008494861 0.002443163 -0.015920391 0.005483854
0.022491772 0.030572072 0.047832042 0.030191684 0.0036506231 -0.04704831 0.028026482 0.03264963
00000000: d704 2cbc adc0 0fbd 41bd e9bb 4ebe 273d
00000010: a7e4 043d 6b6e da3c decd a93c dff1 fdbc
00000020: 3384 a9bc 4a5e 143d df33 313d 6474 7e3d
00000030: 03fd a63c 50dc 8b3c 59f3 223c 233d 60bd
00000040: dbc0 8bbc 3245 b7bc c4c7 d2bc 1435 1bbd
00000050: dfb6 76bc 8967 333c d0f5 babc d1a9 0cbd
00000060: 6aa0 e43b a363 adbc db72 42bd fdd2 9f3c
00000070: 6a66 3ebd 0b25 e43c 4123 2ebd cf5c 88bd
00000080: 0b6b 513b 70cb 9ebc e21d e23c 52e1 efbb
00000090: 52f3 c93b ff90 c0bb 340a 53bc e407 16bd
000000a0: 5068 09bc 105a b6bc 8cf2 5a3c 2079 033c
000000b0: b26f 6fbc 6893 a53c 2ea1 6abc 2df1 d23c
000000c0: 5a7c cebc 5266 9c3b 85b6 80bb c213 99bb
000000d0: fe58 63bd b605 55bd f873 053d e2de bd3c
000000e0: ed8f 87bd 0819 e53c d90c c3bb a6eb eebc
000000f0: 0d5d 3ebc 2d53 1dbc f2bd ebbc 0862 36bd
00000100: 14b8 29bc bd5d 58bd 1415 daba 71cd 46bc
00000110: b1cd 613c a7c8 4cbc 50a9 84bc 1880 a1bb
00000120: f253 863a 991c 6abd a869 7cbd ec24 febc
00000130: a349 23ba 9971 71bd f977 783c 099a de3c
00000140: 48a1 133d 8bcb a23c 2007 d63c 519b b73c
00000150: 767e cc3b c245 77bb a288 fdbb 6a6a 3f3c
00000160: ea5c e13c d412 13bd 3354 d33c d1fe 05bd
00000170: ef24 a8bc 1d6c e03b f8af 503b 7f3f d93b
00000180: 547c 213c 7e8e 923c ed5a 733c d828 593c
00000190: 76bd 07bb c54c 053d 42d3 043d e54f bd3b
000001a0: 6a9e 3a3d 2274 8b3b 426c 5a3c a3c9 fb3c
000001b0: 2f8e aebc 6e77 19bd 2ac9 f7bc d8a6 86bc
000001c0: 5cd2 eb3c 7444 39bd 109b 29bd c398 84bd
000001d0: 8f27 1dbc 450e 173d 5946 7e3d 6395 8ebb
000001e0: 04d7 03bc 959c b9bc eae5 003c 2fba b9ba
000001f0: 60f4 873c ba9f 99bb 92df 08bc d334 213d
00000200: b41d 6dbd 7cfd e4bb 3fd8 14ba 289b 323c
00000210: a17e 0bbd 3c3b 98bb 1df0 abbb 9976 bc3c
00000220: 6f31 34bc 32a6 b73c 8202 2fbc 1dcc 23bd
00000230: 6913 f83c 7e32 663c e37a 8d3c 84a7 e43c
00000240: ca1a 073d f122 503b 8a08 db3c 9b3b 37bc
00000250: e535 a2bb d050 4fbc aafa 15bd a7c2 d8bc
00000260: 350b 5e3b 113e 943c f8ad 893c c817 56bc
00000270: ceb5 94bc 6399 ff3b 3c6a 983c 86a7 39bd
00000280: e76b 0d3c ff42 12bd a056 dbbc 13f0 fdbc
00000290: b277 dabc d481 ae3c 24b7 14bc 574c 963c
000002a0: 2f50 22bd f0ac 823b e81a 1f3d 18ae 193c
000002b0: 3967 883c f4ca 0ebc b090 2fb8 4e87 71bc
000002c0: 83e2 feba 59be 3abb 941f 4b3c cc5f 353c
000002d0: 4f64 50bd 7bba 84bb 3ca5 023d ce2d 1f3d
000002e0: 48c9 013c 208f e03b 4abf cf3a dd07 a7bc
000002f0: 0d40 3fbd c14c c5ba e6ac 083c bd30 6f3c
00000300: cd94 b1bb c8b5 473c 35f6 1a3c 116f 853c
00000310: c307 adbb d9a8 14b9 0570 23bd 76d0 17bd
00000320: 3f84 453d b31e c1bc 12be 743d d920 e0bc
00000330: 9bde edbc cec5 b9bb 6e96 a6bc 22b8 853c
00000340: 02e6 eeb9 03b6 dc3c f837 68bc cc6a af3b
00000350: 5863 f43b b41f fcbc 1170 b23c 4930 3fbd
00000360: 5436 af3c 8023 39bc 172e d83c e858 2a3d
00000370: 2737 343c 9a58 2ebc 9af6 c93c 5610 4f3c
00000380: 09a6 333d 42bc d93b 1e73 383d f5d4 36ba
00000390: 9493 5bbc 7f9b 0b3d 9e78 0a3c 391f 653c
000003a0: 45ae 813c ed49 023d b84b 1dbc 10c6 5dbd
000003b0: 0adf a23c 702a 4a3c 2707 573d f89d ec3c
000003c0: acd3 24bc a490 7fbc 2e81 44bc 76af 273c
000003d0: 082e 0b3c 791d 203b 7b6b 82bc e7b1 b33b
000003e0: aa40 b83c 4872 fa3c 88eb 433d 8d54 f73c
000003f0: 4b3f 6f3b bbb5 40bd cb97 e53c 9ebb 053d

bias f4 [6]
-0.008300918 0.020847363 0.008638276 0.0095847845 0.021742146 0.014068572
00000000: 9300 08bc 17c8 aa3c 8e87 0d3c 8009 1d3c
00000010: 961c b23c de7f 663c

weight f4 [1, 3136]
0.00083066896 -0.0011193848 -0.0003041528 0.00023001451 0.0016500097 -0.001091927 0.0013017483 0.00034257444
-2.8388542e-06 0.00016005695 9.0081616e-05 -0.0006119561 -0.0003876054 0.001535298 5.7659663e-06 -0.0005210816
-0.0007917296 -0.00077754847 9.0650894e-05 0.0002707331 0.002510591 -0.0002449319 -0.00017311017 0.00059530925
0.0004922965 0.00024662478 0.0012678842 0.00083843415 -0.00059479184 0.00011826181 0.000114254995 0.00081363425
0.0002061146 0.0010391022 0.00011202211 -0.0023967873 0.0003439282 0.00056235667 2.5793224e-05 -0.0003286844
-0.00056444004 0.0005283662 0.0006582026 0.0008353955 0.004550823 -6.540212e-05 0.0020575651 0.0046218466
0.0061944784 0.002797883 0.0032875014 -0.00025780933 0.0004719222 -0.0004574143 -0.00051354524 8.7435666e-07
0.0014415717 0.0002330046 -0.0008098556 0.000440927 0.00023145472 0.001590279 -0.0005519276 -0.00049354543
-0.0008296852 0.0010734006 0.0011866783 0.0006187284 0.0015765585 0.0029019902 -0.00017744237 -0.00073686615
3.5410623e-05 0.0004988287 -0.0009152028 -0.00028054902 0.0011089854 9.901163e-06 0.00060992606 -0.00029680823
-0.000499086 0.00095339585 0.0027894308 0.00031862242 0.00043082575 -5.4485054e-07 -0.0002376745 0.00015545324
-0.002802885 -3.4381014e-06 -0.0032472867 -0.0055152928 -0.001967497 0.0025199484 -0.0041853655 -0.011619444
-0.0046076556 -0.0010796734 -0.00021456211 0.0013098227 0.0005409088 3.06454e-05 0.0007218611 -0.00091956096
-0.0005462478 0.00017471808 -0.00028132682 -0.00094312476 0.00068999355 0.0010493974 -0.002152837 -0.00040087308
0.0010994334 -0.00029843685 0.0014974207 0.001304873 -0.00023906642 6.285512e-05 0.00017955217 0.0011585193
4.263234e-06 -0.0023532396 -0.00027209418 0.00079713523 -0.0004970584 0.0050693466 0.00077751395 -0.00012042255
-0.00042033163 0.0016689077 -0.0015245576 -0.0011648131 -0.0013423397 0.0012280381 0.0007161456 0.00041289494
0.0030160213 0.0009953191 0.00026118444 0.0049033794 0.03156101 0.028080674 -0.0071186866 0.03223833
-0.011964728 0.024920123 0.029892731 0.0035497004 0.0012684435 0.0017317232 0.0010843762 -0.0036895764
0.0005764075 0.0008580497 0.00019776824 -0.0028586132 -0.0022631097 -0.0015119753 0.0012813756 -0.0023536454
-0.0011138659 0.0047004647 -0.0007892284 0.00068612595 -0.00088365335 -0.001241177 -0.0024653347 -0.0020902434
-0.0014808283 -3.9540796e-06 -0.00093065854 0.0007437822 0.00072703976 -0.0009914733 -0.0024343682 0.0017830606
0.0053341067 0.0021146466 0.004349285 -0.0002564697 0.0012569199 0.0020834976 -0.000774084 0.0003598157
-0.00021828635 0.0034803366 0.0020031547 0.0022110536 0.0030132441 -0.004002566 -0.0033257722 0.005046923
0.0046443865 0.009473083 0.011200575 -0.007652202 0.0005326384 -0.00041477423 0.001627837 0.003167892
0.0010728423 0.0019839532 0.0008639282 0.00395333 0.00040329507 0.0004514535 0.00039127964 0.0032900972
0.0013548627 0.0017379067 0.00015581862 0.0007040644 0.0003663941 0.00059940293 -0.0017808358 0.002727574
0.00090066367 -0.0011267902 -0.0006502462 -0.0007334079 0.0016181631 0.00017193417 -0.0019681603 0.00057317794
-0.0005847264 0.0010456659 0.00085497595 -0.0010805029 -0.0026800176 0.0017385337 0.0039537135 0.0017878689
0.0023157778 -0.0032690181 -0.0001081513 -0.002406264 2.8414705e-05 -0.0005491823 0.00960393 0.007849015
-0.0054809228 -0.009118046 0.0020355973 -0.0029311182 0.018782133 0.0034463885 -0.00030758188 2.0282296e-05
-0.0006261718 -0.0026943677 0.0029106764 0.00026199888 0.005863551 -0.000961689 0.0010695339 0.0004889426
00000000: 40c1 593a 52b8 92ba b376 9fb9 0d30 7139
00000010: 2345 d83a fe1e 8fba 6d9f aa3a 909b b339
00000020: 2583 3eb6 f6d4 2739 33ea bc38 ae6b 20ba
00000030: 8437 cbb9 0d3c c93a 4679 c136 3299 08ba
00000040: 138c 4fba 65d4 4bba d41b be38 2ef1 8d39
00000050: ba88 243b 346a 80b9 e884 35b9 870e 1c3a
00000060: 750d 013a 6b4d 8139 222f a63a 5dca 5b3a
00000070: ceeb 1bba 5303 f838 2f9c ef38 124a 553a
00000080: 7720 5839 7c32 883a 6aed ea38 6b13 1dbb
00000090: 4351 b439 1e6b 133a 875e d837 4653 acb9
000000a0: eef6 13ba 0e82 0a3a 3b8b 2c3a 71fe 5a3a
000000b0: 121f 953b 7f28 89b8 37d8 063b dc72 973b
000000c0: 0dfb ca3b b05c 373b 1f73 573b 952a 87b9
000000d0: 536c f739 1cd1 efb9 709f 06ba 55b5 6a35
000000e0: 1ff3 bc3a b252 7439 7d4c 54ba 382c e739
000000f0: a7b2 7239 e970 d03a 3caf 10ba 4661 01ba
00000100: 3b7f 59ba 59b1 8c3a 518a 9b3a 2932 223a
00000110: 86a4 ce3a 512f 3e3b d30f 3ab9 402a 41ba
00000120: de85 1438 d4c3 023a 38ea 6fba a716 93b9
00000130: 605b 913a 2c1d 2637 72e3 1f3a ed9c 9bb9
00000140: 18d5 02ba 50ed 793a e2ce 363b c70c a739
00000150: 74e0 e139 d841 12b5 4338 79b9 2901 2339
00000160: 9bb0 37bb 22ba 66b6 6ed0 54bb a1b9 b4bb
00000170: 1ff1 00bb b825 253b 6425 89bb 7b5f 3ebc
00000180: d1fb 96bb d483 8dba 14fc 60b9 5bae ab3a
00000190: c6cb 0d3a 3f89 0038 473b 3d3a b10e 71ba
000001a0: 1232 0fba 8734 3739 0c7f 93b9 083c 77ba
000001b0: afe0 343a ef8b 893a 9d16 0dbb 462c d2b9
000001c0: dd1a 903a 8477 9cb9 1a45 c43a 4608 ab3a
000001d0: e7ad 7ab9 16d1 8338 2b46 3c39 75d9 973a
000001e0: e70c 8f36 cf38 1abb dda7 8eb9 d7f6 503a
000001f0: 064d 02ba c31c a63b 14d2 4b3a 5d8b fcb8
00000200: f55f dcb9 40bf da3a aad3 c7ba a4ac 98ba
00000210: 72f1 afba 1ff6 a03a b8bb 3b3a d279 d839
00000220: 71a8 453b 5e75 823a 95ef 8839 87ac a03b
00000230: 1e46 013d 7109 e63c df43 e9bb 570c 043d
00000240: b507 44bc 4925 cc3c 9ae1 f43c 17a2 683b
00000250: e741 a63a fdfa e23a a121 8e3a d2cc 71bb
00000260: 0d1a 173a beee 603a 0260 4f39 9257 3bbb
00000270: ae50 14bb 792d c6ba d5f3 a73a 9e3f 1abb
00000280: 23ff 91ba 5b06 9a3b 39e4 4eba 22dd 333a
00000290: f9a4 67ba fdae a2ba 7491 21bb 77fc 08bb
000002a0: 5a18 c2ba 49ad 84b6 70f7 73ba 61fa 423a
000002b0: d096 3e3a 53f4 81ba ec89 1fbb 96b5 e93a
000002c0: bbc9 ae3b e295 0a3b 7284 8e3b c876 86b9
000002d0: 3cbf a43a 4a8b 083b e6eb 4aba a5a5 bc39
000002e0: cce3 64b9 5c16 643b 5c47 033b 53e7 103b
000002f0: d979 453b f527 83bb 33f5 59bb a960 a53b
00000300: f02f 983b fd34 1b3c 9e82 373c 53bf fabb
00000310: c2a0 0b3a 0e76 d9b9 255d d53a 699c 4f3b
00000320: 9d9e 8c3a 3605 023b 3d79 623a f08a 813b
00000330: 5971 d339 10b1 ec39 aa24 cd39 ac9e 573b
00000340: a695 b13a 79ca e33a 3e63 2339 f690 383a
00000350: 9518 c039 4021 1d3a ef6a e9ba 19c1 323b
00000360: 841a 6c3a ceb0 93ba 4975 2aba 2c42 40ba
00000370: 8b18 d43a 3a49 3439 40fc 00bb 5241 163a
00000380: 5348 19ba ba0e 893a 7720 603a a99f 8dba
00000390: 3ca3 2fbb 83df e33a 278e 813b ed56 ea3a
000003a0: 4ec4 173b 063d 56bb 49cf e2b8 69b2 1dbb
000003b0: 1d5c ee37 00f7 0fba cd59 1d3c 2899 003c
000003c0: 5099 b3bb db63 15bc a867 053b 0118 40bb
000003d0: fddc 993c cedc 613b f142 a1b9 e623 aa37
000003e0: ae25 24ba fd93 30bb 0cc1 3e3b e55c 8939
000003f0: 0823 c03b db19 7cba 9a2f 8c3a 622c 003a
