ICM/Pong/FINAL.PongNoFrameskip-v4.MODEL (torch_old, 417884 bytes, 9 tensors)

weight f4 [32, 4, 8, 8]
00000000: 0ac9 b83c 1975 ccbd a00e c93c c9b1 a13d
00000010: c12c 2b3d dfde 113e 6a1d 043e 72f3 d13d
00000020: 7f58 0a3e bda6 1c3e 27bf 1a3e 8faa 8abd
00000030: c695 3abc 7deb 033e f7a5 d33d 1e9a fcbd
00000040: a6f9 b43d 3b04 0cbe 7387 55bc 299b 623d
00000050: 7940 8dbd 27db b43d 33d2 b73d 7c2d 043e
00000060: 3782 b13d 6f45 ab3d b2db 18bd a093 d13c
00000070: 744d 33bb 80e5 ecbd be0c 13be 826d 85bc
00000080: 70d7 40bd d779 1a3e 4ff7 febd 97b9 833c
00000090: 61cf 11be 3dc6 60bd 8df8 8a3d 387f 1d3d
000000a0: 5797 0fbe f0d0 1bbd 7af8 1c3e b2fa 8b3a
000000b0: 7094 fd3d 8a1d 0ebb 23ed 973d e683 32bd
000000c0: 88ec f03d 2a86 b8bd 287e 913d b499 cfbd
000000d0: eabf b53d ce19 15be c41a 45bc ae4e c0bd
000000e0: bfc1 b3bc eaf1 e13d 63d6 d8bd 7433 ea3c
000000f0: e8a3 f9bd e2e6 173d 5b64 fe3d fcfe c13b
00000100: c75c c8bd c09f 5bbd fab8 0f3e 3912 b73d
00000110: b7f7 b7bd 32ab 82bd b8c0 963d 3c6a b93d
00000120: 3cc4 afbc 52b3 8a3d 3e44 7f3c 6890 d8bc
00000130: 6af9 023e 7f56 debc 8d4c 883d d591 9e3d
00000140: 0f51 e73d c1bb da3d 6d51 da3c b757 033e
00000150: 4edf 4d3d 4371 223d 62a7 123d a9d3 12be
00000160: 55e4 443c a692 29bd 5fe2 8abd 5f9d 39bd
00000170: a37b 423d 9f3d 6cbd 00b8 3abd 5cc0 0d3e
00000180: 523d 18be 38c2 12bd 5bc8 9a3d 73fa febd
00000190: 7de0 b43d 3f36 0c3e 0b54 33bd 2f41 bdbc
000001a0: f6c3 183e 849c ad3c c64c 983d e005 b93d
000001b0: 3f85 fd3d 2a7f a3bc d674 09be 5c4f d93d
000001c0: 5455 2fbd d6e1 f93d 48c3 3ebd 9bdd 153e
000001d0: c996 133d 07cb af3d ff83 0bbe 0eca cabd
000001e0: 0062 df3d 4df9 e2bd bb9e 3abd 0e89 083d
000001f0: 5573 ec3d 430a e13c 4fb6 a3bd 0d0f 01be
00000200: 8540 bd3d 65ec 493d ec46 863d abf8 463b
00000210: a5b3 783d 49de a53d 0b8b 653d 5470 813d
00000220: b1ca 07be 68c9 f9bc 61e5 ff3b fc26 f53d
00000230: db07 783d 67fb 81bd 3a44 c93c cde7 98bc
00000240: b057 c83d 34bc 69bd c5fc 01be 52f0 6d3d
00000250: da9e 0bbe cf15 c53c 9d10 b5bd 7ee8 7abd
00000260: 902c 833c 1523 adbd a2d8 8bbd 41d8 653a
00000270: 19f8 d43d 4c10 99bd d67c 0abd 4bc6 ec3d
00000280: 6291 d2bd 6fc4 903d 1f99 23be b2a2 1ebe
00000290: b4e8 fd3d bf58 513c e9ec 023e 2157 06bc
000002a0: 3ef4 bfbd 4086 e8bd 7b22 10be 9861 f13d
000002b0: 45e2 ca3d 100f 003d d482 e43d 0f0a 72bd
000002c0: 1d6f 4e3d 4457 04be 6092 143e 3099 a3bd
000002d0: 27c5 c23d 55f1 553c a210 8abd 4070 df3b
000002e0: 02fd 91bd d037 8d3d e1ef f8bb 1daa 1f3e
000002f0: 10a2 e93d dee3 ac3c 3a3c 4abd 6935 03bd
00000300: e398 5c3c c696 423d 37b4 d4bd b718 02be
00000310: eb2e 153e 9c97 03bc f9ba c23c c674 6a3d
00000320: 0e36 e1bd 24d7 97bd c3d3 60bd b267 473d
00000330: 26b0 7bbc c1b4 063e 8269 0cbe 3871 a5bd
00000340: b5f6 0f3c d8e7 e3bd e75f d43d f451 9e3d
00000350: 118d f3bd a97e 103c 91fb afbd 3848 3e3d
00000360: 6851 12be b001 19bd ef10 0dbe 336b b53d
00000370: 17b6 983a 3565 e53d df7a a03c 4b56 14bc
00000380: d02d 043e 9e4c 8f3d 8c59 8fbd 6f38 4b3b
00000390: 5d85 573d 3f6c 423d 02dd c33d 7216 ae3d
000003a0: 7535 9b3d 6e28 8a3d 7429 053d e7a4 403c
000003b0: 96c9 0bbe 49d2 b83c d9d2 323d b013 b9bd
000003c0: b58b 09be 2211 103e 8e54 eebd f846 243e
000003d0: 78b4 8abd 2b93 10be 90bd 043e 3096 25be
000003e0: 775a d13d 1e74 f13b 27d0 0e3e 84cd c83d
000003f0: dac3 a9bd d563 983d dfd5 463d 466d 2bbd
0.0225568 -0.09983272 0.024543107 0.07895238 0.041790728 0.14245175 0.12901846 0.10251512
0.13510321 0.1529798 0.15111981 -0.06770813 -0.011388248 0.128828 0.1033439 -0.12334083
0.08836679 -0.13673489 -0.013032782 0.055323754 -0.06897063 0.088308625 0.08975639 0.12907976
0.08667415 0.08362853 -0.037318893 0.025583088 -0.0027359398 -0.11567211 -0.1436033 -0.016287569
-0.047080457 0.1508554 -0.12449514 0.016079707 -0.14239265 -0.054876555 0.067856885 0.038451403
-0.14022575 -0.038041055 0.15329161 0.0010679571 0.12381828 -0.0021685087 0.07418277 -0.04358282
0.11763865 -0.09009965 0.071041405 -0.101367384 0.08874495 -0.14560625 -0.012030307 -0.09390007
-0.021942971 0.110324696 -0.10587766 0.028588988 -0.12189466 0.03708542 0.12421485 0.005920289
-0.09783321 -0.053619146 0.14035407 0.089390226 -0.08982795 -0.06380309 0.07360977 0.09053466
-0.021455877 0.06772484 0.015580235 -0.026436046 0.12790456 -0.027140854 0.06655226 0.07742659
0.112947576 0.106803425 0.026650155 0.1282643 0.050261788 0.039658796 0.03580416 -0.14338554
0.012017329 -0.04139962 -0.06781458 -0.045316096 0.04748119 -0.057675954 -0.045585632 0.1384291
-0.14867142 -0.035829753 0.07557746 -0.12450113 0.0883188 0.13692568 -0.04378132 -0.023102371
0.14918503 0.021192797 0.07436518 0.09034324 0.1237893 -0.019958097 -0.13423476 0.1061084
-0.042805985 0.12201278 -0.046572953 0.14635317 0.03603247 0.08583646 -0.13624571 -0.0990182
0.10907364 -0.110827066 -0.045561533 0.03333383 0.11545435 0.027470713 -0.07993757 -0.12603398
0.09240822 0.04929771 0.06556496 0.003036062 0.060718197 0.08099038 0.056040805 0.06320253
-0.13260914 -0.030491546 0.0078093265 0.11970326 0.060554367 -0.06346779 0.024568666 -0.018665219
0.0978235 -0.05706425 -0.1269408 0.058090515 -0.13634816 0.02405825 -0.08841059 -0.061256878
0.01601246 -0.08453957 -0.06828429 0.0008767881 0.103988834 -0.074738115 -0.03381046 0.11561259
-0.10281636 0.07068717 -0.1597638 -0.15491751 0.123979 0.012777506 0.12785687 -0.008199484
-0.093727574 -0.11353731 -0.14075653 0.11786193 0.09906439 0.031264365 0.11157766 -0.059091624
0.050398935 -0.12923914 0.14508963 -0.079882026 0.0951026 0.013058026 -0.06741454 0.006818801
-0.071283355 0.06895411 -0.007596955 0.15592237 0.11407864 0.02110475 -0.049373843 -0.032033358
0.013464185 0.04750707 -0.10385936 -0.1270474 0.14568679 -0.008031752 0.023770796 0.05724027
-0.10996638 -0.07414082 -0.05488945 0.048682876 -0.015361821 0.1315489 -0.13712123 -0.080782354
0.008786847 -0.11128205 0.103698544 0.07730475 -0.11892141 0.008819261 -0.08592904 0.046455592
-0.14288867 -0.037355125 -0.13775991 0.08858337 0.0011650947 0.11200944 0.01958984 -0.009053777
0.12908101 0.069970354 -0.069995016 0.003100898 0.05261742 0.047466513 0.09563638 0.08500375
0.075785555 0.067459926 0.032510236 0.011758066 -0.13651118 0.02256121 0.04365811 -0.09036958
-0.134322 0.14069036 -0.11637221 0.16042697 -0.06772703 -0.1411864 0.12962937 -0.16170573
0.10222333 0.0073685786 0.13946591 0.09804824 -0.08289309 0.074409164 0.048543807 -0.04185226

bias f4 [32]
00000000: 8078 223b e65c 963b ee64 903b 2b15 273c
00000010: 2425 5d3c f8e7 823b 6995 9a3c e6ca b53b
00000020: 0aa2 c43c 9a66 ac3c e974 ac3c 896b bb3b
00000030: e382 9f3c b269 a43c b080 463c cf39 923c
00000040: 5ca1 2f3b 27b0 303b d5c6 363c 478a 493c
00000050: e140 773b 6b83 f53c 7f56 3e3c 4e6e 9d3c
00000060: ca45 5e3c 4703 523c 907e 913a 2078 953c
00000070: 2a8a 5f3c ed1e 753c d5a8 8a3c 24a6 603b
0.0024791062 0.004588711 0.004406563 0.010197918 0.013497625 0.003994938 0.018870072 0.005547869
0.024003047 0.021045018 0.02105184 0.0057196063 0.019471591 0.02006993 0.012115642 0.01784983
0.0026799059 0.0026960464 0.011155804 0.012301034 0.003772788 0.029969892 0.011617302 0.019217636
0.013566444 0.012818164 0.0011100341 0.018245757 0.013643781 0.014960987 0.016926209 0.0034278715

weight f4 [64, 32, 4, 4]
00000000: 9b56 09bd 7000 84bd 97c7 19bd 47b9 ddbd
00000010: 9207 9f3b a8f9 db3d 80e2 433d 17e0 ca3d
00000020: 39a2 79bd 17fd 353d 7dd0 91bd 8b70 273b
00000030: a0e0 e33d 883f 97bd 4d92 9fbd 65c8 66bd
00000040: 5278 db3c b9c1 133d c9ff 703d b7d1 ccbd
00000050: 938b 27bd 6e9f ff3c 9b1b ebbc b5ad e53c
00000060: c21b a1bd 234f 9b3d 0ec0 a13d d86d e53d
00000070: cfa1 b1ba 316a 50bd 6f6c 13bd e755 0f3d
00000080: e4fb ba3d 4465 553d 95bb 8f3d f6c2 51bd
00000090: 0745 8ebd 8bf5 f23d 2e68 bfbd 1b26 c9bd
000000a0: ad19 98bd 9e16 78bd e174 553d 8159 96bd
000000b0: c5aa a13b 56a3 be3c 6e8e 863b 548e aebd
000000c0: bf6a a6bd 153c 3c3d 4d88 943b 005d b53d
000000d0: aa0d 64bd 22db 5abd ba5c d03c f6a6 8cbd
000000e0: 07ac 733d 98a7 d6bc 5f9e 023d 593e 47bd
000000f0: cb8c cf3c 02be 1d3c 87a5 d93d bc5d a23d
00000100: 6883 59bd 66f0 00bc 7734 c2bd 5a22 c73d
00000110: 94df ef3d 9bae 3bbd 3440 d9bd 3dae 653d
00000120: 4e16 693d 4701 bbbd 1067 c0bd 7131 943d
00000130: c3ee 943d ffb5 be3d 7dbe 1bbd a255 37bd
00000140: 1e37 96bd 967a c13c 47c4 33bd 0ce2 5ebd
00000150: 8bba 963b 9513 b43d 7e47 433d e926 943d
00000160: 65bf 00bd 84e9 ccbd 9227 9a3d 351e e53c
00000170: e918 843c 9a34 51bd 786a 2abd 385a 13bd
00000180: 2f4d b63d 6c7f 933d 4866 93bd e730 7f3b
00000190: 39fc c6bd 75cd d8bd 6609 3ebd d5e1 42bd
000001a0: abcc 183d d352 683b 05f8 babd 88a2 873d
000001b0: 86e4 52bc 7ea3 8c39 a13d 813c 87f0 b5bd
000001c0: 31d3 87bd d9a2 9fbd 57f5 3f3d bade 82bc
000001d0: 88ea a3bd a95b ba3c 2a1b 9a3d bae5 a33d
000001e0: 7fe2 cc3b 8f45 d5bd c887 823d a013 06bd
000001f0: 0475 123d d57d b9bd ce27 003d 02dd 913d
00000200: 88b8 2f3d 9eb5 1bbd d056 273d 759a c1bc
00000210: dda1 813b fe90 2ebd 9341 adbd 1134 833d
00000220: 713a aabd 71fd 2f3c 2d5e 6ebd fa15 d9bc
00000230: b42f 40bc 96a8 f23d dae4 e0bd 2d70 bcbd
00000240: 9ed6 9e3b 8792 bd3b 3abd e13d 173d 663d
00000250: 241d 67bc 9a23 dcbd 5e8e 0e3d 3a80 bebd
00000260: df56 afbd cb20 b5bd f0d8 343d 251a 423c
00000270: 8578 0a3c 6562 7f3d b1b0 12bd 2baa 82bd
00000280: 46e1 dcbb 72a4 a9bc d78a 24bd 7a23 6cbc
00000290: 702c ecbc 9c8f 3b3c a0cf bc3b 7f6f e6bc
000002a0: 6d14 c13d 862a bdbd 1b00 8e3d 8b9c 6b3d
000002b0: 7d3f d0bd 93dc cbbd 9ddd 11bc f304 1f3d
000002c0: 81a8 b1bc c134 a6bb 5620 6b3c dd0e e13c
000002d0: c287 aebd 60f4 e63d f7a5 b23a 51b0 c5bd
000002e0: b722 ce3d e879 893c 3df2 a63d 749a 7ebd
000002f0: 1fab 233d d338 c0bd c699 dfbd 20e1 473d
00000300: 0f6e 063d d030 d13d 6614 debc 1c5d e0bc
00000310: c9c2 1bbd ad9b 6e3c 9a90 95bd c864 52bc
00000320: 003e 6bbd 4332 c13d 2937 01bd ba62 813d
00000330: 96ac 21bd db95 8abd dc03 adbd e722 853d
00000340: e656 43bd 7f26 d53c dec0 dc3c 34e9 33bc
00000350: 3e7c d63d 9d7a 1cbd 89f4 7abd 3486 d3bd
00000360: e699 e1bc 0144 1f3d d629 a83d 8bca 173d
00000370: 8248 80bc db5d 8b3d 3e28 b6bd 49bd 823d
00000380: cd2b 6abd 320e 243d dde7 b1bd 7001 96bd
00000390: 5c67 783d 913e 213b a46c 9abd 7ebe c93c
000003a0: 7f41 a5bd 5dda 21bc b377 91bc ab11 dabd
000003b0: 5a12 923c c8d0 9f3d 78d7 75bd f705 13bd
000003c0: a3c9 c63d 1988 c4bd 11aa 5a3d 23c4 0ebd
000003d0: bb33 b9bd f2a1 253d b3fc 963d 6e7b 6f3d
000003e0: 88c6 d4bd 54b1 8e3c 5480 893d c3c3 f9bc
000003f0: 26a2 eabd 5b99 d7bd fb26 a9bd d51b 47bd
-0.03352986 -0.06445396 -0.03754386 -0.108263545 0.0048531974 0.107409775 0.04782343 0.09906023
-0.060945723 0.04443082 -0.07119844 0.0025549259 0.11126828 -0.073851645 -0.077915765 -0.056343455
0.026790772 0.03607342 0.058837686 -0.100009374 -0.040904593 0.031203952 -0.028699687 0.028036932
-0.078666225 0.075834535 0.0789796 0.11202592 -0.0013552251 -0.050882522 -0.035992082 0.034994032
0.091300756 0.052098528 0.070182 -0.05121132 -0.0694676 0.1186324 -0.093460426 -0.09821721
-0.07426772 -0.060568444 0.052113418 -0.0734129 0.0049336874 0.023271244 0.0041063344 -0.08523241
-0.08125829 0.045955736 0.00453285 0.08855629 -0.055677094 -0.053431638 0.02543484 -0.06867783
0.05949023 -0.026202962 0.031889316 -0.048643444 0.02533569 0.009627821 0.10627275 0.07928035
-0.053103834 -0.007869815 -0.09482663 0.09723349 0.11712566 -0.045820814 -0.10607949 0.05607437
0.056906037 -0.09131103 -0.093946576 0.07235993 0.07272103 0.09312057 -0.03802346 -0.0447594
-0.073347315 0.023618024 -0.043888357 -0.054414794 0.0045998744 0.087927975 0.047675602 0.07233984
-0.031432528 -0.10005477 0.07527079 0.027968505 0.01612516 -0.051075555 -0.041605443 -0.03597471
0.0890144 0.07202038 -0.07197243 0.003893906 -0.097160764 -0.10586063 -0.04639568 -0.04757865
0.03730456 0.0035449758 -0.09129337 0.06622797 -0.012871867 0.00026824692 0.015776457 -0.088837676
-0.066320784 -0.077947326 0.046864834 -0.015975345 -0.08003718 0.022748785 0.075247124 0.08002801
0.0062525864 -0.10413658 0.063735545 -0.03273356 0.035756126 -0.09057204 0.03128796 0.07122232
0.042900592 -0.038015 0.040854275 -0.023633221 0.003956063 -0.042618744 -0.08459773 0.06406415
-0.08311928 0.0107415775 -0.05819528 -0.026499737 -0.011730123 0.118485615 -0.1098115 -0.09201083
0.0048473617 0.0057852897 0.1102242 0.056210604 -0.014106069 -0.10748978 0.03480374 -0.09301801
-0.08561491 -0.088441454 0.0441522 0.011847054 0.008451586 0.062349696 -0.035813037 -0.06380113
-0.006740722 -0.020708296 -0.04017147 -0.014412755 -0.028829783 0.011447813 0.0057620555 -0.028129337
0.09427724 -0.09236626 0.06933614 0.057522338 -0.101683594 -0.099541806 -0.008902934 0.03882308
-0.021686794 -0.0050722067 0.014350971 0.027472908 -0.085219875 0.112770796 0.0013629784 -0.0965277
0.10065215 0.016781762 0.08151672 -0.062159017 0.039958116 -0.09385838 -0.10918002 0.04879868
0.032819804 0.10214388 -0.027109336 -0.027388148 -0.03802756 0.014563483 -0.07302971 -0.012841411
-0.057432175 0.09433415 -0.031546745 0.06317659 -0.03947123 -0.06766864 -0.08448002 0.06500798
-0.047690295 0.026019333 0.026947435 -0.010980893 0.10472916 -0.03820287 -0.061268363 -0.103283316
-0.027539205 0.038883213 0.082111046 0.037058394 -0.015659574 0.06805011 -0.08894394 0.063837595
-0.057170678 0.0400526 -0.086868025 -0.07324493 0.060645446 0.0024603943 -0.07540253 0.024626967
-0.08069133 -0.009878722 -0.017757272 -0.10647901 0.017831016 0.07803494 -0.06001994 -0.03589436
0.09706428 -0.09596271 0.053384844 -0.03485502 -0.0904307 0.040437646 0.07372417 0.05846732
-0.10389429 0.017418541 0.0671393 -0.030488854 -0.114567086 -0.10527297 -0.08259388 -0.048610527

bias f4 [64]
00000000: 5689 f93b 684d 4d3c 7287 323a face 593c
00000010: a3af 8b3c 145f 433c 1f59 e73b 3229 b83b
00000020: c30e 713c 1eb2 993c 1d9e 8d3c 6990 923c
00000030: 8c66 5e3c cd40 e33a 2bfc ff3b 2bf0 593b
00000040: 62c0 583c 2c0a bc3c 1468 133c fd02 223c
00000050: 1733 8639 7316 ca3c 53b7 593b 049a 0f3c
00000060: 3328 373c f4c1 f83b 3e68 f83b f998 c43c
00000070: 56c5 763c 1c53 5a3c 0d1e 283c 9804 e53c
00000080: d225 d5bb c7fe 6d3c f31d 063c cf01 c1bb
00000090: 5941 5a3c 3cfe 8d3c f889 663b 9813 963c
000000a0: aa2e 333c 5679 d83c 80e5 713b 25ad 423c
000000b0: a344 883c 4595 e53b d282 483c c641 a53c
000000c0: 91d9 ca3b 36f5 c53b d2c7 b43c 917c 493c
000000d0: d2cd b93b fccd 2d3c 0832 053b 2aaf 973a
000000e0: b822 333c 8a18 1c3c 36e4 973c 6285 6a3c
000000f0: 48df bf3b d8b6 2d3a 1d0c 0a3b cef5 8d3b
0.0076152487 0.012530662 0.0006810344 0.013293976 0.017051524 0.011924524 0.0070601846 0.0056201452
0.014712992 0.01876169 0.017287308 0.017891126 0.013574254 0.0017338038 0.007812043 0.0033254724
0.013229461 0.02295407 0.008996982 0.009888408 0.00025596537 0.024668908 0.0033220842 0.0087647475
0.011179018 0.0075914804 0.007580786 0.023998724 0.015061697 0.013325479 0.010261071 0.027956292
-0.0065047527 0.014526076 0.008185851 -0.005890108 0.013321244 0.017333142 0.003517745 0.01831989
0.010936419 0.026425045 0.0036910474 0.011882101 0.016634291 0.0070063197 0.012238221 0.020172965
0.0061904867 0.0060411943 0.022067938 0.012297765 0.0056702876 0.0106081925 0.002032401 0.0011572589
0.010933571 0.009527335 0.018541437 0.0143140275 0.0058554746 0.0006626672 0.002106435 0.0043322807

weight f4 [64, 64, 3, 3]
00000000: ce14 9fbd 6dde 51bd 702b a2bc 8097 c2bd
00000010: 5b19 633c e37b 473c a4ad a7bd cb85 a5bd
00000020: c3b8 823d 101f 44bd 10b6 7f3d 8db9 62bd
00000030: 1e4b a2bd 64cf c8bd d844 75bd 7294 9ebd
00000040: 9b26 c5bc 1e29 863d 1f6a 873d e991 b1bc
00000050: eea9 65bd d0ed 2e3c 3563 5dbd dd36 dd3c
00000060: 4f76 5dbd d8a3 963d 21e7 82bd 5629 22bd
00000070: d4cd d3bd d4e2 babd 6bcf 5fbc 3f10 a73d
00000080: f56f 9c3d 55a6 1f3c 9723 9c3c d99d 65bd
00000090: aa90 64bd bfec 8a3d 3f11 123b b8b2 18bc
000000a0: 7088 c7bd 9e78 c3bc d391 31bc 3f67 443d
000000b0: 377d fabb 2315 a33d 5152 9e3d 42f7 2e3b
000000c0: bcb6 963d e0e4 b13d eb3e c5bd 69f4 05bd
000000d0: 199c 89bd 2e74 853d 663e b3bc b9fb bbbd
000000e0: f68a d53c 1a8d 2b3c ad39 e53c 4af4 c2bc
000000f0: e038 5d3d b830 37bd caad 5b3d 2425 8cbd
00000100: 8402 a43d c43a 723d fa5e 683c 8a0e bebd
00000110: c230 8d3d 0d7a bfbd 45d2 903d 3f64 1f3d
00000120: 7cd9 c4bc fa7b 8c3d 5c8c 79bd 9e0b 833d
00000130: 4e5d c9bd b0d1 b6bc 4da7 b33c e08a 49bd
00000140: c3b0 29bd 68c6 c8bd 48a3 c23d 8513 56bd
00000150: 0a5a dabd 5e3b 253c 7261 5dbd 6afa 833d
00000160: af7b 993d 10f2 503d bb84 803d 6652 c13c
00000170: d5fe 2e3d 0be9 703d c94f db3b 4da3 ac3d
00000180: deff d1bc d6b1 8fbd 246d abbc cfbd 36bd
00000190: abbf 22bd 6391 23bd c859 9b3d 215c 2fbc
000001a0: 6d2a f5bc 74a7 aabd ca21 7ebd 80f6 bf3d
000001b0: cdb7 153d b526 f8bb e22e f0bc 62cf 8c3d
000001c0: de02 5c3d bf7b 923d e8db b1bd 65f0 93bd
000001d0: af45 3e3d 96c1 aebd b8f0 793d a864 883d
000001e0: e471 2f3d 285c d3bd 367a 57bd 6528 323c
000001f0: 7400 82bd 6616 4cbd acb7 4bbc 84ac 8b3d
00000200: dac3 12bd 763f 213d 87f5 d4bc ce1b 74bd
00000210: a9c9 7e3d 9ca0 c8bd 32d2 0b3b 70ac 7abd
00000220: 6835 1abd b90b a33d 738a 23bc 535f 10bd
00000230: ad33 af3c d0fc c0bc 5d4f 993d e8f8 3ebd
00000240: ed1b 4e3d e25a 29bd 1079 74bd 18eb 043d
00000250: 15b0 8fbd bf3c b63d bdbc 4c3d b3d2 793c
00000260: 2dcf 2fbd b428 adbd 8176 763b cae8 c43d
00000270: 0be8 493d 5a20 95bc 34dc 303d e250 a8bd
00000280: 4ec5 553d 2d47 d33c e11e 553d c6f5 623d
00000290: 6728 d1bd 05a8 073d c3d2 ab3d ade0 80bd
000002a0: f354 893d a3fb 4e3c d5ae 1ebd 072c c93d
000002b0: c157 50bd a7b7 e4b8 97f1 75bc 0134 78bd
000002c0: 3667 683d 8c09 923d df76 133d 7e90 e03c
000002d0: d6ba 05bc b13e b23d 1530 cebd 76c8 923d
000002e0: eafa 2e3d f5d8 c93d 22f8 b53c c265 bb3d
000002f0: a961 adbd b64a 833b 8abf 3dbd 70c5 a93c
00000300: 61ec 303d e215 523c c829 d9bd 5c17 d3bd
00000310: bc86 34bc d15e b3bd 45ba 853d f6f2 6d3d
00000320: 99f3 303d 7871 353d 0242 24bd 17bb ba3d
00000330: e062 d83c febb 333b d1e3 90bd 3961 2dbd
00000340: 5743 583d 7bb7 983c ea79 8bbc b1e6 8cbd
00000350: 8b66 b33c b3db e8bb ccb8 493d 3e68 9a3d
00000360: e3ac ae3d 345c db3c 0013 bbbc a581 b43d
00000370: 582a a6bd 73e7 c53d 37b7 673c 4a9e 8e3d
00000380: 6b70 64bd c3e4 9bbc a6ba f1bc ed9a 8e3d
00000390: 9ecf c9bd 515e 7fbc ba9e 55bd 7b14 9cbd
000003a0: ee2b bebd 1d79 9abd 1d9c ba3d 39e0 aa3d
000003b0: 58de a03d 49d9 423d 4670 123d de01 1f3d
000003c0: 51f5 c7bd 2bc5 9dbd 2467 953b 589b 303b
000003d0: 6c1b 02bd 98a3 c43d 1312 ddbc d945 c03d
000003e0: 4aab 413c cd71 a6bd 258a da3b d129 a83d
000003f0: d124 c3bb 9611 94bd 9e75 063d ae39 92bc
-0.0776764 -0.051237512 -0.019796103 -0.095015526 0.013861026 0.012175533 -0.08187416 -0.080821596
0.06382897 -0.047881186 0.062429488 -0.055352736 -0.07924484 -0.098051816 -0.059880108 -0.077431574
-0.02406626 0.06550811 0.06612038 -0.02167602 -0.05607026 0.010676816 -0.05404969 0.0270037
-0.054067906 0.073554695 -0.063917406 -0.039590202 -0.10341993 -0.09125295 -0.013660292 0.081573956
0.076385416 0.0097442465 0.01905994 -0.05605874 -0.055802025 0.06783437 0.0022288112 -0.009319954
-0.0974282 -0.023861226 -0.01083799 0.047950026 -0.0076443213 0.07963016 0.07730544 0.002669767
0.073590726 0.086862326 -0.09631141 -0.03270379 -0.067192264 0.065163 -0.02188034 -0.09178872
0.026067238 0.010470653 0.027981604 -0.023798127 0.05400932 -0.044724196 0.053632535 -0.068430215
0.08008292 0.059138075 0.0141828 -0.09280117 0.068940654 -0.09349451 0.07071356 0.03891396
-0.024029486 0.06859584 -0.060924873 0.063987 -0.098322496 -0.022316784 0.021930361 -0.049204707
-0.04142834 -0.09803468 0.095038 -0.05226471 -0.10661705 0.010084955 -0.05404801 0.06444247
0.07494294 0.0510121 0.06275316 0.023598861 0.042723496 0.058815997 0.0066928607 0.08429585
-0.025634702 -0.070163414 -0.020926066 -0.04461461 -0.03973357 -0.039933573 0.07585484 -0.010703118
-0.029927457 -0.083327204 -0.062043943 0.09373188 0.03655224 -0.0075729736 -0.02931923 0.06875493
0.053713672 0.07152509 -0.08684522 -0.07223586 0.046453174 -0.08533017 0.061020583 0.06659824
0.042833224 -0.10320312 -0.052606784 0.010873889 -0.06347743 -0.04982605 -0.0124339275 0.06820014
-0.03583131 0.03936716 -0.025995983 -0.05959683 0.062204037 -0.09796259 0.0021335003 -0.061199605
-0.03764859 0.0796122 -0.009981739 -0.03524716 0.021386946 -0.02355805 0.074858405 -0.046624094
0.0503196 -0.04134644 -0.059685767 0.032450765 -0.07016007 0.08898305 0.049984682 0.0152479885
-0.042922188 -0.08455029 0.0037607255 0.096147135 0.04929356 -0.018203903 0.043178752 -0.08218552
0.052190118 0.025790775 0.0520314 0.05541017 -0.10212784 0.03311922 0.08389809 -0.062928535
0.06705656 0.012633237 -0.03874095 0.09822851 -0.05086494 -0.00010906095 -0.015011213 -0.06059647
0.056739055 0.07130727 0.036002036 0.02741265 -0.008162221 0.08703364 -0.10067765 0.07167141
0.04271976 0.098558344 0.022213046 0.09150268 -0.08465893 0.004006709 -0.046325244 0.020724028
0.04319418 0.0128226 -0.10603672 -0.1030719 -0.011018451 -0.08758319 0.06529669 0.058093034
0.043201063 0.044297665 -0.040102012 0.09117716 0.026414335 0.0027425284 -0.070747025 -0.042329047
0.052798595 0.018642178 -0.017025907 -0.068799384 0.021899482 -0.0071062683 0.0492485 0.07539414
0.08529069 0.026777364 -0.022836208 0.0881379 -0.08113545 0.09663286 0.014142803 0.06963785
-0.055771273 -0.01902998 -0.029507946 0.069631435 -0.09854053 -0.015586452 -0.052153327 -0.07621094
-0.09285723 -0.07542632 0.091118075 0.08343548 0.07854909 0.0475705 0.035751604 0.03882014
-0.09763587 -0.077036224 0.0045594145 0.002694806 -0.031764433 0.096015155 -0.026986158 0.093883224
0.011820624 -0.081271745 0.0066693 0.08211101 -0.0059553166 -0.07229917 0.032827012 -0.01784977

bias f4 [64]
00000000: d704 833b bd1e 703a 8fde 9f3c f225 873a
00000010: 9bad e33b 5f11 183c 3874 613c 472f e33b
00000020: dd47 193b c2de e039 60c6 383c b265 a13c
00000030: 540e f23b f323 643c ac65 873c da65 773b
00000040: 0aae 573c bef6 533c 05e0 eb3b 60e8 013c
00000050: bd49 0a3a f5a7 b73b 7d4d 883c ae6b 043b
00000060: fb3b d83b 4eb9 853c 8594 a93c 50c8 a43b
00000070: 62e5 6c3c 12d6 a53b 3df7 d13c 3dd6 7d3b
00000080: 7113 723c c766 3f3c f29a 003c 2e30 ec3a
00000090: 5175 7f3c aea2 7a3b 684a ec3b 8960 bd3b
000000a0: 3afd 263c fd96 a43c 18ad b33c 6157 283c
000000b0: 04bb 883c e350 e73b 5742 983a c982 533c
000000c0: d67c 553c 0679 943c 220a e8ba 931b 9b3c
000000d0: 4b8f 053c 1a05 883c b0aa 0b3c 314f dc3b
000000e0: 75df 2a3c 9c0c 933c 3f3f a53b f6f0 743c
000000f0: 34e6 2e3c ef37 883a 4014 893b bed0 4e3b
0.0039983797 0.0009159854 0.019515304 0.0010310991 0.0069481856 0.009281485 0.013760619 0.006933126
0.002338878 0.00042890577 0.011277765 0.019701812 0.007386962 0.013924587 0.016527973 0.0037749917
0.013164053 0.012937246 0.007198336 0.007928938 0.000527527 0.005604739 0.016638512 0.0020205784
0.006598947 0.016323712 0.020700702 0.005028762 0.014458986 0.0050609196 0.025630588 0.0038732432
0.014775143 0.011682219 0.007849442 0.001801973 0.015591935 0.0038243937 0.0072110184 0.00577933
0.01019221 0.020091528 0.021933123 0.010274739 0.016690738 0.007059203 0.001161645 0.0129096
0.0130302515 0.018124115 -0.0017703215 0.018934047 0.0081518395 0.016603995 0.008524582 0.0067233075
0.010429253 0.017950349 0.00504294 0.014950028 0.010675002 0.0010392646 0.004183322 0.0031557526

weight f4 [6, 3136]
00000000: 5b8b 0d3c 5a00 f0bc 60df e13c a9a3 cdbc
00000010: aacf 923c 5aa0 193d eb87 1a3d d07c 103d
00000020: 1336 98bb 367e 9f3c 7157 d73c c5f7 093d
00000030: 4979 00bd 2caa cbbc 493b fbbb e812 b93c
00000040: 89b8 9c3c b0c1 32bd f5c4 ddbc f9cf 3cbb
00000050: 5728 2d3c 7a31 19bd f73a 0bbc 2c8e 20bd
00000060: 98ca 2dbb f5e6 cb3b ad03 953c 8374 eebc
00000070: 999b 5c3c 450a e73b abf0 d53c c02c 0fbd
00000080: d690 1f3a 0009 e4bb 3203 eebb 76b7 843c
00000090: 7c51 23bd b3fc 313d a034 37bc 4a58 fabc
000000a0: 8f92 0c3d fa5a 11bd ec1c 203d 2af0 eebc
000000b0: 3051 0b3d 7491 d53c 241e 163d 2ea3 86bc
000000c0: fe54 da3b 994b e83c a847 66bc 60e8 36bc
000000d0: b0da 11bd 1bfe fcbc 4e3e cdbc 424f da3c
000000e0: 5f9d 433c cd79 e63b 447a 16bd 3880 b73b
000000f0: 3f88 7c3c 37a0 063d bb8b f4bc 734e c4bc
00000100: cfd4 3d3b 3393 f1bc b45e 1ebd 9d23 d43c
00000110: 1c52 a23b c2ba c13c af7f 1d3d fa2f c1bc
00000120: ba24 13bd ed50 33ba 1ec1 e9bc ce31 ad3c
00000130: ad0f e13b 41be 1a3c e379 08bd 402e 103c
00000140: 6a79 1abb b4b2 44bc 09ba 7cbb 1828 e03c
00000150: 3b4e 2bbc f57a 183d 4efd 04bd 0dff f9bc
00000160: cf11 47bd ece3 083d c40b 3f3c 8da6 9ebc
00000170: ac8e 143d 1eff 323b f59b a03c fd7f 0bbc
00000180: 1372 e7bc 3510 01bc 11c4 2c3d 8052 3b3a
00000190: 0c0e cb3a 8b48 c9bb b912 123d c65f c2bc
000001a0: b0ac 033d fd1e 8f3c 5e3f 22bd a0c6 ea3c
000001b0: 5de7 ec3c ad8c 0f3d 43f8 8abc 60ab 133d
000001c0: 48d8 283d a099 173d 4c06 05bd eab3 3d3d
000001d0: fd4d aabc 3518 d0bc 4bad 2bbd 6cd1 ac3c
000001e0: d1a3 44bb f16d fc3c ca6c cb3b 78d4 f13b
000001f0: 986c 80bc 681a 053d 2258 513c 0c09 0fbc
00000200: 3466 0bbd f3f9 4fbc 67a7 fabc 06c5 3d3c
00000210: 2cff 2b3d 18d3 4abc aea0 093d fbba f23c
00000220: b2e5 913c 9ecc e13c 0664 423d c3f2 5e3b
00000230: 1737 d5bc 461a 033b de1b aabc 58d1 923b
00000240: 6246 543c 591c ad3b a0ae 68bd 6aab 033b
00000250: cc34 f23c 6cfd e8b9 8b36 eebc 25a2 1f3c
00000260: e199 04bd 8f9c 1e3c 64f2 dc3b e3b8 debc
00000270: 4543 1cbc 07e1 94bc 2563 f93c f072 903c
00000280: a3f7 b83c 6f7e 223d 20be 8d3c 064f 033d
00000290: 0f6f e33c ef20 13bd 14f9 323c 36b3 8cbc
000002a0: 1601 2d3d 9ffa 10bc fba7 6f3b 1d74 31bd
000002b0: e745 bf3c a055 d43c 48f2 d7bb f37e 65bc
000002c0: 07aa 063d 0347 49bd c2a9 343b 1845 193d
000002d0: b4cd ea3b c6e9 743b a6c4 07bd 90b3 cfbc
000002e0: 25f3 d5bc 8bae 38bd 6daa 2f3d 12bd e6bc
000002f0: d143 203c 5217 9e3b d87f 83bc e6de 0fbd
00000300: 536c ca3c 90b2 e7bb 5c7d 0cbc ea01 823b
00000310: 635f f13a 9c09 113d b793 bc3b 0f73 89bc
00000320: 05f8 173d 7f14 4a3c b7e2 d8bc 157c f2bc
00000330: cacc 9c3b 3c0e 943c d792 4bbb 394e 02bb
00000340: 232a f7bc c625 6cb7 e7b2 22bd 4ee4 b9bc
00000350: c735 1c3d e6e9 36bd 942e cf3c ec32 963c
00000360: 7c1b e1bc e4b9 283d 77cb e23c e705 12bd
00000370: 7b6a babc ff76 87bc cd22 0ebc 76de 003c
00000380: 3116 02bd 0bcd b2bb c665 2a3c 1a83 113d
00000390: 4a83 853c 2151 173d 2219 003c db4c 863c
000003a0: 5b59 3fbc e8ca f5bc 07e6 223d bdac 2abd
000003b0: 524b 2a3d 3b23 10bd cb27 86bc 7707 433c
000003c0: f8bb 6ebc 5773 80bc 0377 0dbd 46d1 023d
000003d0: 6029 69ba 2d3b 29bb 372d bb3c 83d3 fcbc
000003e0: 4fcd cabc 3f37 e7bc a6f6 6f3c 62e7 9a3c
000003f0: 0c87 643c 79c3 913c f0ab 243d bf5a ebbc
0.008639182 -0.029297043 0.027572334 -0.025102453 0.017921288 0.03750644 0.037727278 0.03527528
-0.004645118 0.019469362 0.026286812 0.033683557 -0.031365667 -0.024861418 -0.0076669795 0.022592023
0.019130962 -0.043641746 -0.027071455 -0.0028810485 0.0105687 -0.0374007 -0.008497945 -0.039198086
-0.002651846 0.0062226006 0.01819023 -0.029108291 0.013464832 0.007050785 0.026115736 -0.034954786
0.0006086951 -0.0069590807 -0.0072635645 0.016200762 -0.03987263 0.043453883 -0.01118198 -0.030559678
0.034319457 -0.035487153 0.039090082 -0.029167254 0.034012973 0.026070334 0.036649838 -0.016435232
0.006662964 0.02835636 -0.01405517 -0.011163801 -0.035608947 -0.030882886 -0.025054123 0.026649121
0.011939376 0.0070335628 -0.036737695 0.0056000017 0.015413343 0.032867637 -0.029851785 -0.023963189
0.0028965955 -0.029489135 -0.038664535 0.025895888 0.004953636 0.023648623 0.038451847 -0.023582447
-0.035923697 -0.0006840367 -0.028534468 0.021141913 0.006868324 0.009444774 -0.033319365 0.008800089
-0.0023570904 -0.012005497 -0.0038563034 0.027362868 -0.010455663 0.037226636 -0.032468133 -0.030517126
-0.048600968 0.03342049 0.01166052 -0.019366527 0.036268875 0.0027312706 0.019605616 -0.0085144015
-0.028252637 -0.007877399 0.04217917 0.00071457773 0.0015491857 -0.006142681 0.035662387 -0.023727309
0.03214711 0.017470831 -0.039611213 0.028659165 0.028918916 0.03504627 -0.016964084 0.036052108
0.041221887 0.037011743 -0.03247671 0.046314158 -0.02078914 -0.025402168 -0.041913312 0.021095954
-0.0030004869 0.030814143 0.006208037 0.0073800646 -0.015676782 0.032495886 0.01277736 -0.008730184
-0.034033015 -0.01269387 -0.030597402 0.011582619 0.041991398 -0.01237943 0.0336005 0.029630175
0.017809723 0.02756339 0.04745867 0.003401921 -0.026027245 0.0020004674 -0.020765241 0.004480522
0.012956234 0.0052829203 -0.05680716 0.0020091184 0.029566191 -0.00044439302 -0.029078742 0.009743248
-0.032373313 0.009680881 0.0067427624 -0.02718777 -0.009537523 -0.018173708 0.030442784 0.017632931
0.02257902 0.039671358 0.017302573 0.032057784 0.027762918 -0.03592008 0.010923643 -0.017175298
0.042237364 -0.008848815 0.003656863 -0.043323625 0.023348762 0.025919735 -0.0065901615 -0.014007318
0.032876994 -0.049139988 0.0027567004 0.03741941 0.007165635 0.0037370785 -0.033146523 -0.025354177
-0.026116917 -0.045088332 0.04288714 -0.028166328 0.009781794 0.0048245573 -0.016052172 -0.035124682
0.024709856 -0.007070847 -0.00857481 0.0039675133 0.0018415268 0.035409555 0.0057549137 -0.016778497
0.037101764 0.012333988 -0.026475294 -0.029600183 0.004785155 0.018073194 -0.0031062865 -0.001988305
-0.03017146 -1.4075491e-05 -0.039721396 -0.022691872 0.038137224 -0.044656657 0.025290765 0.018334828
-0.027478926 0.041192904 0.02768491 -0.03565016 -0.022755852 -0.016536234 -0.008675289 0.007865539
-0.031759445 -0.005456572 0.010400241 0.03552542 0.016297955 0.036942605 0.007818492 0.01639407
-0.011679019 -0.03000398 0.039770152 -0.041668642 0.041575737 -0.03518985 -0.016376397 0.011903635
-0.014571182 -0.015679998 -0.034537327 0.03193786 -0.000889441 -0.0025822625 0.022848709 -0.030862575
-0.024756102 -0.028224586 0.014646208 0.01890916 0.013948213 0.017793404 0.040203035 -0.028729795

bias f4 [6]
00000000: 427f 143c e138 353c 5967 073c 18e3 1f3c
00000010: bdd8 5d3c a4fe 623c
0.009063544 0.011060924 0.008264386 0.009758733 0.013540444 0.013854656

weight f4 [1, 3136]
00000000: 266b 7fbc 1bcd 263d 3c11 d1bc 4b64 b5ba
00000010: cad0 e4bc 70a8 073d 757a 7bbc 7a7a fb3b
00000020: bc64 40bd 6924 15bd 5c6e de3c 95af 86bc
00000030: 54a2 0abd 19be 2dbd 62b7 fcbc 5834 413c
00000040: 8491 353d 7cc2 cfbc ae1f 2dbc b56c 493c
00000050: 09dc f2bc 5f5a 903c 645d 86bc 39b3 a0bc
00000060: 8aff 2abd 37d0 05bd 14dd 873b 52b7 83bc
00000070: 4659 a0bb 80e7 ffbc 7402 73bc 4dce 1a3d
00000080: 23b2 d03b 7087 d13a abff 923b 8ae5 11bb
00000090: cd7d d23c 6fbf 0d3c 434b 013d 7fac c1bc
000000a0: c848 ad3c 734d e0bc c6a5 4cbb 2029 40bc
000000b0: d0ae 9d3b 097b 713c 7fa1 44bc 6fd3 903b
000000c0: b6cf 243c ef6e aebc d86a 9dbc f348 bb3c
000000d0: 70e6 953c 6bf6 88bc d7ce f8ba 08f2 a13c
000000e0: 2182 223b 68c6 bf3b a153 f8bc 1ada 32bd
000000f0: d290 06bb ee86 bd3c afe5 aabc 145a dd3a
00000100: 5dbc ab3c 9bc6 aebc cfa0 a73b 5a80 26bc
00000110: 4676 883c 225d c7ba 9081 8c3c f85e e83a
00000120: 4b62 52bc dad6 21bd 5706 f8bc ee75 80bc
00000130: 71b8 063c e1b9 963c 06c5 183b 9542 2abd
00000140: 5ecf 64bd d481 c53c 5865 53bc 2e6f 803b
00000150: 687c 9fbc 34aa 403b d0f5 983c 3d4c 23bb
00000160: 4cb7 f43c dd6c 513c d435 3d3d 1b70 203d
00000170: 662a 95bb 6c69 febc eb93 503c 7436 4bbd
00000180: 54e0 4cbd 14af 44bc 0649 5e3c 7f3d 09bd
00000190: 14a3 503b 106b e2ba a0fd 583c 64e4 113d
000001a0: e83c a53b 10b3 483d baa9 fd3b 65c1 e53c
000001b0: 0209 2cbc b8d6 1abc 85ef 97bc 5723 d83b
000001c0: e1bf af3c 04b6 25bd ebaa 2a3c 08d6 003d
000001d0: c19b c33c df0a 1f3b 59b4 afbc d3e3 fa3c
000001e0: 65bf c0bb caab 133c d0f7 e6bc 1784 b0bc
000001f0: 7143 84bc 1f4d 203c e008 f13b 860d 323d
00000200: 8776 bc3a f061 63bb ef10 883c a33a d03c
00000210: 74f8 353d 77e7 213d 064d 3b3d 5d75 913c
00000220: 7a5b fabb 9666 8fbc 3848 28bc 7492 a9bc
00000230: c5b3 fbbc 96b7 3c3c 85fd 883c c955 c83c
00000240: 5aca a1bb e423 6abc 9f47 52bb 0af6 273d
00000250: db78 37bd c516 203b 7eff 1f3d 8f77 d73c
00000260: d7c5 e13c e856 a2bc 4e45 43bb c9af 353c
00000270: 86cb c3ba 0fa6 fa3c dec6 28bd 918d 8a3c
00000280: 6170 f6ba 7c6e 063d ed91 d8bc 3fd9 3abc
00000290: d0cf 2f3d 8315 103c 6097 30bc 6689 a8bc
000002a0: 6b75 743c 2bf4 29bd 6e84 863c ee2d 1a3d
000002b0: bd1c a1bc 878d c2bc 1397 743c 27ea 563d
000002c0: 36a0 33bd e2cc ebbc b270 71bc 6f63 6fbb
000002d0: f5f8 9e3c 689b 363b 6441 f8bb cc28 c4bc
000002e0: 2ad8 f6bc 18a1 07bd 5d7b 3f3c 91c7 10bd
000002f0: b80d 2fbd a88b e63c 322a 1dbd 8f4d 003d
00000300: 379e f3bc 3d57 11bc 17b9 a2bc 42cc 8ebb
00000310: e5da 293d 471d f73c f2e9 013d 8a52 e43c
00000320: d327 b73c 13c2 973c aefe f0bb a6e8 00bb
00000330: 32c6 2ebd fc03 853c 47e9 83bc e71c 343c
00000340: 2fa6 f2bc c8da 9dbc 6d08 35bc 5175 cbbb
00000350: 199e 0cbb 0f13 dc3b 9265 efbc fa31 03bd
00000360: 971b 89bc 9640 bfbc 018e dabc 8ff0 6e3d
00000370: f07d 883b 3ca9 c5bc 3558 e3ba 4623 6dbc
00000380: 9824 e8bc bf3e 05bd b6dc 2abd a054 923c
00000390: 9dd4 a03a e5c2 f73c 76de 1bbb 0529 853c
000003a0: 4634 213c 0c6d 2d3d 1294 353c 0b7b 36bd
000003b0: c3a4 143d bb18 173d 31fa 833c d818 813c
000003c0: e48b 29bd 47c7 253c c5f2 2d3c b676 773d
000003d0: fec7 abbc de40 a7bc adf5 243c dc68 3b3d
000003e0: 0829 583c 4c6e 05bd da01 e13c 3fbb 17bd
000003f0: e04c 503c 8df7 c23c 61b9 9cbc a771 183d
-0.015589511 0.040722948 -0.025520913 -0.0013839094 -0.02793159 0.03311962 -0.01534902 0.0076745125
-0.046971068 -0.036411677 0.027152233 -0.016441146 -0.033846214 -0.04241762 -0.030849162 0.011792265
0.044328228 -0.025361292 -0.010566635 0.012293984 -0.029645937 0.017621217 -0.016401954 -0.01961671
-0.041747607 -0.032669272 0.0041462276 -0.016078625 -0.0048934547 -0.031238317 -0.014832128 0.0377944
0.006368892 0.0015985798 0.0044860444 -0.002226206 0.025694752 0.008651598 0.031565916 -0.023641823
0.021152869 -0.02738068 -0.0031226738 -0.011728555 0.004812099 0.0147388065 -0.012001394 0.004419736
0.010059288 -0.021293132 -0.019215986 0.022861933 0.018298358 -0.016719064 -0.0018982542 0.01976873
0.00247968 0.0058525093 -0.030313315 -0.04366503 -0.0020533097 0.023135629 -0.020861475 0.0016887807
0.020963842 -0.021334937 0.0051156054 -0.010162437 0.01665796 -0.0015210251 0.017151624 0.0017728498
-0.012840818 -0.03951154 -0.03027646 -0.015681233 0.008222685 0.01839918 0.0023310794 -0.041567404
-0.055861823 0.024109758 -0.01290258 0.0039195037 -0.019468501 0.0029398324 0.0186719 -0.0024917268
0.029872559 0.012782303 0.046193913 0.039169412 -0.0045521734 -0.031056128 0.012730579 -0.049612477
-0.050018623 -0.0120046325 0.013567215 -0.033505913 0.0031835483 -0.0017274339 0.013244063 0.0356182
0.005042661 0.048998892 0.0077411802 0.02804632 -0.0105001945 -0.009450607 -0.018546829 0.0065960097
0.0214538 -0.040456787 0.010416727 0.031454116 0.02387798 0.0024267954 -0.021448301 0.030626213
-0.005882191 0.009013126 -0.028194338 -0.02154736 -0.01614544 0.009784012 0.0073557943 0.04346993
0.0014378586 -0.0034695826 0.016609637 0.025418585 0.044426396 0.039527383 0.045727752 0.017756158
-0.0076402994 -0.017504971 -0.010271125 -0.020699717 -0.03072537 0.01151838 0.01672245 0.024454968
-0.0049374523 -0.014290784 -0.0032086147 0.041006126 -0.04479299 0.0024427634 0.039062016 0.026302127
0.027560158 -0.01981683 -0.0029795947 0.011089274 -0.0014937974 0.030596761 -0.04120528 0.016913207
-0.0018801802 0.03282021 -0.02643677 -0.011404335 0.042922795 0.008794191 -0.010778278 -0.02057333
0.014920573 -0.041492622 0.01642057 0.03764146 -0.019667024 -0.023749126 0.014928597 0.0524694
-0.04385396 -0.02878422 -0.014736341 -0.0036527773 0.019405821 0.0027863625 -0.0075761545 -0.023945235
-0.030132372 -0.033112615 0.011687127 -0.03534657 -0.042737693 0.028142765 -0.03837032 0.031323966
-0.029738529 -0.008870897 -0.019863648 -0.0043578455 0.04146852 0.030165328 0.03171725 0.027871389
0.022357857 0.018525159 -0.007354579 -0.001966992 -0.042669483 0.016237251 -0.016102446 0.010993219
-0.029620258 -0.019269362 -0.011049372 -0.0062090536 -0.0021456538 0.006716139 -0.029223237 -0.032030083
-0.016736789 -0.023346227 -0.02667904 0.058334883 0.0041654035 -0.024128549 -0.0017345013 -0.014473742
-0.028337762 -0.032530542 -0.041714393 0.017862618 0.0012270395 0.0302443 -0.002378372 0.016254911
0.009839123 0.042340323 0.011082666 -0.044550937 0.03628994 0.03688882 0.016110511 0.015758917
-0.041393176 0.010118312 0.010616963 0.060415946 -0.020969387 -0.020416673 0.010068339 0.0457543
0.013193376 -0.03257589 0.027466703 -0.037043806 0.012713641 0.023799682 -0.019131364 0.037217762
